logs/2020-02-03T14:55:00.666781_train_mode_classification_model_ConvNetSimple_dataset_MNIST_bs_64_name_Adam_lr_0.001/epoch_0037-model-val_accuracy_98.45154845154845.pth (torch_old, 46124 bytes, 8 tensors)

conv1.weight f4 [8, 1, 3, 3]
00000000: 766b 8b3f 5a37 883f e764 71be bc9a 433f
00000010: 1ad8 b33e be0f 04bf 9059 4f3d a4df dd3e
00000020: 2f2f cebe a882 f83e 1df8 ea3f 62e4 b23f
00000030: 354e 2c3f 747a 953f 0574 7d3f 52d2 1d3f
00000040: fb6e c23f 0d5b 853f 6f15 35bf 3916 dabe
00000050: a53e 6dbf 38c5 01bf 8c77 0bbf 4c87 e6be
00000060: 84ec 29bf 08ce eebe 1932 24bf 2521 33bf
00000070: fd3f 2cbf 46a9 71bf 250c 743e 1791 13bf
00000080: 301a 40bd 3a72 853f 9d72 593f a40c 893f
00000090: 896f cf3f 57fa dc3f b016 593f e0e7 963f
000000a0: 9ecc a63f 9f1f db3e 164e d83f 863f e63f
000000b0: df9a 7e3f ce46 36bf b853 8dbe b0a6 44bf
000000c0: 0980 e0be 1dce 31bf a6f6 93bf d633 47bf
000000d0: 880e 44bf e90b 06bf 2ddc a83f ac41 853f
000000e0: e9c0 963d 46f8 0f3f e0c5 063f dea2 71bf
000000f0: 8462 c33e 4cce 16be b656 3bbf a37d 20bf
00000100: 945d d8be fddd 93be 06be 133d 0a2c 76be
00000110: ac2d 7c3d b323 e43d 1cc1 7d3f c84b 8d3f
1.089217 1.0641892 -0.23573647 0.7640798 0.3512581 -0.5158652 0.050622523 0.43334687
-0.40270373 0.48537183 1.8356968 1.3975947 0.67306834 1.1677995 0.99005157 0.6164905
1.5190119 1.0418411 -0.7073583 -0.4259508 -0.9267371 -0.50691557 -0.5447929 -0.45025098
-0.6637652 -0.46641564 -0.6413894 -0.6997245 -0.6728514 -0.94398916 0.23832758 -0.57643265
-0.046899974 1.0425484 0.8494051 1.0706983 1.6205913 1.7263898 0.84800243 1.1789513
1.3031194 0.42797562 1.689883 1.7988136 0.99455065 -0.7120179 -0.27602935 -0.76816845
-0.43847683 -0.6945513 -1.1559646 -0.7781347 -0.7658467 -0.52361923 1.3192192 1.0410666
0.073610134 0.5623821 0.52645683 -0.9438914 0.381611 -0.14727134 -0.73179185 -0.62691706
-0.42258894 -0.288803 0.036069892 -0.24040237 0.061566994 0.111396216 0.99122787 1.1038752

conv1.bias f4 [8]
00000000: fe1d 2340 c027 0940 2245 e5be d4e3 3d3e
00000010: 989d d13f 1324 36be b5b6 0840 ee90 3f3f
2.5487056 2.1430511 -0.44779307 0.18543941 1.6376219 -0.17787199 2.1361516 0.7483052

conv2.weight f4 [16, 8, 3, 3]
00000000: 388f 7dbd 0a49 aebd b6a9 703d f9aa 5ebd
00000010: d50e 7d3d 033d 11bd f3a0 733d a974 cdbd
00000020: 9f2d 8bbd 5e2b 133d 1a9d 6f3c 1738 fcbc
00000030: 84ab 833d 12f0 913d 342f bfbd a7c0 8ebd
00000040: d7ce cf3d f8ca 38bd f585 4ebd b5ef f4bd
00000050: 678f a1bd cf36 a93c a022 2dbc e204 bebd
00000060: 38ca bcbb 5116 abbd b53c dcbd 72bf 7bbd
00000070: ca34 e6bd 07f7 aabd 37de e43d dadc 683c
00000080: 8dd9 e93c ecc3 e6bd 9ebd a8bd f2ac 20bd
00000090: 64f7 963c 50f6 debd 3a3f 57bd 8616 9ebd
000000a0: 55fa 0ebc 066c 56bd abf6 5abc e852 adbd
000000b0: f0aa a5bd d36d 9ebd af13 44bd 0bd9 d5bd
000000c0: e411 b93d 7a55 01bd 12da bd3d f36c e33c
000000d0: 23e4 dbbd 2123 953d 652f 0fbd 9ff9 5bbd
000000e0: f72f d1bd 498f f9bd afe2 d23c f90c ffbc
000000f0: 5a8e 1f3d 5b06 d8bd b35b a23d 1775 c2bd
00000100: 6cf0 efbc c6a1 783c 22f9 553d bd5c b03d
00000110: c057 c83d e0d4 d1bd f0a5 aa3c 9ba3 74bd
00000120: 0978 f63e 3d8f 323e ddd9 57be 3baf ed3e
00000130: 8e66 b03e adcf 93be a561 013f ec66 423e
00000140: cd8a 853d 8510 823e 34f8 21be 8098 38bf
00000150: ed2c 913e efd4 bdbb 4036 1dbf 7335 753e
00000160: d6a6 2d3e eaad 57be 1af2 eebe e2e8 b9ba
00000170: df12 653e e8b8 c2be ec8d d3bd f108 0b3e
00000180: ac03 c6be 635d 6ebd f8f4 c73d b614 b9be
00000190: 4e21 40bd 63ff 873d e196 8dbf eba2 92be
000001a0: f91c e13e a337 65be 70e8 0a3f fae6 9c3f
000001b0: 8a8d 613e 7690 acbd 386d 22bf 2398 683e
000001c0: 62ff 4d3e ae23 babe 143a 013e e182 443e
000001d0: bba6 5fbd aec0 b5be c075 bc3d 5dc9 7b3e
000001e0: 0c4b d2be 8f38 0bbd c494 a73e 5e7c 40be
000001f0: b050 b1bd 8872 cfbc 0450 bc3e 04f4 ac3d
00000200: 7bcf d3be c15b 0b3f bd9f 983e 10ff d4be
00000210: 1d06 8d3e acf8 143e ac66 e1bd 23fa a93e
00000220: 83fb 1ebe 1b87 b7be fc81 96be c703 cebe
00000230: fb17 80be 0ce2 12bc 8b61 6b3d bdb0 c13e
00000240: 14d6 333f 95f9 403f 3f45 413f 054d 0b3e
00000250: 6f77 a1bd 601e 7f3d 26e4 7dbf 4f4d 39bf
00000260: 905f aabe c83d f43e 17e0 f33e 4a26 2a3f
00000270: 6a00 ae3d 68f5 a43c c8be 2f3e c0b4 93bf
00000280: e2cc 14bf 13b7 d1be 17a9 e4be 1545 dcbe
00000290: 375c d1be e32a 17bd 4fad 71bc 3803 563c
000002a0: 12bc b53e 57a6 cf3e f7d5 6f3e c671 3c3f
000002b0: 183e d23e 82bd fd3c c7a5 893e 64b9 8a3f
000002c0: 27aa 333f 0a29 003f 2385 303f d93f 8a3e
000002d0: a4eb ca3e 2db7 913e 268e 2a3f 02aa 83bd
000002e0: e9b3 043e 26d6 a63e 2b5a 8fbf ccdc 35bf
000002f0: fef0 d7be e6af e2be c2a9 5ebe ed06 dcbe
00000300: f6e1 153e 803c 2b3e fab3 f93d d37a a73e
00000310: 7a66 5b3e b987 8f3e 2665 503f 55f0 073f
00000320: 1471 2e3f d29b ed3c 018f 9a3d 8e18 853e
00000330: 508a 52bf 4dd3 1dbf 1f0b aabe d8f0 f1bb
00000340: 5c15 eabc cc52 02be 1ef0 0cbf ffc3 2cbe
00000350: 6823 a4be 1e62 b7be d85c 673d 9b86 1cbe
00000360: 0a2a 9bbd d883 c6bc 4616 5fbd 5c2b 1cbd
00000370: 5d99 37bc 286d 23bd c478 80bd a6db 8ebd
00000380: b66c c4bd a161 ca3d da96 7dbd 58c6 833c
00000390: 9c7c 27bd 41c7 8fbb eb04 e13d 3666 5e3d
000003a0: 6729 d1bd 9a97 3f3d fc7e b83d 172c 873c
000003b0: 3716 903d ffb3 c23d ba93 dcbc ca24 dc3b
000003c0: df40 c5bd 3add 3dbd 7470 863d d574 3d3d
000003d0: a0dc acbd d18a c1bd 7d0a c2bd 2231 eebd
000003e0: fa3d babd 0b4a 1ebd ca41 963d e580 693c
000003f0: 3d94 b7bd 799f dfbd a73a 323d 6a88 b3bd
-0.061904162 -0.08510025 0.0587556 -0.05436227 0.061781723 -0.035458576 0.059479665 -0.10032017
-0.06795811 0.03593003 0.014624858 -0.030788464 0.064291984 0.07125868 -0.09335175 -0.06970339
0.101468734 -0.04511544 -0.05042072 -0.11959783 -0.0788868 0.020656018 -0.010567337 -0.09278275
-0.005761411 -0.08353866 -0.107537664 -0.061461873 -0.112405375 -0.08347898 0.111751966 0.014212811
0.02854612 -0.11267838 -0.082392916 -0.039227434 0.018428512 -0.10886824 -0.052550532 -0.0771914
-0.008726676 -0.052349113 -0.013364474 -0.08463079 -0.08089244 -0.07735791 -0.047870334 -0.10441788
0.090366155 -0.031575657 0.09270109 0.027761912 -0.10736873 0.07282091 -0.03495731 -0.053704854
-0.10214227 -0.121855326 0.025742857 -0.031134116 0.038954116 -0.10548087 0.079276465 -0.09494989
-0.029289447 0.015175289 0.052239545 0.086114384 0.09782362 -0.10245681 0.020831078 -0.05972634
0.48138455 0.17437454 -0.21079202 0.46422753 0.34453243 -0.28869382 0.5053962 0.18984574
0.06520615 0.25403228 -0.15817338 -0.72107697 0.28354588 -0.005793206 -0.61410904 0.2394617
0.16958174 -0.21062437 -0.46669084 -0.0014183784 0.2237048 -0.38031697 -0.10329804 0.1357763
-0.38674676 -0.05819453 0.09763521 -0.36148614 -0.04690676 0.06640508 -1.106167 -0.28639922
0.43967417 -0.22384505 0.5426092 1.2257988 0.22026649 -0.08425991 -0.63447905 0.22714286
0.20116952 -0.36355346 0.12619811 0.19190551 -0.054602366 -0.35498565 0.092021465 0.24588533
-0.4107288 -0.033989485 0.32730687 -0.18797442 -0.08657968 -0.025323167 0.36779797 0.0844498
-0.41369233 0.5443688 0.2980937 -0.41600847 0.27543727 0.14547986 -0.11005911 0.33198652
-0.15525632 -0.35845265 -0.29396045 -0.40237257 -0.25018296 -0.008965027 0.05746607 0.37830153
0.7024853 0.7538083 0.75496286 0.136036 -0.07884108 0.062284827 -0.9917625 -0.7238359
-0.33276033 0.47703385 0.47631904 0.66464674 0.08496173 0.02013655 0.17162621 -1.1539536
-0.58125126 -0.40959987 -0.44660255 -0.43021455 -0.40890667 -0.036906134 -0.014750793 0.013062291
0.3549505 0.40556595 0.23421465 0.73611104 0.41063 0.030974153 0.2688429 1.0837827
0.70181507 0.5006262 0.6895315 0.27001837 0.39632905 0.28460065 0.6662315 -0.06428911
0.12959255 0.32585257 -1.1199392 -0.71040034 -0.4217605 -0.44274825 -0.21744445 -0.42974034
0.14636979 0.16722298 0.12192531 0.32710895 0.2142581 0.28033236 0.8140434 0.5310109
0.68141294 0.029004965 0.07546807 0.25995296 -0.822423 -0.61650544 -0.3321161 -0.007383447
-0.028574638 -0.12726897 -0.5505389 -0.16871642 -0.32058263 -0.35817045 0.056485027 -0.15285723
-0.07576378 -0.02423279 -0.0544646 -0.03812729 -0.011205998 -0.03989902 -0.06273034 -0.06975488
-0.095910475 0.098819025 -0.06191144 0.016085789 -0.04089032 -0.0043877666 0.10987266 0.054296695
-0.10212975 0.046775438 0.09008595 0.016500516 0.07035487 0.09506988 -0.02692591 0.006718253
-0.09631514 -0.046353556 0.065644175 0.046253998 -0.084405184 -0.09450305 -0.09474657 -0.11630465
-0.09093852 -0.03864483 0.07336767 0.014251922 -0.08963821 -0.10919089 0.043512966 -0.08766253

conv2.bias f4 [16]
00000000: 0a43 bd3c ce69 323e 4931 fb3d 5b68 8bbd
00000010: 4a64 7d3e d4a8 433e 3385 b43c 889f c63e
00000020: 7978 7bbd 967f 573e 88be b6bc e7a7 ffbd
00000030: fcde b33d b431 433d d445 74bd 7499 03bb
0.023103256 0.17423174 0.1226526 -0.068070136 0.24745288 0.19107372 0.02203617 0.38793588
-0.06139419 0.21044764 -0.02230765 -0.12483197 0.08782765 0.047654822 -0.059636906 -0.002008048

conv3.weight f4 [64, 16, 3, 3]
00000000: 1445 31bd c8ab 043c 68ac 1ebc 444a a9bd
00000010: 60cc 78bc 48c5 02bc c04d c9bc 21ce 9c3d
00000020: 10f5 94bc ac3c 4f3d ef84 81bc 052a d7bd
00000030: 553b 093d e6e5 dd3c 8ad0 c6bd cf6b dcbd
00000040: 1ce7 253d 5dd3 d33c cc41 acbd ce0b 80bc
00000050: 1bca 84bd 3565 08be ec0b 35bd 5e99 8ebc
00000060: e80d 5ebc 17fc f83c 21c0 c6bd aa8c 6c3d
00000070: cb7f 913d e63b 3c3d 8069 673c e4d5 e03c
00000080: 93f8 76bd 8c94 aabc 5858 02bc 80f2 3dbd
00000090: e5a0 c2bd 0693 d53c a0ab c23c d453 afbd
000000a0: b0f0 8ebb 5b49 ecbc 5a90 423d fa99 773b
000000b0: 5591 8f3c 90dc 84bd 6b7a 033d 93d8 313d
000000c0: bdd1 e8bd 1ab2 d6bd 4fe8 26bd 3424 0e3b
000000d0: 3481 acbd f603 0cbd 4e67 33bd 61c2 8cbc
000000e0: 9770 afbd 2f61 a23b d545 2b3c dc50 ebbd
000000f0: a6ca 4cbd 207f 22bd abcb 25bc 9fe0 093d
00000100: 7303 b33a 6f00 1fbd 7a50 1e3d 951a 7dbd
00000110: b550 adbd f3c5 16bd 8160 c9bd 05ae 35bd
00000120: b081 01bd a0ae ad3c ce68 a13c 4e30 3f3d
00000130: 506a 25bd 862b 89bd ef7a 463d c054 773d
00000140: 48dc eebd a644 d4bb 4cd9 b5bd 5991 a4bc
00000150: 0b96 353d e0ae 1b3d 44ee e2bd d4a7 803c
00000160: ea9c 533a 2e9e 84bd bedb 0d3d 5293 9abd
00000170: ea4b 87bd 5be9 b3bd 96ee 13bd 4cb7 17bd
00000180: 61c0 17bd 9357 c4bd 05ec c8bd 23d2 14bc
00000190: 5392 ecbd 0bc2 83bd 0cbb b33c 5fda a3bd
000001a0: 2085 29bc 849b 753c 8ae5 a33c e492 49bd
000001b0: 34cc d6bd 16a8 323c e86f 89bc d1a3 95bd
000001c0: b580 d4bd e8f8 fabc 19f5 0cbe 5557 55bc
000001d0: e20e a13a 3580 f5bd e82c ccbd ff79 efbd
000001e0: a822 b93c 11b1 293c 6c4d 39bd 853b fb3c
000001f0: 08eb d2bd 389c 1ebe 7bef 19bc b307 0dbc
00000200: 482b 2e3d ba7e 21bd 74c4 a23c e0ce b63b
00000210: f61c 5d3c 0dd1 00be ca5c f63c cec7 debd
00000220: fc90 ff3c 3332 35bd f3af ecbd 8e28 c2bb
00000230: 2165 57bd deb2 debd 7f16 9abd 6635 13bd
00000240: 553d 903d 1bce a5bc cead 613d c467 553c
00000250: 0017 383b 7351 b13c 3a0c 56bd f611 94bd
00000260: cf2f a9bc cf2f dbbe 3803 81be 8779 ac3e
00000270: adf6 f0be 503f 65be ca63 dc3e 6454 3dbf
00000280: 1afd f3be 296e 02bf 896e 0e3f 4f6b 943e
00000290: bd1a d33d ddf9 313e 5922 6d3c e1fd f0bb
000002a0: 13fb 213e 47bd 203e d39c 8a3e bd2d 183d
000002b0: aa0f c93c 3499 893d 0009 34bb df76 68bd
000002c0: e553 2c3d 9eaf 66bd 75d3 e0bb f86b b7bc
000002d0: 4966 0bbe 92da a13d 2544 993e c779 0fbe
000002e0: c633 9d3b 830c 02bc 3058 27bf 9e13 0bbf
000002f0: 2586 fbbf a160 903e c838 b6bc 5cf1 43be
00000300: a473 a23d 58b8 353e 707f f1bd ba3b f23c
00000310: 9691 173f 03cf 4fc0 4e99 743e a2d6 343d
00000320: 8b7b 89be b659 a43d 7768 ed3d f33c d9bd
00000330: f50f c5bd 5565 97bc ccae 15c0 ad6f 963e
00000340: 45dc 603e b192 893d 9550 0b3e aa18 943d
00000350: cdd3 9bbc 3c68 d13e c960 6c3f ae1a 7f3d
00000360: 4d0c afbd e756 3ebd a249 1e3e a6c4 96be
00000370: 84e0 11be 852b 17bd 7d07 23bf 13be 01bf
00000380: 0685 21bf 1828 dbbc 2d70 4e3b 0dbb 2f3e
00000390: 71bf 88be a4eb 84bd ddbb ecbd c718 07bf
000003a0: 04bf 78be 94ca 13bf d4c3 243c cea0 6a3d
000003b0: 36d4 7abe 3872 88bd 3d28 253d 78c9 20bf
000003c0: 892b b1bd 0904 ad3e c792 06c0 c5f9 adbe
000003d0: 8e33 f5bd b1b7 8f3e 7823 d9be 225b 75be
000003e0: 31dc 593e 64a8 1dbf 927a c8be 3d95 05be
000003f0: 937a 4a3e a1d1 32be 4e8c 42be f058 353e
-0.04327877 0.0080975965 -0.00968466 -0.08266118 -0.015185446 -0.007981606 -0.024573207 0.076565035
-0.018183261 0.05059497 -0.015810458 -0.105060615 0.03350385 0.027087163 -0.097077444 -0.1076275
0.040503606 0.025857622 -0.08410987 -0.015630629 -0.06483861 -0.13319857 -0.044200823 -0.017407116
-0.01355312 0.030393643 -0.097046144 0.057751335 0.07104453 0.04595556 0.014124274 0.027445741
-0.060295653 -0.020822786 -0.007955633 -0.046373844 -0.095033444 0.026071083 0.023763478 -0.08560911
-0.0043621883 -0.028843572 0.047500946 0.0037780986 0.017525354 -0.064873815 0.03209917 0.043419432
-0.113681294 -0.10483189 -0.04074889 0.002168906 -0.08423081 -0.034183465 -0.04379969 -0.01718253
-0.08566397 0.004955433 0.010453661 -0.11490032 -0.049997948 -0.039672017 -0.010119359 0.03366148
0.0013657644 -0.038818773 0.038650967 -0.06179293 -0.08462659 -0.036809873 -0.0983286 -0.04435541
-0.03161782 0.021201432 0.019703295 0.046676926 -0.04038459 -0.066977546 0.048457082 0.06038356
-0.11663109 -0.00647791 -0.08879337 -0.020088838 0.044332545 0.03800857 -0.11080602 0.015705027
0.0008072393 -0.06475483 0.03463339 -0.0754763 -0.06606276 -0.087847434 -0.036116205 -0.03704004
-0.0370487 -0.09587016 -0.09810642 -0.009083304 -0.11551347 -0.06433495 0.021939777 -0.08000635
-0.010346681 0.014990691 0.020006914 -0.04921235 -0.104881674 0.010904333 -0.016776994 -0.07306636
-0.103761114 -0.030636266 -0.13765372 -0.01302131 0.0012287761 -0.11987344 -0.09969503 -0.11693191
0.022599533 0.010357157 -0.04523985 0.03066803 -0.10298735 -0.1548928 -0.0093954755 -0.008607793
0.042521745 -0.039427496 0.019869067 0.0055788606 0.013495674 -0.12579747 0.030073542 -0.108779535
0.031197064 -0.044237327 -0.11556997 -0.0059252447 -0.05258668 -0.1087396 -0.07523822 -0.035939597
0.07042948 -0.02023988 0.055097394 0.013025228 0.002808988 0.021645283 -0.052257754 -0.07229988
-0.02065268 -0.42809913 -0.25197768 0.33686468 -0.470632 -0.22387433 0.43044883 -0.73956895
-0.4765404 -0.5094934 0.55637413 0.2898812 0.10307834 0.17380472 0.014473521 -0.0073544835
0.15818433 0.15697204 0.27072772 0.037152994 0.024543602 0.06718674 -0.0027471185 -0.05675399
0.042072196 -0.056319825 -0.006861145 -0.02239035 -0.13613237 0.07903017 0.29934803 -0.14011298
0.0047974316 -0.007937553 -0.6536894 -0.5432681 -1.9650313 0.28198722 -0.022243872 -0.1913504
0.07932213 0.17746103 -0.11791885 0.029569495 0.5920652 -3.24701 0.23886606 0.044150002
-0.26852068 0.080249235 0.11592191 -0.10607328 -0.09622184 -0.018480936 -2.3387938 0.29382077
0.21959026 0.06717432 0.13604958 0.07231267 -0.019021893 0.40899837 0.9233518 0.062281303
-0.08547268 -0.046469595 0.15457776 -0.29446906 -0.14245802 -0.036906738 -0.636833 -0.50680655
-0.630936 -0.026752517 0.0031499967 0.17161198 -0.26708558 -0.064902574 -0.115592696 -0.5277218
-0.24291617 -0.57730985 0.010056455 0.05728226 -0.24495015 -0.066624105 0.040321577 -0.62807417
-0.08650882 0.3379214 -2.1027086 -0.33979622 -0.11972724 0.28069833 -0.42409873 -0.23960546
0.21275403 -0.6158507 -0.39156014 -0.13045211 0.19773321 -0.1746278 -0.18998834 0.17709708

conv3.bias f4 [64]
00000000: fb21 35bd c94e 76bd 304f 4abe c93a fd3d
00000010: ec75 bbbd 9f04 873d c546 233d 79c2 bdbd
00000020: 2355 07be 7c7b afbc df3e cdbd a98e 7b3d
00000030: e4e8 13bd df96 1cbd 7d31 013d a0d8 d6bd
00000040: a5f8 303c be3e 0cbd 7a7c ddbd 64bb a0bc
00000050: 4c5a 54be cba8 c0bc c5e2 2fbd de5a 733d
00000060: c645 23be 93ec d5bd 9b7b f8bd 379a 3c3e
00000070: 6df4 12bd 2ff9 98bd dcfe e8bd 4ad0 23bd
00000080: c80a 9bbd ae45 3bbd 4ada 30bc b39c b8bd
00000090: d3fc b23d a77e a33d ed59 33be 7dec 5c3d
000000a0: 076e 4a3d 3dee 5d3d 5057 92bd ac26 b7bd
000000b0: 25f6 6b3b 1ca0 95bd deba c5bb 3da5 39be
000000c0: c993 93bd 49c7 0abe 49fd d7bd 74dd 1b3d
000000d0: bc69 6f3d 5cb0 61bd 66df 4fbe d5db e23c
000000e0: 9172 aebe a73d b3bd 7694 373d 2ac2 92bc
000000f0: 2e5d 71bd 7a40 1b3d d948 233d a3e0 1c3e
-0.04422186 -0.06013373 -0.1975677 0.12364728 -0.09153351 0.06592678 0.039862413 -0.09265608
-0.13216071 -0.021421187 -0.10021757 0.06141535 -0.036110774 -0.03822982 0.031541336 -0.10490537
0.010801469 -0.034239523 -0.10814758 -0.019620605 -0.2073757 -0.023517987 -0.042940874 0.05941283
-0.15944585 -0.104455136 -0.12132951 0.18418203 -0.035877634 -0.07469403 -0.113767356 -0.03999356
-0.07570416 -0.04572075 -0.010794232 -0.09014263 0.08739629 0.079831414 -0.17514773 0.05393647
0.049421337 0.05418228 -0.0714556 -0.08942923 0.0036004868 -0.07305929 -0.006034239 -0.1812944
-0.07205922 -0.13552584 -0.10546357 0.03805299 0.058450446 -0.05509983 -0.20300063 0.027692715
-0.34071782 -0.087519936 0.044819318 -0.01791485 -0.058926754 0.037903287 0.039864395 0.15320067

fc.weight f4 [10, 64]
00000000: 0f07 b33d c777 803e 088c 09be 52dd 0d3e
00000010: 2eb2 9d3b 29b3 e63d d753 9ebd e3b0 9d3d
00000020: 2adf 43be 1b85 abbc 085a d8bd eca5 393e
00000030: f34d 28be 8d42 6b3e 9ae9 a8be 84e4 883d
00000040: c2c8 813d 47ca e5bd 2a8c c6ba 7189 8a3d
00000050: 79b4 b0bd 50a1 85bd c428 6dbe 9ccc d23d
00000060: 196a 013f 1f98 99bd 6186 dabd 6ee4 563e
00000070: 0a47 fe3d 56fb d4be a8b0 0f3d f6cb a0bc
00000080: 95ef 713e ee28 543e dcba 70bd 2a1b babe
00000090: 6c2f 363e 2541 003e 55dd 5fbe 3f40 b33c
000000a0: af8e 093e 8a99 1bbe 9360 2c3d dbb2 f43e
000000b0: bddf 6e3e 052b 0b3d 0170 143e 23fd abbe
000000c0: 84ec 533e f1b2 7d3e dab3 2cbf 8bc7 dabd
000000d0: 7827 82bd e851 713e eb25 f0be e043 3a3e
000000e0: d10a 7f3d 4add b6bd 2d13 a53d 8233 19be
000000f0: d228 02be c8f1 c33e d555 e9be 4e47 94be
00000100: 95b5 733b 6309 9c3e 55b3 6ebe cefb 8d3d
00000110: 458d 503d 8482 55be cea8 d43d 14ee b2bc
00000120: 144b 143e 94c7 023e a253 503d e479 7d3d
00000130: 4991 c0be 9d5d c3be 99d1 413e d342 8bbe
00000140: f135 ce3e d795 a03c 0bd6 f8be d560 f4be
00000150: b43b 48bf 0cd6 5ebe 8d5b 27be 1ad3 fe3c
00000160: d633 2b3e 52dd a3bc bb60 aa3e e095 42bd
00000170: 59d1 40be 06e4 27bd e63e 65bd 2cac 4abe
00000180: 5aaa babe b87f 9d3e d6c8 aebd 3946 883e
00000190: 6aa1 77be eb6c 3abd 095d c43e 01bd aebe
000001a0: 5e14 e5bd 7783 983e dfbb fc3c c5aa 8b3e
000001b0: 68fc a1bd 1280 ca3d bbe2 cb3e d86b 65be
000001c0: afec 10bf dab1 073f ddb0 debe 3d13 be3d
000001d0: 8cc1 afbc 70af 4ebe d40f 183f b928 62bd
000001e0: 842f 8ebf 0c97 09be 86b9 bcbe 2def 30bc
000001f0: bce0 febe 967a 0b3f 0166 0cbe 7416 f43e
00000200: d064 1b3d 2409 27bd 01a1 523e 2195 10bd
00000210: 2a39 d5bd ef49 79be f472 e6bd 63ae 38bc
00000220: 6d31 94be 7d0d 393d 4d52 3e3d 7db4 d93d
00000230: fa11 f2bd 64d3 f33b d278 023d ae7b c9be
00000240: 6433 293e dfb7 e9bc b40a 203e c834 c83d
00000250: 1882 8e3e c0ef 6ebd 3533 a6bc 1358 6fbe
00000260: bef2 433d 83ba 04be f2a3 923e 7cd2 1cbf
00000270: 5964 b4be 4a1b 153f 7bb3 d7bb 2d6b 85be
00000280: 5114 bb3e 12a7 d3bd 2b71 9f3b a39b 083e
00000290: f55d 823d 3606 333e d185 a3bc 755d 523e
000002a0: 61ee fe3d d84e 41be 0363 d33c 50e3 43be
000002b0: a126 1fb6 5a14 833c 7b21 f03d 9f0e 3b3e
000002c0: d07a a93d 8f2c 7ebe ff64 923e 00c4 a5bb
000002d0: 32d2 85bb 52c3 113e 9220 313e 81ff 243f
000002e0: 8095 53bd b962 c2bc 1182 73be bad0 3abe
000002f0: 038f 9d3a 0c87 e23d 0ace b5be c1d3 78be
00000300: 4a99 82bd d9ca 953c 1cda 5fbe 9aaf 6ebd
00000310: 5e29 03be 67a4 693d 8599 d53d 771b b13c
00000320: 706e 12bf 27fc 5bbd 1c0d 383c 467b 35bf
00000330: e3ac 6f3e 2856 6bbd a67b 083f 7870 03bf
00000340: 0dc5 d4be a1db 81bd a48a 80bd 9488 2d3e
00000350: abec f5bc 39a7 5e3d 70ef ec3d e4b8 74be
00000360: 5ec5 503d 1596 18bd 5d62 3abd 4957 70bf
00000370: cbdd 8e3e f105 853e 7348 69bc e9c6 963e
00000380: f278 0d3e 4773 523e 52e3 853c 5898 e43d
00000390: 1de4 12bd 8e91 853d 3047 2bbe d06d 66be
000003a0: 4e8b 05be ba16 b2be df75 aebc 099e 983e
000003b0: 185e 073e 094e 763d 4c3d bbbe 8622 983d
000003c0: 427d 1d3e 3e10 df3d d9f7 7a3e fb8e 48bd
000003d0: dacf a6be c84b cabd 0355 e33e 1fc5 66be
000003e0: 958c 263e 2a54 b83d 51b4 8c3d e0ee b6bc
000003f0: 04b2 1d3d 1381 1fbe 9980 873e 814e 913c
0.08741581 0.25091383 -0.13432324 0.13853958 0.0048125004 0.11264641 -0.07730835 0.07699754
-0.19128099 -0.020937493 -0.10564047 0.181297 -0.16435985 0.22974606 -0.32990724 0.06684211
0.0633712 -0.11220222 -0.0015147973 0.06764496 -0.086281724 -0.065249085 -0.23160082 0.102929324
0.5055252 -0.07499718 -0.10670162 0.20985577 0.124158934 -0.41598004 0.035080582 -0.019628506
0.2362655 0.20718738 -0.058771953 -0.3634885 0.17791528 0.1252485 -0.21861775 0.02188122
0.13433336 -0.15195289 0.042084288 0.47792706 0.23327537 0.033976573 0.14495851 -0.33591565
0.20695692 0.24775292 -0.6746193 -0.10682591 -0.06355184 0.23566401 -0.4690393 0.18189955
0.062266175 -0.08928926 0.08060298 -0.14961055 -0.12710884 0.38270402 -0.45573297 -0.2896065
0.0037187089 0.30475911 -0.23310597 0.069327936 0.050915975 -0.20850569 0.103837594 -0.02184204
0.14481765 0.12771446 0.05086101 0.061883822 -0.37610844 -0.3815736 0.18927611 -0.2719942
0.4027553 0.0196027 -0.48600802 -0.47730127 -0.782161 -0.2176134 -0.16343518 0.03110652
0.16718993 -0.020002995 0.33276924 -0.047506213 -0.1882986 -0.040988944 -0.055968188 -0.19792241
-0.36458093 0.30761504 -0.085344 0.26616076 -0.24182668 -0.04551403 0.3835223 -0.34128574
-0.11185525 0.297878 0.030851303 0.27278724 -0.07909471 0.09887709 0.3982142 -0.2240442
-0.5661115 0.53005755 -0.4349431 0.09281013 -0.021454595 -0.20184112 0.5939915 -0.055214617
-1.1108251 -0.13436526 -0.36860293 -0.010799211 -0.49780834 0.54483926 -0.13710786 0.4767338
0.03793794 -0.0407802 0.2056923 -0.03529847 -0.10411294 -0.2434461 -0.11252394 -0.011272046
-0.2894396 0.04517888 0.046465207 0.106301285 -0.11819835 0.007440971 0.031853504 -0.39352173
0.1652351 -0.02853006 0.15629083 0.09775692 0.2783363 -0.058334112 -0.02028809 -0.23373441
0.04783892 -0.12961774 0.28640705 -0.61258674 -0.3523281 0.58244765 -0.006582675 -0.2605833
0.36538938 -0.103346005 0.0048657856 0.1334062 0.06365577 0.17482838 -0.01996127 0.20543464
0.12447811 -0.18877733 0.025804048 -0.19129682 -2.3715331e-06 0.016000915 0.11725136 0.18267296
0.08275378 -0.24821685 0.2859268 -0.0050587654 -0.004083895 0.14234665 0.17297581 0.6445237
-0.051656246 -0.023728715 -0.23780085 -0.18243685 0.001202077 0.110609144 -0.35508758 -0.24299528
-0.06376894 0.018285202 -0.21860546 -0.058272935 -0.12808749 0.057041552 0.10429672 0.021619542
-0.57199764 -0.053707268 0.011233594 -0.70891225 0.23405795 -0.057455212 0.5331367 -0.5134349
-0.41556588 -0.06340719 -0.062764436 0.16946632 -0.030020079 0.054358695 0.115691066 -0.23898655
0.050969474 -0.037252504 -0.045503963 -0.93883187 0.2790359 0.25981095 -0.014238465 0.2944863
0.13815668 0.20551787 0.016343746 0.1116187 -0.035862077 0.06521903 -0.16726375 -0.22502828
-0.13041422 -0.34782964 -0.02129644 0.2980807 0.13219488 0.060133014 -0.36570203 0.0742846
0.15379813 0.1089177 0.24508609 -0.04896448 -0.32580453 -0.098777354 0.44400796 -0.22536133
0.16264565 0.09000428 0.0687033 -0.022330701 0.038499847 -0.15576582 0.264653 0.017737629

fc.bias f4 [10]
00000000: 5322 983d c931 f6bd 8798 92bd a9ed e3bd
00000010: 801b e2bd eefc aa3c 4e4c 08be ae63 263d
00000020: fea3 393e 492b fd3c
0.07428422 -0.120212145 -0.071579985 -0.111293145 -0.110404015 0.02087256 -0.13310358 0.040622406
0.18128964 0.030904429
