logs/2019-12-27T13:09:07.398172_mode_classification_model_ConvNetSimple_dataset_MNIST_subset_1.0_bs_64_name_Adam_lr_0.001_weight_decay_0.005/epoch_0034-model-val_accuracy_98.06859806859806.pth (torch_old, 46124 bytes, 8 tensors)

conv1.weight f4 [8, 1, 3, 3]
0	0x3f1c9bb5	0.6117509
1	0x3ee70765	0.4512283
2	0xbdf9d61e	-0.12199043
3	0x3f1f74e3	0.6228773
4	0x3cfc9a49	0.030835288
5	0xbf16a785	-0.58849365
6	0x3ee78c3d	0.4522418
7	0xbe5ba7bb	-0.21450703
8	0xbf258949	-0.64662606
9	0x3e8751db	0.26429638
10	0x3ece45db	0.4028767
11	0x3ece33f0	0.40274
12	0x3eabe092	0.3356977
13	0x3ec14ab1	0.37752298
14	0x3eb39813	0.3507696
15	0x3eae5fbf	0.34057423
16	0x3eaffc66	0.34372252
17	0x3e717b91	0.23582293
18	0xbf0343d1	-0.51275355
19	0xbedcd606	-0.43132037
20	0xbefdd596	-0.49577016
21	0xbef432ff	-0.47695157
22	0xbebde486	-0.37088412
23	0xbefd36d8	-0.49455905
24	0xbf0289f5	-0.50991756
25	0xbed65334	-0.41860354
26	0xbeea887a	-0.45807248
27	0xbec0e73a	-0.37676412
28	0xbf49c0dc	-0.78809905
29	0xbf472258	-0.7778678
30	0x3e69da14	0.22837096
31	0xbd4f3293	-0.05058534
32	0x3b864e04	0.0040986557
33	0x3f3ab278	0.7292857
34	0x3f3fa52f	0.74861425
35	0x3f429337	0.7600588
36	0x3e3d027a	0.18457976
37	0x3e2e0fdf	0.16998242
38	0x3d02691c	0.03183852
39	0x3e39f8a5	0.18161257
40	0x3c7b964c	0.015355658
41	0xbe1caac4	-0.15299517
42	0x3da61f9b	0.08111497
43	0xbdf51b1b	-0.119680606
44	0xbe62f903	-0.22165303
45	0xbf1608d7	-0.5860724
46	0xbefc565b	-0.49284634
47	0xbf1062a2	-0.564005
48	0xbf0b5705	-0.54429656
49	0xbed9fce7	-0.42575762
50	0xbf10dd9d	-0.56588155
51	0xbf13c2a1	-0.57718855
52	0xbef48720	-0.47759342
53	0xbf066677	-0.525001
54	0x3f318b1f	0.69352907
55	0x3f63e101	0.89015204
56	0x3f790379	0.97270924
57	0xbe1e98a0	-0.1548791
58	0xbc9e6d21	-0.019339146
59	0x3ea47200	0.32118225
60	0xbf71a2c7	-0.94389004
61	0xbf4f086d	-0.8087223
62	0xbed3e4b9	-0.4138544
63	0x3f1ef600	0.62094116
64	0xbc6663af	-0.014061852
65	0xbf34fd10	-0.7069864
66	0x3f234728	0.6378045
67	0xbd81c9b2	-0.063372985
68	0xbf33daeb	-0.7025592
69	0x3f1dacb1	0.6159163
70	0x3ea8656a	0.32889873
71	0xbe01695b	-0.12637846

conv1.bias f4 [8]
0	0x3f02641c	0.50934005
1	0x3ea39861	0.31952193
2	0x3dfae623	0.12250926
3	0x3ef624e5	0.48075023
4	0x3e07dc92	0.13267735
5	0x3e17c2aa	0.14820352
6	0x3f0a40f5	0.54005367
7	0x3f0ce021	0.55029494

conv2.weight f4 [16, 8, 3, 3]
0	0x3cf5a422	0.029985491
1	0xbd8e2e16	-0.06942384
2	0xbd731bdb	-0.059352737
3	0xbc8cc87d	-0.017185444
4	0xbcef96b6	-0.02924667
5	0xbcc06126	-0.023483824
6	0xbda9c875	-0.08290187
7	0xbd1329b8	-0.035928458
8	0xb9079cd8	-0.00012933032
9	0xbda1de8d	-0.07903776
10	0xbdf8810a	-0.12133987
11	0xbdc0ec2e	-0.09420048
12	0xbcdd307e	-0.027000662
13	0xbdb5e758	-0.08882016
14	0xbe22d4c1	-0.15901472
15	0xbcbdc18b	-0.023163578
16	0xbce5d68e	-0.02805641
17	0xbdc99733	-0.09843292
18	0x3ce9aa3d	0.028523559
19	0x3e00d559	0.12581386
20	0x3de0d506	0.10978131
21	0xbe03439f	-0.12818764
22	0x3b1384e1	0.0022509622
23	0x3e19df02	0.15026477
24	0xbdd0a6ef	-0.1018809
25	0xbe4e0942	-0.20120719
26	0xbd2e39e3	-0.042535674
27	0x3e391ded	0.18077822
28	0x3c9de39d	0.019273574
29	0xbe246ceb	-0.16057174
30	0x3e1bd3c5	0.15217502
31	0x3e2b946f	0.16755842
32	0x3ce42e60	0.027854145
33	0x3d09c3ff	0.033634182
34	0x3e6a330e	0.22871038
35	0x3ea3ac45	0.3196737
36	0xbb75abfd	-0.0037486546
37	0xbccc55b5	-0.024943212
38	0xbc9d1124	-0.019173212
39	0xbca191c1	-0.019722821
40	0xbcd93078	-0.02651237
41	0xbc961964	-0.018322654
42	0xbcf001b6	-0.02929769
43	0xbce5a530	-0.02803287
44	0xbc9839c1	-0.018582227
45	0x3d0e5c46	0.034755968
46	0x3e12f126	0.14349803
47	0x3dfe0eaf	0.124051444
48	0xbe13b211	-0.14423396
49	0x3b8c5a62	0.0042832354
50	0x3e2ece56	0.17070898
51	0xbdeb42ae	-0.114873275
52	0xbe683515	-0.22676499
53	0xbd44a2ef	-0.048006948
54	0xbd9d9a3f	-0.07695436
55	0xbd1ed674	-0.038778737
56	0xbb15ec5b	-0.0022876475
57	0x3dbcfbd3	0.09227719
58	0xbd971593	-0.07377162
59	0xbdbcc76a	-0.09217723
60	0x3e47b7db	0.19503729
61	0x3d9ec2ce	0.07752
62	0xbdc7ae2e	-0.09750019
63	0x3e43d0e9	0.19122662
64	0xbb84b506	-0.0040499
65	0xbd6ae4b0	-0.057347
66	0x3e389c64	0.18028408
67	0x3e381467	0.17976533
68	0x3dc9d733	0.09855499
69	0x3cab426a	0.020905692
70	0x3e40fafd	0.18845744
71	0x3e60abc9	0.21940531
72	0x3dc95165	0.09829978
73	0xbd0bf756	-0.034171425
74	0xbd45266c	-0.048132345
75	0xbce2da04	-0.027691849
76	0xbde94be4	-0.11391428
77	0xbdbb22aa	-0.09137471
78	0x3c92ebed	0.017934764
79	0xbd2bbfd7	-0.041931
80	0xbd3712cc	-0.04469566
81	0xbcfc3512	-0.030787025
82	0xbddbea84	-0.1073809
83	0xbe0a112e	-0.13483116
84	0x3cc8b007	0.024497999
85	0xbc924e89	-0.017859714
86	0xbd0d70e4	-0.03453149
87	0xbc9bd8ac	-0.019024216
88	0xbd2a26f5	-0.04154106
89	0x3c9a596c	0.018841468
90	0xbd14d213	-0.036333155
91	0x3d89c20c	0.06726465
92	0x3dec47ba	0.11537118
93	0xbe22d5e0	-0.159019
94	0xbe20b642	-0.15694526
95	0xbdb57516	-0.08860223
96	0x3ccade85	0.024764309
97	0xbb51b395	-0.0031997908
98	0xbdf72ce1	-0.12069107
99	0x3e20e63b	0.15712826
100	0x3dd9034c	0.10596332
101	0x3dcfc0d6	0.101442024
102	0x3e76c0a0	0.24096918
103	0x3eabb2ed	0.33534947
104	0x3ec99a69	0.39375618
105	0xbd81aa4c	-0.0633131
106	0xbd2f8fb4	-0.042861655
107	0x3d9fab22	0.07796313
108	0x3c8a2d00	0.01686716
109	0xbc83694c	-0.01604142
110	0xbc84d6ff	-0.0162158
111	0xbc599dc2	-0.013282241
112	0xbd2b9513	-0.041890215
113	0xbd00434d	-0.031314183
114	0x3cc807e9	0.024417834
115	0x3c2f1272	0.01068555
116	0x38ec622e	0.00011271644
117	0xbd2374fe	-0.039906494
118	0x3d9ae8b6	0.07563917
119	0x3e05400d	0.13012715
120	0xbe37dc66	-0.17955169
121	0xbe351eb2	-0.1768749
122	0xbdcc361a	-0.099712566
123	0x3ce13f20	0.02749592
124	0xbb6e9782	-0.0036406224
125	0xbe0bfe5d	-0.1367125
126	0xbd01f900	-0.031731606
127	0xbd3774d4	-0.04478915
128	0xbcc795d0	-0.024363428
129	0x3e64d58f	0.22347091
130	0x3df7929e	0.12088512
131	0x3d1bed56	0.038068138
132	0x3ec2a528	0.3801663
133	0x3ee693e1	0.45034698
134	0x3ed570ed	0.41687718
135	0x3e82ce4e	0.25548023
136	0x3dd81f46	0.1055284
137	0x3d332cb0	0.04374379
138	0x3e2e2e87	0.17009936
139	0x3dcb8c0d	0.09938822
140	0x3d96ca70	0.07362831
141	0xbd1c2e4f	-0.0381301
142	0xbdf18d5c	-0.1179454
143	0xbd926901	-0.07148934
144	0x3d3bae5d	0.045820583
145	0x3dabd226	0.08389692
146	0x3e0f46df	0.13991879
147	0xbdd26940	-0.10273981
148	0xbd984350	-0.07434714
149	0xbcdcf304	-0.026971348
150	0xbe06ef1e	-0.13177153
151	0xbde7e14e	-0.1132227
152	0xbd739341	-0.059466604
153	0x3e1a8d58	0.15092981
154	0x3e11bd99	0.14232482
155	0x3df8bba4	0.121451646
156	0xbd998e0d	-0.07497797
157	0xbdb3a27c	-0.08771226
158	0xbd5759f8	-0.052576035
159	0xbcf986ab	-0.030459723
160	0x3ce7ef21	0.028312268
161	0x3d5c7e49	0.053831372
162	0xbe23b4f9	-0.15987004
163	0xbe1b89f0	-0.15189338
164	0xbde0a1c4	-0.10968354
165	0x3dc84c69	0.09780199
166	0x3dcd3557	0.100199394
167	0x3dcdb1ea	0.100437
168	0x3d7cd707	0.061728504
169	0x3d0ac1a4	0.033876076
170	0x3c7a5d10	0.015280977
171	0xbd8c3ed2	-0.068479195
172	0xbd4ef76f	-0.05052894
173	0xbdd3502c	-0.10318026
174	0x3d1a300c	0.037643477
175	0x3d905e5b	0.07049247
176	0xbc387054	-0.01125725
177	0x3e65ed2c	0.22453755
178	0x3e36d68a	0.17855278
179	0x3dd3c2a1	0.10339857
180	0x3d00f27e	0.03148126
181	0x3d5bba1a	0.053644277
182	0x3d9ff9bb	0.07811304
183	0xbc636e49	-0.0138812745
184	0xba82a0de	-0.0009966155
185	0x3c29781b	0.010343577
186	0xbcf8a2a7	-0.030350996
187	0xbceaecd5	-0.028677383
188	0xbc871143	-0.016487723
189	0xbe3c3492	-0.18379429
190	0xbe2f5b6a	-0.17124715
191	0xbe013764	-0.12618786
192	0x3deeb1b7	0.1165499
193	0x3df880ae	0.12133919
194	0x3df4a52b	0.11945566
195	0x3d8aa4e6	0.06769733
196	0x3d008468	0.031376272
197	0x3ca2493f	0.019810317
198	0x3ecd2ec4	0.40074742
199	0x3edf16f8	0.4357221
200	0x3efb3c6b	0.49069533
201	0x3e771082	0.24127391
202	0x3e4244eb	0.18971603
203	0x3d4d6daa	0.050153412
204	0xbe0ed84c	-0.13949698
205	0xbe3e1dba	-0.18566027
206	0xbe6920da	-0.22766438
207	0xbd09fd5b	-0.033688884
208	0xbdcfb4cf	-0.101419084
209	0xbe08960e	-0.13338491
210	0xbe200770	-0.15627837
211	0xbe4d62bd	-0.20057197
212	0xbe28c80a	-0.16482559
213	0xbe122d97	-0.14275204
214	0xbe00473e	-0.12527177
215	0xbd587d82	-0.05285407
216	0xbda1977e	-0.07890223
217	0xbbc92286	-0.0061381487
218	0x3d513268	0.05107346
219	0xbe470c1b	-0.19438212
220	0xbde9f0b3	-0.11422863
221	0xbd8013ba	-0.062537625
222	0xbe407f2c	-0.18798512
223	0xbe0b332e	-0.13593742
224	0xbdb44bd0	-0.088035226
225	0xbca986d6	-0.020694178
226	0x3e0b94e5	0.13631018
227	0x3e151eed	0.14562578
228	0xbdb857b3	-0.09001102
229	0x3b87a5c3	0.0041396334
230	0x3dc36061	0.09539867
231	0xbd225659	-0.03963313
232	0xbc65fcc2	-0.014037313
233	0x3d26389e	0.040581338
234	0x3d5f656e	0.05454009
235	0xbe2eabd4	-0.17057735
236	0xbe30fd05	-0.1728402
237	0x3e04310e	0.12909338
238	0x3c9d7ce7	0.019224597
239	0xbdc68bd9	-0.096946426
240	0x3dcde32a	0.10053094
241	0x3dc4ef88	0.096159995
242	0x3d246ba8	0.04014173
243	0xbe3dfc83	-0.18553357
244	0xbdad34ec	-0.0845736
245	0x3da9dd07	0.08294111
246	0xbdb6aa15	-0.08919159
247	0xbd3a85a7	-0.045537617
248	0x3d2274b3	0.039662074
249	0x3d94ee4b	0.07272013
250	0x3d8a3a63	0.06749418
251	0xbc79d582	-0.015248658
252	0xbcd71129	-0.0262533
253	0xbbb9945d	-0.0056634382
254	0x3c2858d4	0.0102750845
255	0xbd6da07d	-0.05801438

conv2.bias f4 [16]
0	0x3bfe6f90	0.007764764
1	0x3cf9835e	0.030458149
2	0xbcbc19f2	-0.02296159
3	0xbb56d4c4	-0.0032780627
4	0x3c982c65	0.018575856
5	0x3d0d6378	0.03451869
6	0x398d3528	0.0002693322
7	0x3d22d775	0.039756257
8	0x3d3b50de	0.045731418
9	0x3cf83071	0.030296536
10	0x3c804b72	0.015660975
11	0xbb1f479c	-0.0024304157
12	0xb4c6ac4e	-3.7005742e-07
13	0xbc5b9518	-0.013402246
14	0x3ca55499	0.02018194
15	0x3d0d3712	0.034476347

conv3.weight f4 [64, 16, 3, 3]
0	0xbb910e53	-0.0044267564
1	0xbc8f2bf4	-0.017477013
2	0xbbf2b8a4	-0.007407265
3	0xbc1141be	-0.008865772
4	0xbc35cb06	-0.011095768
5	0xbc7d3033	-0.015453386
6	0xbb546208	-0.0032407064
7	0x3c5c73d1	0.013455347
8	0x3cd334ef	0.025782077
9	0xbbe08a65	-0.0068524354
10	0xbbec615c	-0.0072137546
11	0x3ccf2c9a	0.025289822
12	0xbb763dc6	-0.003757344
13	0xbc124365	-0.008927201
14	0x3be8957c	0.007097898
15	0xbbcbca62	-0.0062191943
16	0x3cb36aac	0.021901451
17	0x3d06eab4	0.032938674
18	0xba9ab87f	-0.0011804252
19	0xbb92b12a	-0.004476686
20	0x3b20c88d	0.00245336
21	0xbc82e58b	-0.015978595
22	0xbc39b1e7	-0.011333919
23	0x3caa0b6c	0.0207574
24	0x3b4e0e48	0.0031441618
25	0x3c2db9fe	0.010603426
26	0x3caf0a3f	0.02136719
27	0xbb887fad	-0.0041656108
28	0xbc10a84d	-0.0088291885
29	0xbb9ad039	-0.004724529
30	0xbbaae775	-0.00521558
31	0xbc3d85d2	-0.01156755
32	0x3a56ebbd	0.000819858
33	0x3cb7e5f4	0.022448517
34	0x3cb5258f	0.022112636
35	0x3b53e849	0.0032334498
36	0xbb33f39b	-0.0027458433
37	0xbc10462d	-0.008805794
38	0x3c4f304c	0.012645792
39	0xbcbb3cce	-0.022856142
40	0xbc8f8014	-0.017517127
41	0x3d086e50	0.033308327
42	0x3c282d76	0.010264745
43	0x3c4add10	0.012381807
44	0x3bf0f185	0.00735301
45	0xbba149f5	-0.0049221464
46	0xbc8b8a1b	-0.017033627
47	0xbbf2fe24	-0.00741555
48	0x3a186733	0.0005813718
49	0xbc1b4516	-0.009476921
50	0xbbb71f62	-0.005588458
51	0x3b9c36b1	0.004767262
52	0x3cb0046a	0.02148648
53	0x3c6aed77	0.014338843
54	0xbb680537	-0.00354035
55	0x3c7a2fa2	0.015270146
56	0x3d3fa6f6	0.046790086
57	0xbc7366a0	-0.014856011
58	0xbc92eeb9	-0.017936097
59	0xbcd5eed0	-0.026114851
60	0xbd053607	-0.032522228
61	0xbaf96fd1	-0.0019030516
62	0x3d23879d	0.039924253
63	0xbb8efa35	-0.004363323
64	0xbbce0644	-0.006287368
65	0x3c1721de	0.009224383
66	0xbad679db	-0.001636322
67	0x3ab2876c	0.0013620681
68	0x3c226d6f	0.009913786
69	0xbb0f4caa	-0.0021865764
70	0x3c9672bf	0.018365262
71	0x3ce6b510	0.02816251
72	0x3a47f2ae	0.00076274097
73	0x3ab9e0b8	0.0014181351
74	0x3c528f18	0.012851499
75	0x3bb18c94	0.0054183695
76	0x3c9fa9f9	0.019490229
77	0x3cfaf2a8	0.030633286
78	0xba56bb9e	-0.0008191409
79	0x3c63c76f	0.013902529
80	0x3ccc10db	0.024910381
81	0x39805c0d	0.00024482646
82	0x3c313c35	0.010817577
83	0x3d177d0a	0.03698448
84	0xbbe9f880	-0.007140219
85	0x3c9af1fc	0.018914215
86	0x3d187cbd	0.037228335
87	0xbcc5e213	-0.024155652
88	0xbcc0310b	-0.023460886
89	0x3ba2696b	0.0049564145
90	0xbbb08028	-0.005386371
91	0x3a2f5dea	0.00066897145
92	0x3b83a459	0.0040173945
93	0x3c2033f9	0.009778016
94	0x3bb2e0f8	0.0054589473
95	0xbbdad278	-0.006677922
96	0x3c48e907	0.012262589
97	0xbb18dba1	-0.0023324268
98	0xbceff575	-0.029291848
99	0xba984b82	-0.0011619183
100	0x39719be2	0.00023041622
101	0x3c8ca756	0.017169636
102	0xbbed3ee0	-0.0072401613
103	0xbbc3264d	-0.0059554935
104	0x3c7e2f4b	0.015514205
105	0x3adb15be	0.0016714854
106	0x3c7641b6	0.015030315
107	0x3c906549	0.017626422
108	0x3298c4db	1.7784648e-08
109	0x332e79b4	4.062322e-08
110	0x33879217	6.313001e-08
111	0x33782a74	5.778061e-08
112	0x33d3311d	9.834387e-08
113	0x33f0b19f	1.120818e-07
114	0x330e32d0	3.3108165e-08
115	0x338c1cf9	6.524528e-08
116	0x33965151	6.999711e-08
117	0x3a93a0cf	0.0011263135
118	0x39bef582	0.00036422542
119	0xbbc962bb	-0.006145803
120	0x3a8b46b9	0.0010625935
121	0xbb44ab62	-0.0030009379
122	0xbbe3a8a9	-0.006947596
123	0x3b6ac5c1	0.0035823437
124	0xbb16a4d7	-0.0022986436
125	0xbb8e8c8a	-0.0043502497
126	0xbbbb0969	-0.005707909
127	0xbc8f4a1c	-0.017491393
128	0xbc41b62b	-0.011823217
129	0xbc6859b5	-0.014181544
130	0xbb5acf58	-0.0033387747
131	0xba28caaf	-0.00064388936
132	0xbcb4e429	-0.022081451
133	0xbcb5302f	-0.022117702
134	0xbc55502f	-0.013019606
135	0xbb93e221	-0.0045130407
136	0xbc023b0e	-0.00794865
137	0x3b363eb0	0.002780836
138	0xbaf163d6	-0.0018416594
139	0x3b0e670c	0.0021728901
140	0x3abed115	0.0014558161
141	0xbc3dc40c	-0.011582386
142	0xbc8cf58a	-0.017206926
143	0xbca1bd02	-0.019743446
144	0x392c3f6d	0.00016426826
145	0xb7f7ca84	-2.9538998e-05
146	0xb8d20e84	-0.00010016284
147	0x38bd9d29	9.041496e-05
148	0xb6e097af	-6.6933785e-06
149	0xb85727aa	-5.1296935e-05
150	0x39002b14	0.00012223079
151	0x38230e20	3.8875383e-05
152	0x383bdd42	4.4790337e-05
153	0x39138ae5	0.00014070755
154	0xb9008427	-0.00012256262
155	0xb8e8d0fd	-0.00011101549
156	0xb83bc009	-4.476312e-05
157	0xb9589bf8	-0.00020657468
158	0xb914c4c6	-0.00014187684
159	0xb89e172e	-7.538345e-05
160	0xb911b032	-0.00013893915
161	0xb897807c	-7.224173e-05
162	0x3977da7e	0.0002363715
163	0x38bf43f0	9.120244e-05
164	0x38827272	6.2202e-05
165	0x379a3e01	1.8387103e-05
166	0xb8ef4ebe	-0.00011411075
167	0xb89ddce3	-7.527487e-05
168	0xb8a106d5	-7.678351e-05
169	0xb931b88e	-0.00016948787
170	0xb8cca845	-9.758821e-05
171	0x3925cd1b	0.00015812034
172	0x38cf17d2	9.874966e-05
173	0x3884ea17	6.337853e-05
174	0x3821928c	3.8521874e-05
175	0x37273a8c	9.967607e-06
176	0x3757a34e	1.2853021e-05
177	0xb8584a77	-5.1567764e-05
178	0xb85c962b	-5.2591942e-05
179	0x368d4828	4.2105275e-06
180	0xb9a93076	-0.00032270298
181	0xb9dc2778	-0.00041991076
182	0xb97c1e75	-0.00024043939
183	0xba0954d7	-0.00052387774
184	0xba10b245	-0.00055197283
185	0xb96d2060	-0.00022614142
186	0xb9c8e412	-0.00038316898
187	0xb9e03152	-0.00042761356
188	0xb95cb49c	-0.00021048117
189	0x38cf89af	9.896175e-05
190	0x393217f1	0.00016984322
191	0x38d7b2a2	0.00010285272
192	0x392b6c1c	0.00016348105
193	0x391bc487	0.00014855164
194	0x38f7be1f	0.000118132906
195	0x38e286b0	0.00010801607
196	0x38afe4a2	8.3872364e-05
197	0x39017b21	0.00012348268
198	0xba0fc635	-0.0005484552
199	0xba2469f6	-0.0006271893
200	0xb9d00871	-0.0003967914
201	0xb9948839	-0.00028330254
202	0xb9be30be	-0.0003627594
203	0xb99cdc30	-0.0002991869
204	0xb9bb0f96	-0.00035679032
205	0xb9b402b0	-0.00034334278
206	0xb9930407	-0.00028041026
207	0x394f1bd1	0.00019751421
208	0x393c862d	0.00017979062
209	0x38e5c4be	0.00010956217
210	0x392e7800	0.00016638637
211	0x38de88fa	0.00010611299
212	0x38b0a03f	8.422182e-05
213	0x390fb944	0.0001370656
214	0x38b29823	8.516039e-05
215	0x38d187c0	9.991182e-05
216	0xb6b115a6	-5.2775313e-06
217	0x3900feba	0.00012301924
218	0x38a8d8aa	8.051221e-05
219	0x38cc54b0	9.743252e-05
220	0x390fc925	0.00013712475
221	0x39006f72	0.00012248548
222	0x38d007fc	9.9197e-05
223	0x3910bf6e	0.00013804223
224	0x390daed5	0.00013511938
225	0x38e2b2c0	0.000108098146
226	0xb809e11f	-3.2873006e-05
227	0xb7f5996e	-2.9277722e-05
228	0xb645c59a	-2.9470307e-06
229	0xb8d33952	-0.00010071941
230	0xb8999597	-7.323472e-05
231	0xb7662360	-1.3717305e-05
232	0xb8ad2be7	-8.25746e-05
233	0xb88c0ecd	-6.678477e-05
234	0x3777bed9	1.4766782e-05
235	0xb7c2c008	-2.3216024e-05
236	0xb75c23c1	-1.31213465e-05
237	0xb8c19138	-9.230006e-05
238	0xb8e01cd4	-0.00010686522
239	0xb82f1573	-4.1743227e-05
240	0xb8c783c2	-9.513601e-05
241	0xb8cc601a	-9.745378e-05
242	0xb7fe7b0d	-3.033646e-05
243	0x397079f8	0.0002293362
244	0x389e5474	7.549758e-05
245	0x381db3e7	3.7599264e-05
246	0x38899e9a	6.562211e-05
247	0xb88d3416	-6.733106e-05
248	0xb7f233a8	-2.8872702e-05
249	0xb7c5d344	-2.3582608e-05
250	0xb8ac80c4	-8.2255836e-05
251	0xb8002ac4	-3.0557407e-05
252	0xae1118f9	-3.2991363e-11
253	0x2b8d41a1	1.0036868e-12
254	0xaf06e615	-1.226897e-10
255	0x2c400590	2.7287929e-12

conv3.bias f4 [64]
0	0x39ac0a11	0.00032813897
1	0x380474ed	3.1580148e-05
2	0x3673bf1a	3.6321057e-06
3	0x3c3c086f	0.01147662
4	0xba9ee5f7	-0.0012122978
5	0xbaf4a2ea	-0.0018664275
6	0xbc09f4bc	-0.008420166
7	0x9bdf3558	-3.6926728e-22
8	0x3b12f82f	0.002242576
9	0x3b73e1f1	0.003721353
10	0x368ecbd7	4.25566e-06
11	0x3c359749	0.0110834325
12	0xbaf287d0	-0.001850361
13	0x3ad5bd41	0.0016307012
14	0xa88e487b	-1.57966e-14
15	0x38071366	3.2204574e-05
16	0x3b915b47	0.00443593
17	0xb7957fb8	-1.7821658e-05
18	0xbbc56e3d	-0.0060251043
19	0xb8543c3e	-5.0600844e-05
20	0xbb83e80b	-0.0040254644
21	0x3cab453d	0.020907039
22	0x3b64967e	0.003487974
23	0xbb8f8567	-0.0043799165
24	0x3b896879	0.0041933623
25	0xbafdf4d4	-0.0019375333
26	0x31bbd372	5.466455e-09
27	0x242b686c	3.7168163e-17
28	0xbb8b24cb	-0.0042463294
29	0x3b8614cb	0.004091834
30	0x395c03a6	0.00020982194
31	0xbc153e31	-0.009109066
32	0x3c2e70d3	0.010647017
33	0x3be18e1e	0.0068833968
34	0xbb58e6c6	-0.0033096536
35	0xbb90b8c7	-0.0044165584
36	0xbbc0670b	-0.0058716587
37	0x3be814fe	0.0070825806
38	0x92a9707d	-1.069313e-27
39	0xb2155836	-8.692998e-09
40	0xbb27f8a4	-0.002563038
41	0x398f2a6f	0.000273067
42	0x0e3b2500	2.3067344e-30
43	0x3c385316	0.011250278
44	0xba07b1be	-0.0005176327
45	0xbb5fd728	-0.0034155343
46	0xbc1b0f07	-0.009464032
47	0xbadc3af9	-0.0016802243
48	0x3b987c77	0.0046535092
49	0x3c46a973	0.012125361
50	0xbbc5648e	-0.00602395
51	0x9c4bc161	-6.7417e-22
52	0xbba03eb8	-0.004890289
53	0x3c0a76df	0.008451193
54	0xb2abc970	-1.9998623e-08
55	0xba042951	-0.0005041557
56	0xba7974dc	-0.00095160096
57	0x3b9e8854	0.004838029
58	0x3bf129f3	0.007359737
59	0xbbcfd080	-0.006341994
60	0x94a55dfc	-1.6697813e-26
61	0xbbdbf5ca	-0.00671265
62	0x3920c53d	0.00015332266
63	0x3c0ca329	0.008583822

fc.weight f4 [10, 64]
0	0xbc715a27	-0.014730967
1	0x39e65bb2	0.00043937337
2	0x3940fe91	0.0001840538
3	0x3e29967d	0.16561313
4	0xbde9b882	-0.11412145
5	0x3dd5b0aa	0.104340866
6	0x3e668b37	0.22514044
7	0xba4c3f1d	-0.0007791387
8	0xbc98c686	-0.01864935
9	0x3e0d6847	0.1380931
10	0x3b24d862	0.0025153388
11	0xbc953111	-0.018211873
12	0xbd9e990b	-0.077440344
13	0x3d1e4f4d	0.038649846
14	0x3c38afbc	0.011272367
15	0x3c8854dc	0.016642027
16	0x3cd12b3f	0.025533317
17	0xbb333731	-0.002734613
18	0x3d32b998	0.043634027
19	0xbaf27aa6	-0.0018499687
20	0x3e9a7c23	0.30172834
21	0x3e2cfd30	0.16893458
22	0xbe0f91d3	-0.14020471
23	0xbe8f0bbf	-0.2793865
24	0x3e8c2084	0.27368557
25	0xbdbf8527	-0.09351569
26	0xb84e482f	-4.9181454e-05
27	0xb9a41762	-0.0003129794
28	0xbd7d6257	-0.061861362
29	0xbe708576	-0.23488411
30	0x3dc839dc	0.09776661
31	0x3ef134a1	0.47110465
32	0x3dd84e16	0.10561769
33	0x3e43bff1	0.19116189
34	0xbf250ce2	-0.6447278
35	0xbe107099	-0.14105453
36	0x3dc78b20	0.09743333
37	0x3e3df164	0.18549114
38	0xbad663aa	-0.0016356607
39	0x3316feae	3.5156226e-08
40	0x3d5eccdf	0.0543946
41	0xbbbc9dad	-0.005756101
42	0xba77f9ed	-0.0009459544
43	0xbef35a96	-0.4753005
44	0xbe27ef47	-0.16399871
45	0x3d371b89	0.044703994
46	0x3dda5271	0.10660256
47	0x3e1a63c1	0.15077116
48	0xbda31250	-0.07962477
49	0x3eb9a965	0.3626205
50	0xbe00845c	-0.12550491
51	0xbc2ccbe2	-0.010546656
52	0x3dafedbe	0.085902676
53	0x3e49874d	0.1968052
54	0xbbc4b7e6	-0.0060033677
55	0xbe0610b5	-0.1309231
56	0xbcb6e607	-0.022326482
57	0xbe1152d0	-0.14191747
58	0x3ce633b7	0.028100831
59	0xbd7d3d7d	-0.061826218
60	0xb9b71b86	-0.00034924987
61	0x3cb00ae2	0.021489564
62	0xbb239918	-0.0024963077
63	0x3e22deb3	0.15905266
64	0xbd8609a4	-0.065448076
65	0x3835e573	4.3367454e-05
66	0x390f453e	0.00013663337
67	0xbe474bf5	-0.19462569
68	0xbde71a50	-0.112843156
69	0x3e40065b	0.18752424
70	0x3c0b11d7	0.00848814
71	0xb7f6caca	-2.9419916e-05
72	0x3e0247d3	0.12722711
73	0x3dcd1d5c	0.100153655
74	0xbc289e17	-0.010291598
75	0x3dbbf5e4	0.09177759
76	0xbd81b039	-0.0633244
77	0xbe9c52ed	-0.30532017
78	0xba513629	-0.0007980788
79	0xbbbae44a	-0.0057034837
80	0x3e8ed31e	0.27895445
81	0x3a3afdc6	0.0007133152
82	0x3d25b0d6	0.040451847
83	0xba3ccd5f	-0.00072022335
84	0xbe61ab31	-0.2203796
85	0xbdcfba36	-0.10142939
86	0x3e2c0ef6	0.16802582
87	0xbe38af8e	-0.18035719
88	0x3e17d8d8	0.14828813
89	0xbd080e4a	-0.033216752
90	0xb97715dd	-0.000235639
91	0xb394414d	-6.903665e-08
92	0x3e2242cc	0.15845793
93	0x3e4491fe	0.19196317
94	0xbded8eef	-0.11599528
95	0xbe9b117e	-0.30286783
96	0x3e80b9f9	0.25141886
97	0x3e14ac90	0.14518952
98	0x3d849896	0.06474416
99	0xbd0f2d57	-0.03495535
100	0xbecfa7a8	-0.405576
101	0x3e137dab	0.14403407
102	0xb6fbf72f	-7.509159e-06
103	0xb3258099	-3.8534015e-08
104	0x3ccd36d5	0.02505056
105	0x3c318045	0.0108338045
106	0xb9be7f63	-0.00036334535
107	0x3e85645d	0.26053134
108	0x3cc71ccd	0.024305725
109	0x3e66a791	0.22524859
110	0xbe75c7cf	-0.24002002
111	0x3db90d9d	0.090358
112	0xbe3e1c1c	-0.1856541
113	0x3d83beff	0.06432914
114	0xbd9f8566	-0.077891156
115	0xbc059dfa	-0.00815534
116	0xbe752429	-0.23939575
117	0x3d8df675	0.069317736
118	0xbb8c0987	-0.0042735967
119	0x3da29508	0.07938582
120	0xbd042b7e	-0.03226804
121	0xbe7fc111	-0.24975993
122	0xbd6ef214	-0.058336332
123	0xbec74408	-0.3891909
124	0xb818865f	-3.6364767e-05
125	0xbe3c6d2a	-0.18401018
126	0x3cc160ab	0.023605665
127	0x3ec7bcb7	0.39011165
128	0x3cce1407	0.025156034
129	0xba0f1814	-0.0005458605
130	0x3ab653d7	0.0013910484
131	0x3dc9b305	0.098485984
132	0xbdbe9606	-0.093059584
133	0xbcdb86cd	-0.026797676
134	0xbf142d35	-0.5788148
135	0xbaa583b3	-0.001262775
136	0xbf063027	-0.52417225
137	0xbe81d5e6	-0.25358504
138	0xbcd28999	-0.025700377
139	0x3cafe4a6	0.021471333
140	0x3861ee10	5.3865893e-05
141	0xbdbdb6c5	-0.09263376
142	0x3c9ded58	0.019278213
143	0x3cb42b18	0.021993205
144	0x3e8ac552	0.27103668
145	0x3ab8e878	0.0014107367
146	0x3bb7c70d	0.0056084455
147	0x3af4aee6	0.0018667846
148	0x3e896170	0.2683215
149	0xbdc0e09f	-0.09417843
150	0x3ddaedfc	0.10689923
151	0xbe80d2cd	-0.25160828
152	0x3e193023	0.14959769
153	0xbda52713	-0.080640934
154	0x39c54ed9	0.00037633514
155	0x3b2d7ffc	0.002647399
156	0xbe1a0e40	-0.15044498
157	0x3e27fb59	0.16404475
158	0x3d05f650	0.032705605
159	0xbe14c683	-0.14528851
160	0xbd1e04fe	-0.03857898
161	0x3d297c1c	0.041378126
162	0xbe57943a	-0.21052638
163	0x3dc8954e	0.097941026
164	0xbcb3f5bf	-0.021967767
165	0xbe8d664f	-0.27617118
166	0x3a01a3ce	0.0004945368
167	0x321699e2	8.766138e-09
168	0xbc4f583d	-0.012655315
169	0x38a7da2a	8.003817e-05
170	0x3b093c52	0.0020940495
171	0xbd12cad4	-0.035837963
172	0x3ec26ea3	0.37975034
173	0xbd896d5f	-0.06710314
174	0x3eec2178	0.46119285
175	0x3f022c1c	0.50848556
176	0x3d9e904e	0.07742368
177	0x3d3813b7	0.044940677
178	0x3ee43425	0.44571033
179	0xbbf3d1ec	-0.007440796
180	0x3d0070d8	0.031357616
181	0x3e03841f	0.12843369
182	0x3c2996d0	0.010350898
183	0x3e1305f0	0.14357734
184	0xbbe631cd	-0.0070249797
185	0x3d16a5e4	0.0367793
186	0xbd8c3ca9	-0.068475075
187	0xbd9f2297	-0.07770269
188	0x3b98aa07	0.0046589407
189	0x3e2f0014	0.17089874
190	0xbc3934c9	-0.011304089
191	0xbe81eee7	-0.2537758
192	0x3d64dcd2	0.055874653
193	0x3a159510	0.0005706111
194	0xb9a6c34a	-0.0003180749
195	0x3cb87626	0.022517275
196	0xbe2e0dad	-0.16997404
197	0xbdfff61a	-0.12498112
198	0x3e1efa95	0.15525277
199	0x39d69411	0.0004092758
200	0xbc094a4e	-0.008379532
201	0xbee168dd	-0.44025317
202	0x3c812a2f	0.015767185
203	0xbe628f75	-0.22125037
204	0xbdb439e0	-0.08800101
205	0xbd831fe5	-0.06402568
206	0xbcad0e42	-0.021124963
207	0xbcc818df	-0.024425922
208	0x3d5c982e	0.053856067
209	0xbb17d83c	-0.0023169657
210	0x3c2c03fd	0.010498998
211	0xba27b10d	-0.0006396927
212	0x3b474f01	0.003041208
213	0xbdfae8c9	-0.122514315
214	0xbe5a5e73	-0.21325092
215	0xbe61bcc5	-0.22044666
216	0x3ddfe9c7	0.10933261
217	0xbe223682	-0.15841106
218	0x386c2d15	5.630877e-05
219	0x3b16b1f4	0.0022994252
220	0xbe3dcbb3	-0.18534736
221	0x3d0772c1	0.033068422
222	0x3be2a392	0.0069164718
223	0x3c0fb388	0.008770831
224	0x3e34b132	0.1764572
225	0x3e30edae	0.17278168
226	0x3e35f775	0.17770179
227	0x3e4a17ea	0.19735685
228	0xbe7136af	-0.23556016
229	0xbe132c6c	-0.14372414
230	0x3ba388de	0.004990681
231	0xb2646e63	-1.3296446e-08
232	0xbd3d2c3a	-0.046184756
233	0x38ea42a3	0.000111704016
234	0xbb0ea9e7	-0.002176875
235	0x3f212587	0.6294789
236	0x3e9d6b54	0.30745947
237	0xbe6e7c9c	-0.23289722
238	0xbe8cb941	-0.27485088
239	0xbe23132a	-0.1592528
240	0x3e3e534d	0.18586464
241	0x3e50a4fe	0.2037544
242	0xbd87043b	-0.06592604
243	0xbc164a83	-0.009173038
244	0xbe71f1ff	-0.2362747
245	0xbe2616b9	-0.16219606
246	0x3b135abc	0.0022484502
247	0xbe432c15	-0.19059785
248	0xbc4a2e2e	-0.012340112
249	0x3e2d80ae	0.16943619
250	0xbe8e9abc	-0.27852428
251	0xbdbc76b1	-0.09202326
252	0x3b2def26	0.0026540249
253	0xbe9cfd1c	-0.30661857
254	0xbb3d8839	-0.0028920306
255	0xbe9fecaf	-0.31235263

fc.bias f4 [10]
0	0xbc17c190	-0.0092624575
1	0x3cb4f62b	0.022090038
2	0xbc979b05	-0.018506536
3	0x3bcd037a	0.006256518
4	0xbc8ef90c	-0.01745274
5	0xbbe0888f	-0.0068522166
6	0x3bf51319	0.0074790833
7	0xbc580bdf	-0.013186424
8	0x3d30a936	0.043130122
9	0xbc5117c3	-0.012762013
