logs/2019-12-11T13:45:01.171945_model_ConvNetSimple_dataset_MNIST_subset_1.0_bs_64_name_Adam_lr_0.001/epoch_0018-model-val_accuracy_99.28404928404929.pth (torch_old, 248464 bytes, 10 tensors)

conv1.weight f4 [6, 1, 5, 5]
000000 c4 49 37 3e 76 95 39 3e 06 5c c6 bd e9 bd 24 3e
       0.17899233 0.18123421 -0.09685521 0.1608807
000010 45 0d e6 3d c2 ec db 3d a0 0b 60 3d 77 be 86 3e
       0.11233 0.10738517 0.054698586 0.26317188
000020 69 00 c9 3e c5 9e 2b 3e 07 8d 8d 3e 08 4c 29 3e
       0.39258125 0.16759785 0.27646658 0.1653291
000030 c1 12 74 3e 51 51 31 3e 4a 59 79 3e 0f e5 30 be
       0.23835279 0.17316176 0.24350467 -0.17274879
000040 7a 75 d5 bc 25 4d 56 be 77 c8 b8 be 27 28 c9 bd
       -0.026056994 -0.20927866 -0.36090443 -0.098221116
000050 a0 70 9f be 03 e1 93 be 09 cf c1 be cc 25 33 be
       -0.31140614 -0.28882608 -0.37853268 -0.17494887
000060 ed 76 b1 be 4d fd 98 bd 85 dc 21 be 9f f4 a6 be
       -0.34661046 -0.07470188 -0.15806778 -0.32608506
000070 ff ab 2e be ba aa 86 be 57 28 8b 3e 7a b8 37 be
       -0.17057799 -0.2630213 0.27179214 -0.17941466
000080 70 6d a6 bd ce 02 9d be 97 3d 94 be 67 05 a1 3e
       -0.08126342 -0.30666202 -0.2895324 0.31449434
000090 bf 52 a0 3e 88 bc 8b 3e 37 e8 ae bd 4a f3 f5 bd
       0.3131313 0.27292275 -0.08540385 -0.12009294
0000a0 ae 6d f0 3d 06 09 3a 3e b2 45 b7 3e a7 57 bc 3e
       0.1173967 0.18167505 0.3579536 0.36785623
0000b0 45 65 6f 3e ed 83 9c be 92 7a 1c bc a2 29 41 3d
       0.23378475 -0.305694 -0.009550707 0.047158845
0000c0 01 ff 12 3e 5b d3 ae bd 9f 5e db bd 91 93 b1 bc
       0.14355089 -0.085364066 -0.10711407 -0.02167681
0000d0 e3 8e 8a bd cf 16 14 3e 31 cc a7 3d 7b ee a4 3d
       -0.06765535 0.14461826 0.08193243 0.08053299
0000e0 39 47 33 3e 9e b8 29 3e af c8 39 3e 11 25 38 be
       0.17507638 0.16574332 0.18142961 -0.1798289
0000f0 c3 f7 77 3d f7 4a d0 3d 70 3a 63 3e 92 15 3a be
       0.06053902 0.101705484 0.22190261 -0.18172291
000100 8a ba cd bd fe 39 63 3d d3 6e dc 3e c5 29 96 bd
       -0.10045345 0.055475228 0.43053302 -0.07332186
000110 8b fe b5 be 29 07 ab be e8 a3 32 3e 64 1b 9e 3e
       -0.35545763 -0.334039 0.17445338 0.30880272
000120 bb 5e a1 3e e0 1a 96 be e9 ff b2 be ae b4 84 be
       0.31517586 -0.2931738 -0.3496087 -0.25919098
000130 a7 52 96 be fd 54 f7 bd 62 50 23 3e 5f d6 c1 3e
       -0.29359934 -0.12076757 0.15948632 0.37858865
000140 9f d9 93 be 04 8f b5 be 60 27 14 bd c9 1e 04 3e
       -0.2887697 -0.35460675 -0.036170363 0.12902369
000150 5b f4 b4 3e c0 f1 78 be 77 ce a2 bb f4 e4 df bc
       0.35342678 -0.2431097 -0.00496846 -0.027330853
000160 3e 24 65 3e c8 e3 15 3e 69 cd e8 bc 4e 66 66 bc
       0.22377107 0.14637673 -0.02841826 -0.014062477
000170 b1 78 a9 3e 07 1a 9a 3e 31 b0 55 be 19 6b 97 bd
       0.33099893 0.30097982 -0.20867993 -0.07393474
000180 06 e0 41 3e 71 86 9f bd 4d 1d ef bd e3 06 3e be
       0.18933114 -0.077893145 -0.116755106 -0.18557315
000190 6e 64 78 bd 46 cb 85 3d a0 a5 29 3d cf 00 54 bc
       -0.060642652 0.06532912 0.041417718 -0.012939646
0001a0 73 f1 11 3e 73 5e 39 bd 9b 92 47 be 82 75 ab bd
       0.14252262 -0.04525609 -0.1948952 -0.08372022
0001b0 54 42 ba bd d8 83 36 be a8 07 7b 3e 41 30 73 bd
       -0.09094682 -0.17823732 0.2451464 -0.05937219
0001c0 81 9a de 3c 07 a0 09 be 08 d8 4e be 79 47 79 3b
       0.027173283 -0.13439952 -0.20199597 0.0038036986
0001d0 c7 2d 1c 3c 55 cc 0a be 4c 64 87 39 a5 5e bf bd
       0.009532399 -0.13554509 0.00025823934 -0.09344224
0001e0 73 64 91 3d fd 3e 01 be 3c 89 18 3c e0 04 0b 3c
       0.07099237 -0.12621684 0.009310063 0.008485049
0001f0 6d 4e d6 3d 68 b9 07 bd 94 98 b5 bc 93 fc 1a be
       0.10464177 -0.0331358 -0.022167481 -0.15135412
000200 91 50 75 3d 40 b6 72 bd b1 73 1f 3e 1a 42 1f be
       0.059891287 -0.05925584 0.15571477 -0.1555256
000210 c9 c9 07 bf 62 d0 52 be 29 0f 00 be ee 2b 82 bd
       -0.53042275 -0.20587304 -0.12505783 -0.06356035
000220 c1 52 c3 be 46 34 e8 be 1e cd 89 bd c8 8b 3b 3d
       -0.38149074 -0.4535238 -0.06728576 0.045787603
000230 84 8e 2e 3e 16 b2 ac bd b5 99 aa 3e 39 84 46 3d
       0.17046553 -0.08432405 0.33320394 0.04846594
000240 d5 ca 28 3e 45 06 26 3e d2 07 c5 3e 23 6f 02 3f
       0.16483624 0.16213329 0.3848253 0.5095083
000250 24 d0 a7 3e f5 b1 37 be
       0.32775986 -0.17938979

conv1.bias f4 [6]
000000 eb 3d 1d 3d c0 9d 20 bd 4b cf 1f 3d 21 4a 2b be
       0.038389128 -0.039212942 0.03901605 -0.16727497
000010 60 d4 6e be 73 f9 39 bd
       -0.23323202 -0.04540391

conv2.weight f4 [16, 6, 5, 5]
000000 1d 82 ed 3d 58 b6 03 be 1e 90 bb bd c0 5c a7 3c
       0.11597083 -0.12862527 -0.091583475 0.020429969
000010 90 fc b2 3e ce cd 35 be d1 2e 03 be eb 5e b9 be
       0.34958315 -0.1775429 -0.12810828 -0.3620523
000020 c2 48 4f be c8 45 34 bd 1f 90 30 be 76 c3 7d bd
       -0.20242599 -0.04401186 -0.17242478 -0.061953984
000030 44 d8 45 be 94 a0 8c be c4 d1 7e be 9c cb 28 3e
       -0.1932078 -0.2746626 -0.24884707 0.16483921
000040 73 65 53 3e 53 20 a1 bb 0a 65 fa bd 76 fd 95 bd
       0.20644169 -0.0049171834 -0.12226303 -0.073237345
000050 f4 f3 91 3e 4f 8f 8b 3e d5 28 21 3e 32 2f 7f bd
       0.28506434 0.27257773 0.15738232 -0.06230087
000060 d6 61 80 3d 3d 98 c0 3e d3 d4 e9 3e bf 35 11 3e
       0.06268661 0.3761615 0.45670184 0.14180659
000070 62 ce 51 be 36 96 7a bd 6e 6a bf 3d 8e 17 6d 3e
       -0.20488885 -0.06117841 0.09346472 0.23153517
000080 43 9d b3 3d 01 95 05 bd d1 55 b4 bc c1 75 38 be
       0.0877023 -0.032612804 -0.022013577 -0.1801367
000090 69 62 5a bc 93 bb 4a 3d 37 11 dd bc ae f2 01 bd
       -0.013329127 0.04949529 -0.026985748 -0.031725578
0000a0 a1 c4 26 be b5 e0 38 be 1f 58 eb bd 08 8a 35 bd
       -0.16285945 -0.18054469 -0.11491417 -0.04432109
0000b0 19 4c 01 be 7e 10 a9 be 3e 60 56 bd af e0 24 3c
       -0.12626685 -0.33020395 -0.052337877 0.010063334
0000c0 c8 b2 d7 bc e0 1c b0 bb 85 6c b4 bd 7d 49 0c 3e
       -0.026330367 -0.005374536 -0.08809761 0.13699909
0000d0 ac f4 5d 3d f3 77 bb bd 56 8b d8 bd d0 d7 c0 bc
       0.054188415 -0.09153738 -0.10573451 -0.023540407
0000e0 4c 1f e7 3d f9 91 d8 3d a5 70 02 be ee ed 47 be
       0.11285266 0.10574717 -0.12738283 -0.19524357
0000f0 57 27 66 be 47 94 3c 3e 52 ba 42 3e 9b 47 1c be
       -0.22475944 0.18415938 0.19016388 -0.1526169
000100 76 7a 2c be 88 02 b8 bc 76 90 2d 3e a1 e0 3d 3e
       -0.1684359 -0.022462144 0.16949639 0.1854272
000110 61 5f da bd ad c7 b2 3b 67 b3 4f bd 0d d5 ff 3d
       -0.10662723 0.005455932 -0.0507082 0.12491808
000120 e5 67 f6 bd 2f 4f 0e bd 69 27 d6 3b b1 c6 34 be
       -0.12031535 -0.034743484 0.00653546 -0.1765392
000130 15 3d 9d be d6 00 8f be 1b 23 e3 bb bb fa 3b 3e
       -0.30710664 -0.27930325 -0.006931675 0.18357365
000140 91 8e 32 3d a9 cc 63 be c1 74 fc be 61 45 26 be
       0.043592993 -0.2224604 -0.49307826 -0.16237403
000150 87 70 f1 3d f1 bb 9a 3d 4c 76 b4 3d 77 00 c1 be
       0.11789041 0.07555378 0.08811626 -0.37695667
000160 2e ca e1 3c 4f 92 2a be 8c 35 11 3e 05 97 5b 3e
       0.027562227 -0.16657375 0.14180583 0.21444328
000170 c0 ca 33 bc b3 7d b0 3d 71 3e 0a be 5d 72 96 3d
       -0.010973632 0.08617725 -0.13500382 0.07346032
000180 3c 82 4f 3c f2 28 21 be 05 2d 8c 3d 14 7c 90 bd
       0.012665328 -0.15738276 0.06844524 -0.07054916
000190 92 3d 56 bd 46 e7 79 3c 42 45 bc 3d 39 21 91 3b
       -0.05230481 0.015252894 0.091928974 0.0044290093
0001a0 0d fe 0c bc d3 fc 8d be d1 07 8a bd ce 05 94 3d
       -0.008605492 -0.27731952 -0.06739772 0.0722767
0001b0 1a 60 bc 3d 2b e8 1b 3d e4 41 ac be 7e 29 2a be
       0.091980174 0.03806321 -0.3364402 -0.1661739
0001c0 e9 c5 1c 3d b9 7d 0d bd 62 ee e5 bb ea 89 cd be
       0.03827468 -0.034543727 -0.007016943 -0.40144283
0001d0 85 83 30 be 58 96 3c 3d d2 0d 8f 3d 76 be 21 bd
       -0.1723767 0.046041816 0.06985058 -0.03948828
0001e0 7b 87 54 be 31 80 ff bd c7 a6 8e 3b cd a4 f1 bd
       -0.20754807 -0.124756224 0.0043533775 -0.117990114
0001f0 d2 e9 91 bc c6 ee 0d 3d 48 ee 34 3e de de 9e 3d
       -0.01781169 0.03465154 0.17669022 0.07757352
000200 b8 2b b5 bd 96 67 b7 bd 26 d4 8a be bc 66 c2 bd
       -0.08846229 -0.08955304 -0.2711498 -0.09492251
000210 23 bf e7 3c 7c 05 88 3b 76 08 74 bd fd 2a 97 bd
       0.028289383 0.0041510444 -0.05957838 -0.07381246
000220 e3 25 9a be d3 fb d1 bd 59 ea 9c 3d ab 4b 05 bd
       -0.3010703 -0.1025311 0.07661886 -0.032542866
000230 89 f2 ce bd 38 e3 9d be 6d 50 af be d2 a9 21 3b
       -0.10104854 -0.30837417 -0.34241048 0.0024667871
000240 7e a5 86 bc 93 31 11 be 85 17 7b bd 83 a7 93 3d
       -0.016436335 -0.14179067 -0.061301727 0.07209685
000250 54 13 e0 3d 23 52 9d 3e 7f c1 5a 3b 35 6e 90 3d
       0.109411865 0.30726728 0.0033379493 0.0705227
000260 44 db ac 3d 00 e9 91 3d 4d e6 2c 3e bd 98 1a 3e
       0.08440259 0.07124519 0.16884728 0.15097328
000270 aa 5b e1 3d c0 2b ca bb 6e 2e af bd c2 ad b4 3b
       0.11003812 -0.006169766 -0.08553778 0.0055138776
000280 dd 16 e7 3d ef b5 a6 3c 01 e2 a1 bb e4 79 2f 3d
       0.11283658 0.020350425 -0.004940272 0.042840853
000290 d5 59 48 bd d1 71 88 be d6 a5 4a bc 3b 87 3e 3e
       -0.048913796 -0.26649335 -0.01236864 0.18606274
0002a0 5b 1c 12 3e 39 a9 17 be fe d3 2e 3e 3d e5 36 3e
       0.14268629 -0.14810647 0.17073056 0.17860885
0002b0 8c 6c fb 3d 6e de 4c bd 7d 36 03 be c1 51 0c bc
       0.12276563 -0.050016813 -0.12813754 -0.0085644135
0002c0 1c 59 46 3c 1d 84 11 bc 95 ac 99 3d cf 56 80 3d
       0.012106206 -0.008881596 0.075036205 0.062665574
0002d0 4b 94 26 3e ab 8b e5 ba 54 d1 22 bc 55 e4 9b bd
       0.16267507 -0.0017512938 -0.009937603 -0.0761191
0002e0 b9 d8 29 be 22 2e d9 bc 0c d7 b5 bc 5f 1d ec bc
       -0.1658658 -0.026511256 -0.022197269 -0.028822599
0002f0 e6 16 60 be b0 0c 05 bf 5a 3c bc 3d 4a 67 06 be
       -0.21883735 -0.51972485 0.09191199 -0.13125339
000300 bb a4 9c be 38 7a 25 be 1a 9c 01 3c 0a f6 c4 3b
       -0.3059443 -0.16159904 0.007910753 0.0060107755
000310 43 a6 cf bd 73 d0 fb bc 5a e3 73 be c3 a2 23 be
       -0.10139134 -0.030739045 -0.23817196 -0.15980057
000320 31 61 7e be c5 fc 8d be 56 50 01 be 06 00 02 3e
       -0.24841763 -0.2773191 -0.12628302 0.12695321
000330 bc 0c d4 bc 7c ec 86 be 94 5b 95 be ba df f4 bc
       -0.025884978 -0.26352298 -0.2917143 -0.029891837
000340 f7 32 4c 3e 34 1b 22 3e 2c e7 8b be fd 84 42 be
       0.19941317 0.1583069 -0.27324808 -0.18996044
000350 d8 66 1d 3c d0 7a 40 3e c2 85 87 3e 09 94 a6 be
       0.009607039 0.18796849 0.26469237 -0.32534817
000360 34 7e 10 3e cb eb d8 3d 13 78 8a 3c 26 b7 e2 bd
       0.14110643 0.10591849 0.016902959 -0.11070089
000370 53 d5 f5 3d 96 18 39 3e 71 50 fb 3c 15 6e e3 bd
       0.12003579 0.18075785 0.030678006 -0.11104981
000380 68 80 66 3e 81 72 af bd c3 c2 cf bd b5 3e 23 bc
       0.2250992 -0.08566762 -0.1014457 -0.009963681
000390 64 d5 94 bd cf 1f 2c be 05 a4 25 3d 0b 9e 46 be
       -0.072672635 -0.16809009 0.040439624 -0.19396226
0003a0 af 55 77 bd 14 b7 4c bd 96 8b c4 3c 13 29 e3 be
       -0.06038445 -0.049979284 0.023992341 -0.44367275
0003b0 b8 d8 1d 39 98 a6 37 3e 27 0b 2d 3e 64 c3 25 be
       0.00015053421 0.17934644 0.16898786 -0.16187817
0003c0 4c aa 34 bd c4 e6 48 3e 9a 8c 82 3e 8c ee d4 3d
       -0.04410772 0.1961928 0.25497895 0.10397062
0003d0 e3 87 e9 be d9 fa 26 3e 6e bb c1 3d 4a b5 92 bd
       -0.45611486 0.16306628 0.094595775 -0.071634844
0003e0 bf c1 bb be 3d 0f 80 bd 5e 76 ce bd f0 0a d6 bd
       -0.36671254 -0.062529065 -0.100811705 -0.10451305
0003f0 79 6d 1a be e9 f1 2e 3d 63 8b 3a 3d ba 0d 88 bd
       -0.15080823 0.042711172 0.045543086 -0.06643243

conv2.bias f4 [16]
000000 c9 a8 f0 bc 17 e8 7b bb 12 1a 57 3d df 95 ca 37
       -0.029377358 -0.0038437897 0.052515097 2.4150066e-05
000010 13 03 a7 bd 27 9d 7f 3d 18 32 cf bb b4 6c 2a bd
       -0.08154883 0.06240573 -0.0063231103 -0.041607574
000020 b4 c2 3f bd 88 86 03 bd f5 fc 60 bd db 1b 05 3d
       -0.046816543 -0.03211072 -0.05492874 0.03249727
000030 e5 42 cd bb 4a 91 d4 3c 2c 30 51 bc b0 d3 f3 3c
       -0.006264078 0.025948185 -0.012767833 0.029764026

fc1.weight f4 [120, 400]
000000 b3 01 d9 bb 89 8d 04 3c 63 00 a4 3c 1f 98 75 bd
       -0.006622517 0.008090385 0.020019716 -0.059959527
000010 ab 3e f7 bc ed d5 2d bd d8 ae 8c bd 28 de 83 bc
       -0.03018125 -0.042440344 -0.06869286 -0.016097143
000020 3e 5f 51 3b 93 1e 3e bd 9b a7 42 3d 3c c1 10 bd
       0.0031947638 -0.046415877 0.047523122 -0.035340533
000030 d1 fe dc bc 73 fd 13 bb 4b 65 19 bd 6f a9 e6 3a
       -0.026976975 -0.0022581487 -0.037450116 0.0017598103
000040 9d ad 0f 3d 6b 27 f3 bc a3 5f 50 b9 32 be b5 ba
       0.03507768 -0.029681882 -0.00019872053 -0.0013865887
000050 e6 5e 41 3d c3 2c ae 3b ff 0e 3d bc 98 08 5b 3b
       0.047209643 0.0053153946 -0.01153922 0.003342187
000060 d7 f3 15 3d 92 5e a8 ba f1 31 56 3b e7 5b e5 3c
       0.036609497 -0.0012845567 0.0032683576 0.027997924
000070 11 72 ad 3c e1 6c a4 3c 17 5b f9 3c fd e4 d6 3c
       0.021172555 0.020071449 0.030438943 0.026232237
000080 56 35 41 bd 67 5a 57 3d e9 c3 89 3d 6d 5d 71 3d
       -0.047170006 0.05257645 0.0672682 0.05892699
000090 48 2a a6 bc e6 7c 35 bd 66 42 a4 3d b6 ef 13 bd
       -0.020283833 -0.044308566 0.08020477 -0.036117278
0000a0 e5 f1 98 3d 84 89 9f bd 32 e2 1a 3d 77 a3 b9 bc
       0.07468013 -0.07789901 0.037813373 -0.022660954
0000b0 bf 18 1b 3d 50 13 d5 bc 5a 67 97 bc 0a 87 95 bd
       0.037865397 -0.026010185 -0.018481899 -0.07301147
0000c0 38 95 86 bc 5a 85 78 bd e2 9f 61 bd 13 e2 5b bc
       -0.016428575 -0.06067405 -0.055084117 -0.0134205995
0000d0 9d 63 7c bd de c9 6b 3c 29 18 88 bd aa 1d 66 bc
       -0.061618436 0.014391391 -0.06645233 -0.014045158
0000e0 ac 3b d3 bb 3f dc a9 bd 5c be eb bb 89 12 80 bd
       -0.0064463224 -0.08293962 -0.0071943235 -0.06253535
0000f0 81 85 4e bc 57 6e 03 3c 5f 21 9d bd 19 9b 51 bd
       -0.012605072 0.008021913 -0.07672381 -0.051173303
000100 4c 8c e6 3c 5a e3 c1 3c 5e 91 68 bd 0b 5a 04 3d
       0.02814307 0.02366798 -0.056779258 0.032312434
000110 1a d8 80 bd 62 ed c3 bc ec 0c cd 3a 5a ec 5f bc
       -0.06291218 -0.023916904 0.001564411 -0.01366719
000120 7e 21 42 bd 56 80 7f 3a 4b be 34 bd 98 12 33 bd
       -0.047395222 0.00097466016 -0.04412679 -0.043718904
000130 8f 08 9a 3b 14 1d 26 bd b6 ff 52 bd b3 54 1b ba
       0.0047007273 -0.040555075 -0.051513396 -0.0005925402
000140 97 cd 9d bc ba ab 73 bd 63 8a 8b bd ca 65 69 bd
       -0.019263072 -0.059489943 -0.068135045 -0.05698184
000150 5e 85 fe 3b 4d 08 4d bd ba d4 86 bc 20 56 26 bd
       0.0077673635 -0.050056744 -0.016458858 -0.04060948
000160 40 2a 7e bd bf 67 a6 bc 94 83 3a bd 90 40 46 bd
       -0.06205201 -0.020313142 -0.04553564 -0.048401415
000170 b3 b2 01 bd f4 43 5e bd 47 52 4c bd b1 06 5d 3c
       -0.03166456 -0.054264024 -0.049883153 0.013490365
000180 24 8a ef bc 31 b2 58 bd 50 ba fa bb b4 8c fe 3c
       -0.029240675 -0.05290431 -0.0076516047 0.031072952
000190 0d bb 65 bd d9 9a 2a bd 5f 36 60 bd f1 65 85 bc
       -0.05608659 -0.04165158 -0.054739352 -0.016283961
0001a0 30 12 0d bc 49 3a 5b bd 74 cd db 3c 22 2c 3d bd
       -0.008610293 -0.053522382 0.026831366 -0.046184666
0001b0 bd 44 24 3d d3 2f 27 bd e1 bf 70 bc 7a 18 65 3b
       0.040104616 -0.040817093 -0.014694185 0.0034957216
0001c0 5c 4c e7 bc c4 c9 23 3d 28 cd 25 bd 05 5c 25 bc
       -0.028234653 0.03998734 -0.040478855 -0.01009274
0001d0 c3 a9 2f bd 9d d2 00 3c 41 0e 16 3d 90 27 1c 3d
       -0.042886507 0.007862714 0.036634687 0.038123667
0001e0 0d 0e 13 bc f1 7b fe bc 3e 70 2e 3d 99 35 92 bb
       -0.008975518 -0.03106496 0.04258751 -0.0044619557
0001f0 6d 0e c1 3c b3 39 5f bd f2 b4 5d bd a5 f0 91 bd
       0.023566449 -0.054498386 -0.05412764 -0.071259774
000200 10 2e 41 3d 51 6a 17 3d ef 42 88 bd 27 9f 31 bd
       0.04716307 0.036966626 -0.066533916 -0.04336467
000210 4b 57 87 bc a1 0b 8c bc 8e 2e 72 bc 95 ed 67 bd
       -0.016521117 -0.017095389 -0.014781607 -0.05662306
000220 b0 1f 36 bd 1c 9f b1 bd 76 48 e1 bc 1c 98 97 bd
       -0.044463813 -0.08672926 -0.027500372 -0.074020594
000230 e5 6a ff 3c 3e 3c 9e 3c 05 50 dc 3c 27 a4 86 bc
       0.031178901 0.019315835 0.026893625 -0.016435696
000240 92 b1 aa 3a af 63 18 3e c3 21 31 3c 18 21 27 bc
       0.0013022891 0.14881776 0.010811272 -0.010200761
000250 7a 17 0d bc c1 4d 97 3c 5f 6b 17 3d 47 0e f1 bc
       -0.008611554 0.018469693 0.03696763 -0.029425753
000260 ab 21 a0 bc 56 31 1b bd f0 5e 0e 3c d8 39 5f bd
       -0.019547304 -0.037888847 0.008689627 -0.054498523
000270 f3 7e ed 3a 24 96 10 bd 79 b6 cd 3a 62 48 20 3b
       0.0018119499 -0.035299435 0.001569464 0.0024457206
000280 cb 2d 3c bd c1 89 38 3c 54 f6 3d 3c 62 89 51 bd
       -0.04594211 0.011263312 0.011594374 -0.05115641
000290 ed cb 33 3d bd be 19 3d 98 e0 cf 3c e1 db 2e bc
       0.04389565 0.037535418 0.02537565 -0.01067254
0002a0 d2 6c 0c 3c cd fe 10 bd c6 8c c0 bc c7 49 6f 3c
       0.008570867 -0.035399247 -0.023504626 0.014604992
0002b0 2c eb 51 3c 3e e1 1f 3c c6 84 60 bd 7d 1f 11 3d
       0.012812417 0.009758292 -0.054814123 0.03543042
0002c0 27 03 21 bd f9 4f 21 3c 2f 3a 15 3c ef a0 01 bc
       -0.039309647 0.009845727 0.00910811 -0.007911905
0002d0 71 bc 28 3d 8e 06 1f 3c d8 d7 ab 3b 77 f5 47 bd
       0.041195337 0.009706153 0.0052442364 -0.048818078
0002e0 5a 22 75 3b 16 b5 cf 3b 63 78 92 3c ef d6 77 bc
       0.0037404508 0.006338726 0.01787967 -0.015126928
0002f0 0c 2c f3 3c 3b b1 ff 3c 2c dc 35 bd 54 bc f3 3c
       0.02968409 0.03121244 -0.044399425 0.029752888
000300 86 2c 4f bd f9 b3 5a bd 8b 93 45 bd 18 9b fc 3b
       -0.05057957 -0.05339429 -0.04823641 0.0077089183
000310 8d a6 29 bd 7e 44 f4 bc 99 5b 14 bd be 99 fb 3b
       -0.0414186 -0.029817816 -0.036220167 0.0076782396
000320 e2 28 9b bd 95 cb 4c bd 2b 9d 4e bb 39 7a 3f bc
       -0.07576157 -0.04999884 -0.0031526785 -0.011686855
000330 11 fa e3 bc b4 20 04 bc 62 25 6c bd c0 13 9e bd
       -0.027829202 -0.008064438 -0.05765284 -0.07718611
000340 36 93 d2 bc fe 32 86 bc c1 11 a4 3c f8 d1 26 bd
       -0.025704961 -0.016381737 0.020027997 -0.040727586
000350 dd 1e 06 bd 4b 89 5c 3c 78 37 4a bd fe 07 f5 3b
       -0.032744277 0.013460468 -0.049369305 0.0074777594
000360 69 51 61 bd 9d 6a d5 bc da e9 39 bd 62 6c b1 bc
       -0.05500928 -0.026051814 -0.045389034 -0.021658126
000370 de a8 5c bd cd 30 40 bd 44 98 35 3c 5a 22 b8 bb
       -0.05387198 -0.04692154 0.011083666 -0.0056193294
000380 fc 13 3c 3d a6 10 92 3c c1 0a 25 3d e6 3e a5 3b
       0.045917496 0.017830204 0.04029346 0.0050428985
000390 66 32 59 3c f8 e6 12 3d c6 2b 12 3d 76 f7 35 bd
       0.013256645 0.0358648 0.035686277 -0.04442545
0003a0 8a 17 8d bc 06 a0 73 bd 73 82 83 bb 92 80 4c bd
       -0.017223138 -0.059478782 -0.0040133535 -0.0499273
0003b0 3c 4f 10 3d 85 bc 0c bb 29 a7 49 bc 8f bc 87 bd
       0.035231814 -0.002147467 -0.0123079205 -0.066277616
0003c0 1a 31 8e bd cb 4e 40 3b f1 1c fa bc d8 fd 3e bd
       -0.06942959 0.002934384 -0.030531378 -0.046628803
0003d0 69 99 40 3c 32 8f 12 bd e4 16 0a bd e7 56 a7 3c
       0.011755326 -0.035781093 -0.033713236 0.02042718
0003e0 ad c7 fd bb 68 98 4a bd d4 80 94 bc 72 9f 29 3c
       -0.0077447505 -0.049461752 -0.018127836 0.010352956
0003f0 19 a9 60 bd ad bd 51 bb e3 7f 13 bb 3f f9 5d bc
       -0.054848764 -0.0032003925 -0.0022506646 -0.013548194

fc1.bias f4 [120]
000000 ec 4c 1f bd 91 f2 51 bc 91 12 38 bd 29 bf 20 bc
       -0.038891718 -0.01281418 -0.04493958 -0.009811201
000010 d7 6c 89 3c fa 52 ee 3c cc 22 55 3d 12 a9 aa bd
       0.016775532 0.0290923 0.052035138 -0.08333029
000020 da d4 a4 bb 2a 99 65 bd c2 8f 68 3c 26 9b 7f bc
       -0.0050302567 -0.05605427 0.014194431 -0.015600955
000030 ad 82 16 bc dc 8d 8f 3c 0a ea b5 bd 23 cb 23 bd
       -0.009186429 0.017523699 -0.0888253 -0.03998865
000040 1e 97 a6 bc c1 43 69 bd bb ab 88 3c 48 84 8a bd
       -0.02033573 -0.05694938 0.01668345 -0.06763512
000050 ec 74 6c bd ca e1 0d bd 38 3d 46 bd e5 70 8d bd
       -0.057728693 -0.034639157 -0.048398226 -0.069062985
000060 00 91 ed bb d7 63 9a 3d 35 9c be bd 50 99 70 3c
       -0.0072499514 0.07538574 -0.09307138 0.01468499
000070 d7 2a 43 bb 3c 6f be 3d 7b da 0e 3d b2 b0 26 bd
       -0.0029780173 0.0929856 0.034876328 -0.040695854
000080 f6 3c ca bc c6 30 45 bc 4f fc ce bb a8 b6 e9 3d
       -0.024687272 -0.012035554 -0.0063166986 0.11411792
000090 37 cf 46 3b 1c dc 3b 3c 72 23 a4 bc cf 44 bd ba
       0.0030335912 0.011466052 -0.020036433 -0.0014440062
0000a0 1d 01 8d 3b a2 e0 ab bb bc 34 41 3c 45 d5 06 bb
       0.004303111 -0.005245284 0.011792358 -0.0020573896
0000b0 93 02 b7 bd ad 15 fa bd b8 13 9a 3d e8 3c df 3c
       -0.08936038 -0.122111656 0.07523292 0.027250722
0000c0 b3 b6 a4 bd e6 db b0 bc 99 ee d6 3a 59 2b 24 3c
       -0.080426596 -0.02158923 0.0016398012 0.0100201005
0000d0 c0 5a 9f bc 19 e1 f0 3c b7 42 7c bd 32 1b 8a bd
       -0.019452453 0.02940421 -0.06158706 -0.06743468
0000e0 a5 be 6a bd 92 07 8c 3c 5a ee a4 3d 1e 24 ff bc
       -0.05731072 0.017093454 0.080532745 -0.031145152
0000f0 6d 65 03 3d a6 8f 34 bc fb 86 e9 bc 08 ac 4a 3d
       0.03207915 -0.011020577 -0.028506747 0.049480468
000100 d3 5c 32 bc 60 8e 6a bd 3e 2d 35 bd 9c 4c 1d bd
       -0.010886389 -0.057264686 -0.0442326 -0.03840314
000110 7f 5d 0b 3d 75 ff 2d 3d 8f 34 8b bd e0 2e 84 bd
       0.03402471 0.04247995 -0.06797134 -0.06454253
000120 47 e9 4d 3d 80 f4 97 bd 78 96 69 3d bc 6f 8b 3c
       0.0502713 -0.074196815 0.057028264 0.017021053
000130 96 2c d5 3b 00 0b 57 bd 50 ef 3e 3d 03 fd 02 3e
       0.006505559 -0.052500725 0.046614945 0.12791829
000140 df 8c a5 bc 7a 0a 15 bc 19 61 8c bd bb fd 80 bd
       -0.020208774 -0.009096736 -0.068544574 -0.06298395
000150 40 c4 9b bc ac 6f d0 3d 6c 4f 4d bd 1f ea fa 3b
       -0.019014478 0.1017755 -0.05012457 0.007657304
000160 54 42 f4 3c 9a 72 bc bc 69 19 4f 3d 95 e1 ad 3d
       0.029816784 -0.023003865 0.050561342 0.08490292
000170 ca f9 a1 bd 8c 6c 2b bd 2d 1c 59 3d 5c 2d cf 3d
       -0.079089716 -0.041851565 0.053005386 0.101160735
000180 10 4d 6f 3d 39 ee c1 3c 32 68 bf bd 2f c0 a1 bb
       0.058423102 0.023673164 -0.093460456 -0.00493624
000190 88 8d 3a 3c 53 28 d3 3c 73 64 d0 3c 8b 68 e2 bc
       0.011386283 0.025776064 0.025438523 -0.02763774
0001a0 fd 98 6b bc 33 7f 28 bc 83 40 9e bc d1 4a 4a bd
       -0.014379737 -0.010284233 -0.019317871 -0.049387757
0001b0 21 92 a1 bd 72 56 7e bc 48 f1 a6 3c 5e 4c 9c 3d
       -0.078892 -0.01552354 0.020378724 0.076317534
0001c0 c2 e5 91 bd 9c 78 31 bd a5 24 39 3b f5 3f 1f bd
       -0.07123901 -0.043327913 0.0028250602 -0.038879354
0001d0 0a db c0 bc 39 3a 22 bb cd a5 54 bd ac de 2d 3d
       -0.023541946 -0.0024753942 -0.051915932 0.042448685

fc2.weight f4 [84, 120]
000000 00 01 cf 3b 3e 0c 9a bd 31 08 b2 ba d3 c5 4f bb
       0.006317258 -0.07521866 -0.0013582763 -0.0031703606
000010 dc 7e f4 3c da f6 16 be 6a 6d cc bd d3 88 2b 3d
       0.029845648 -0.14742604 -0.099818066 0.041878533
000020 70 a8 64 3d af 7f 2f be 1d 72 99 bc 0b e0 26 bd
       0.055824697 -0.17138551 -0.018731171 -0.040741008
000030 21 8f c3 3d 93 a1 0d be 49 27 93 3d 9d 34 63 bc
       0.09548784 -0.13831167 0.071852274 -0.013867524
000040 eb c4 ce bd b6 e1 09 be 83 18 15 bc a6 2b 95 3d
       -0.10096153 -0.13465008 -0.009100082 0.07283716
000050 ca 95 cd bc cc ac 21 3d d5 a0 c7 bc ae b7 ff bd
       -0.025095839 0.039471433 -0.024368683 -0.12486206
000060 7a f0 9b 3d 48 3e c6 bd 63 1f bd bd 81 97 36 3d
       0.07614227 -0.09679848 -0.09234502 0.04457808
000070 0a 5a c2 bd 94 62 7b bd 0f 23 69 3c bf 7d 73 bd
       -0.0948983 -0.06137331 0.01422955 -0.059446093
000080 a0 4f 2d 3c 1f cc bf 3d ba d3 ad bd e4 eb c6 bd
       0.010578066 0.09365105 -0.08487649 -0.09712961
000090 c3 fa 36 be 5e ba 8d 3d bc df 53 be af 22 39 bd
       -0.17869096 0.06920312 -0.20690817 -0.045199092
0000a0 31 f2 59 bd 2c 63 ea bd 26 7c 26 3a b0 0f 8e 3d
       -0.053209487 -0.11444697 0.0006350897 0.06936586
0000b0 b2 42 c5 bd 5b 87 8b 3b e1 66 37 be 7b f2 5e 3d
       -0.09631862 0.004258079 -0.17910339 0.054430466
0000c0 b0 00 d4 bc fa 28 b4 bd 7d de 90 bd c6 ac 20 bd
       -0.025879234 -0.08796878 -0.07073686 -0.03922727
0000d0 c1 35 d1 bc f9 bb a0 bc 64 3b 65 bd ef 4e 0a be
       -0.025538327 -0.019620882 -0.055964842 -0.13506673
0000e0 78 10 77 3c c6 34 24 bd 04 d3 ad bd 75 3b 60 3d
       0.01507961 -0.04008939 -0.08487514 0.054744203
0000f0 f0 9d b0 3c 22 65 89 3c 90 e5 7d bc 7f bd c1 bd
       0.021559685 0.016771857 -0.0154966265 -0.09459972
000100 d8 f2 21 bc b0 f3 a2 bc ac a6 c0 3c 62 75 4b bd
       -0.009884559 -0.01989159 0.023516975 -0.04967249
000110 67 0e 32 3c da 79 9c bd 30 eb ce bc 9c 7e e5 3d
       0.010867692 -0.07640429 -0.02525863 0.112057894
000120 c9 2c e1 bd 4c fb 87 bd b5 89 70 bd 97 12 60 bd
       -0.1099487 -0.06639728 -0.058725078 -0.05470523
000130 43 8b 29 bd 25 28 82 bd 56 b4 69 bd 4d 9b dd bc
       -0.041392576 -0.06355313 -0.057056747 -0.027051592
000140 88 c7 22 3d d9 76 3b be 1a d8 06 3e 78 b9 ac 3d
       0.03974107 -0.18307056 0.13168374 0.08433813
000150 80 0c c7 ba 57 a0 1b be 4f 3a 40 bd 55 d1 d7 bd
       -0.001518622 -0.15197884 -0.046930607 -0.10537974
000160 de 06 f4 bd 7c e4 b8 bd 3f 2c fd bd 4a ea 84 be
       -0.11915372 -0.09027955 -0.12361955 -0.25959998
000170 a8 e2 72 3d 77 b7 09 3d b8 46 94 bd 90 a9 81 3d
       0.059298187 0.03362223 -0.07240051 0.063311696
000180 09 fd d1 bd e3 e9 61 bd c7 19 38 bb f4 75 9a bd
       -0.10253341 -0.055154692 -0.0028091536 -0.07542029
000190 20 32 41 bd 0e 98 63 3d ec fb d0 bd a4 f6 04 bd
       -0.047166944 0.055564933 -0.102043 -0.032461777
0001a0 c0 e1 1e 3b df 2d 24 3d 98 c0 5a bc 2d 66 20 bd
       0.0024243444 0.04008281 -0.013351582 -0.039159942
0001b0 90 78 49 bc 0b 4c 3a 3a a0 aa fd bd 87 ea 3e bd
       -0.012296811 0.0007106668 -0.1238606 -0.04661038
0001c0 ea 28 85 3d a5 4e 4e 3d 97 1f dd bd b5 63 2f bd
       0.06501944 0.05036797 -0.10797041 -0.042819697
0001d0 29 ba 90 bd 4b 07 2f 3d 22 23 aa 3d 6d d8 d1 bd
       -0.07066757 0.042731564 0.08307482 -0.10246358
0001e0 4d e8 0b bd af 45 61 be ff 63 07 be 2c eb 18 3d
       -0.034157086 -0.21999238 -0.13221739 0.037333652
0001f0 40 ad 5d bd b5 98 82 bd 86 44 ca 3c 00 19 ae 3d
       -0.054120302 -0.06376783 0.024690878 0.08500862
000200 00 50 1c 3d 88 0b 98 be 63 74 a4 bd fb fd 89 bc
       0.03816223 -0.29696298 -0.080300115 -0.01684474
000210 66 7f b8 bc ef 73 9b bd 80 7b 64 bd ab 08 ae ba
       -0.022521686 -0.07590472 -0.05578184 -0.001327773
000220 1e 5b b0 bd 73 65 8a be ab 91 45 3e 5c cb 10 3c
       -0.08611129 -0.27030525 0.19293849 0.008837547
000230 8d 91 84 3d 93 ef 8c 3d bc 3d 93 bd d7 5b c5 bc
       0.06473074 0.06881633 -0.07189509 -0.024091644
000240 08 0b 7e bd 09 c1 7b 3e 5d ef 30 bd 0d 70 8d 3d
       -0.06202224 0.24585356 -0.043197025 0.069061376
000250 81 f2 f6 3d 1f 91 ea bd 07 d0 07 be b4 46 d5 bd
       0.12057973 -0.11453461 -0.1326295 -0.10413876
000260 83 4e 18 bd ff d7 19 bd 78 a3 36 3e 52 12 a2 3d
       -0.03718425 -0.037559506 0.17835796 0.079136506
000270 40 45 7e bd b7 94 98 bc 61 05 cc be ab 95 b0 bd
       -0.06207776 -0.0186256 -0.39847854 -0.08622297
000280 88 23 69 bd 60 05 d4 3c 59 7d 51 be d9 f2 85 bd
       -0.05691865 0.02588147 -0.20457973 -0.0654046
000290 cc 23 a9 bd 70 31 7e 3d dc 14 2b 3e ea 87 6d be
       -0.08258781 0.062058866 0.16707176 -0.23196378
0002a0 8b 14 95 3d e9 3b 3f 3c 67 f1 a5 bb 74 91 84 bd
       0.07279309 0.011671999 -0.005064178 -0.064730555
0002b0 fe 84 71 3e ac 76 98 be bc 15 41 be 52 e0 0c 3e
       0.23585889 -0.2977804 -0.18855947 0.13757446
0002c0 24 a9 1a be 59 c2 5d 3d ca 67 93 3e 13 2e 49 3c
       -0.15103585 0.054140422 0.28790122 0.012279051
0002d0 5a 98 3f 3e 8e 50 5c 3d 69 38 84 bc ef c7 49 3e
       0.18710461 0.05378776 -0.01614018 0.19705175
0002e0 0d d3 13 3e e9 2f 18 bc 43 0a d3 bc 27 98 d5 bd
       0.14435978 -0.009288766 -0.02576173 -0.104294114
0002f0 d5 aa a7 3d c2 9d ef 3d 5d e6 bb bd 80 d4 30 be
       0.081868805 0.11700012 -0.09174798 -0.17268562
000300 ea bc 5f 3e 49 e1 ba bd 8f 5f 4a 3e d4 ac 44 3d
       0.21849409 -0.09125001 0.19763015 0.048016384
000310 97 9b 41 3e a5 a5 fc bd 81 ef 0a 3e 03 31 0c bc
       0.18907009 -0.12336282 0.13567926 -0.008556607
000320 25 59 f3 bd d5 70 59 3d 6d 74 86 3d 93 df c6 3d
       -0.11882237 0.05308612 0.06565175 0.09710612
000330 a0 c4 90 3c cd e7 a7 b8 7e 08 04 be e9 7b 38 be
       0.017671883 -8.006357e-05 -0.12893865 -0.18016018
000340 57 cc fa 3d b3 f8 0f 3d 81 b3 85 3c 35 5a ee 3c
       0.12246006 0.035149287 0.016320946 0.029095748
000350 f0 27 31 3c 55 24 fc 3d 10 20 ff bd ca 9d 70 3d
       0.0108127445 0.12311617 -0.12457287 0.05874423
000360 2d 77 99 3e 74 c3 0c 3e 7e a8 50 be 76 fb 6f bd
       0.29973736 0.13746434 -0.20376775 -0.05858942
000370 44 35 86 be c5 4d 2f be ad 9b 8c 3d 11 b6 5c 3e
       -0.26212513 -0.1711951 0.0686563 0.21553828
000380 ff 2b 73 3c fe 31 75 3b 2f b3 51 3e 60 03 af bd
       0.014842032 0.003741383 0.2047851 -0.085455656
000390 6b 4d 5b 3d bf 01 b3 3d 3b 8d c7 3c 51 94 aa 3e
       0.05354063 0.087405674 0.024359336 0.3331628
0003a0 48 25 11 3e 6a c1 8b bd 20 da 9a bd 2d 51 92 3d
       0.14174378 -0.06824 -0.07561135 0.07144389
0003b0 eb 81 95 3c 4d 69 19 be 32 c3 c5 3b cf 6e 4b 3e
       0.018250426 -0.14981575 0.006035232 0.19866489
0003c0 cc 7e 5a bd 16 50 2c 3e df 79 f8 3d f5 9a 8e bb
       -0.05334358 0.16827425 0.1213262 -0.0043519684
0003d0 c1 87 da bd 6d fd 61 3e de c6 72 be fe 02 c7 3d
       -0.10670424 0.2206933 -0.23708674 0.097173676
0003e0 b7 b8 b4 3d c2 7a 8d 3c cd fd 31 3c 08 52 15 3d
       0.08824294 0.01727045 0.0108637335 0.036455184
0003f0 3b 7b 2b 3e 3d 31 ac 3e b8 12 c4 3d f5 e7 46 bd
       0.16746227 0.33631316 0.09573883 -0.048561055

fc2.bias f4 [84]
000000 b0 b6 1f be 03 0b b8 3d 54 b5 3d 3d 50 f4 ee 3d
       -0.15597034 0.08986475 0.046315506 0.11667693
000010 8d a4 22 bd 84 2d 97 3d 86 08 de bc 3e 1f eb 3d
       -0.03970771 0.07381728 -0.027103674 0.11480568
000020 59 de 31 3e a7 7b 86 bd fe 84 0b 3e 91 c4 49 3c
       0.17369975 -0.065665536 0.13624951 0.0123149315
000030 df 0c 2c 3d d6 71 ad bd 1a 9f 00 bd 92 a5 33 3d
       0.042004462 -0.08468978 -0.03140173 0.043859072
000040 e5 e1 9e 3b 0f 6f 3f bc 88 30 18 3e b2 2d 0c bd
       0.004848706 -0.011684193 0.14862263 -0.034223266
000050 fb 5b 29 3d a3 1a 8f bd 0e 1e 45 3e 6a d7 19 3e
       0.041347485 -0.069875024 0.19249746 0.1502358
000060 c8 8d 35 3d 15 b5 bf 3d 3d dc 35 be 28 76 d0 bd
       0.044324666 0.093607105 -0.17759795 -0.101787865
000070 f5 de 0c be 3a eb 53 3c ca a7 bd bd e3 cc 75 ba
       -0.13756926 0.0129345 -0.09260519 -0.0009376539
000080 bc cd 0f 3d 08 62 2a 3c 51 bf b3 3c 22 3a 09 3d
       0.035108313 0.010399349 0.021941813 0.033502705
000090 1b 83 0f 3e 4f e1 c7 bc e1 1f c8 3c 3d a7 4b bc
       0.14014857 -0.024399428 0.024429264 -0.012430009
0000a0 3e 7e 83 3d 2c 18 98 bc 76 05 70 bd ca b6 0e be
       0.06420563 -0.018566214 -0.058598958 -0.13936916
0000b0 b1 4c f6 3d 7b 3f 0e be 36 77 2b bd 28 0b 90 3d
       0.120263465 -0.13891403 -0.041861735 0.07033378
0000c0 9a 14 08 bd 2c 24 a0 3d fa 37 dc bd 3a da a6 bd
       -0.033222772 0.07819399 -0.10752864 -0.08147092
0000d0 74 b7 e1 3d b0 de aa 3d 88 6e a0 3d e2 ab bb bd
       0.11021319 0.083432555 0.07833582 -0.091636434
0000e0 b1 d1 9c 3d 38 41 68 3c 29 12 ec bd 0d fa ee bd
       0.07657183 0.014175706 -0.11526901 -0.11668787
0000f0 d9 fd 5f bd 98 82 42 bb 3a c6 0d 3c c5 ec 0a 3e
       -0.054685447 -0.002967989 0.008653218 0.13566883
000100 e6 c5 a7 3d 7a 11 4d 3d 3e f0 20 bd 28 24 da bc
       0.08192043 0.050065495 -0.039291613 -0.026628569
000110 da 64 87 3d 94 9f b3 bd ce 4b 25 3e 6e 2d 1f bd
       0.06611033 -0.087706715 0.16142198 -0.038861685
000120 ca b7 54 3d aa d5 60 3d 55 49 0e 3d aa fd fc 3c
       0.051933087 0.054891266 0.034737904 0.030882675
000130 40 e9 05 3d f9 f1 07 be 31 9e 0a be d4 d7 ca 3c
       0.032693148 -0.13275899 -0.13536908 0.024761118
000140 bb b5 9a bd c1 dc 69 be 30 87 38 bd b3 86 49 3d
       -0.075541936 -0.22838117 -0.0450508 0.049200725

fc3.weight f4 [10, 84]
000000 42 03 a6 39 f2 19 43 3d 24 88 47 3d 0d 11 99 be
       0.00031664415 0.047632165 0.04871382 -0.2989582
000010 69 2d 84 3d ef 99 7a be 5d bf 3a 3e 9d 80 24 be
       0.06453974 -0.24472784 0.18237062 -0.16064687
000020 99 9e d0 3d 4b 67 8d bc 76 cb 3c be c9 fa 1c 3e
       0.101865 -0.017261168 -0.18436989 0.15330042
000030 a1 af 69 be cd c1 17 be 61 51 16 be 22 83 61 be
       -0.22820903 -0.14820023 -0.14679481 -0.2202268
000040 17 00 3c 3e 06 df 8d 3c 27 61 d0 3c d5 69 b9 3d
       0.1835941 0.01731826 0.02543695 0.09053389
000050 22 0c fe bd 9a b8 5a be 28 5a 11 3e a6 1a 95 be
       -0.12404658 -0.21359482 0.14194548 -0.29121894
000060 ad ec 86 bc 3d ba 46 be fe c4 49 be 89 fc 3f 3e
       -0.016470278 -0.19406982 -0.19704053 0.18748678
000070 34 e2 1d 3c 3e 12 6d be 26 6c 91 3e 92 67 ae 3d
       0.009636451 -0.2315149 0.28402823 0.08515848
000080 bb f6 29 3d 8e de 41 be ca 67 60 3e b3 8b 19 3d
       0.041495066 -0.18932554 0.21914592 0.037486743
000090 7c 62 26 3d b5 f4 7f bd 23 0e 23 3e af 37 84 be
       0.040621266 -0.06248923 0.15923361 -0.25823733
0000a0 b1 2e 04 be 38 c9 b5 3d 81 f2 a0 be f9 8c b2 3d
       -0.12908436 0.0887627 -0.31435016 0.08718295
0000b0 f2 b3 9e be 45 c2 07 bc 4c 74 b5 3d 05 47 a3 be
       -0.30996662 -0.008286064 0.088600725 -0.3189012
0000c0 03 2a 90 3c a0 ba 37 be e3 9d b4 bd d5 72 04 bd
       0.017598158 -0.17942286 -0.08819177 -0.032336075
0000d0 86 34 40 bd e7 50 ff bd 99 97 6f 3b 35 13 45 3d
       -0.04692509 -0.12466603 0.0036558865 0.04811402
0000e0 5f c6 ad be 9f 3b cc 3d ec 4c da bd 44 78 bf bc
       -0.33940408 0.09972309 -0.10659203 -0.023372777
0000f0 ab 9c ce 3d 8c b3 5e be 2c ba f5 ba 6a ee a6 bc
       0.10088476 -0.21748179 -0.00187475 -0.020377357
000100 f1 18 54 3d 21 e0 89 bd 43 a1 8f be 1b 05 98 3d
       0.0517816 -0.06732202 -0.2805272 0.07422849
000110 b6 90 59 be 71 4e d0 bc ce 16 e1 ba 68 22 95 3d
       -0.21246609 -0.025428029 -0.0017172934 0.07281953
000120 1c e9 a4 bb ed 13 b1 bd 6e 23 a5 be 3d ca 9e be
       -0.0050326716 -0.08646379 -0.32253593 -0.3101367
000130 f2 9e 69 3e 93 31 17 bc 0d 0b b9 bd 5a 2f 76 be
       0.22814539 -0.009228128 -0.09035311 -0.240415
000140 b9 f3 9f bd 74 5e 49 39 07 e7 30 bd eb c0 ae 3d
       -0.07810158 0.0001920404 -0.043189075 0.0853289
000150 99 b2 b6 bb 51 b0 55 be e7 8f cd 3d 82 e3 47 3e
       -0.0055754897 -0.2086804 0.10037213 0.19520381
000160 ef 19 d0 bd ed ac e8 bd d4 e4 4b 3d d5 7b 80 3a
       -0.101611964 -0.11361108 0.049778774 0.000980253
000170 fc e5 03 be f8 93 b9 be 1e 02 81 be 32 bf a7 bd
       -0.12880701 -0.36245704 -0.25196928 -0.081907645
000180 d4 2c 67 3e 07 9c 34 3d cc bd f8 bd ba 46 73 be
       0.22575694 0.04409411 -0.12145576 -0.23757449
000190 3d 5c 34 3d c1 60 98 3c 63 77 a0 3d f0 cb 68 3b
       0.044033278 0.018600823 0.07835271 0.0035521947
0001a0 fe 7f 9b 3c 1a e8 d4 3d 71 f9 e1 bd 59 08 5b be
       0.01898193 0.10395832 -0.11033905 -0.21389903
0001b0 c8 30 1d be 74 82 3f 3c 99 ba 62 3e 7a dd 8a 3d
       -0.1535064 0.011688817 0.22141494 0.067805246
0001c0 6c 82 51 3e 57 8c fc 3d c9 ee 54 be 98 d9 3a be
       0.20459908 0.12331455 -0.20794214 -0.18247068
0001d0 14 3e 03 be ae da b3 3d 99 89 32 be 8b 33 98 be
       -0.1281665 0.08781944 -0.17435302 -0.29726824
0001e0 f4 71 2f be 90 06 90 bd 2c 40 ae be 44 3d 10 be
       -0.17133313 -0.07032502 -0.34033334 -0.14085871
0001f0 2c 3b 58 be cc 6b 56 3d 74 16 06 be e6 93 b5 3c
       -0.21116322 0.052348897 -0.13094503 0.02216525
000200 44 90 ba 3d a6 1b bf be ea 0a 21 3e 69 c2 bc 3d
       0.09109548 -0.37325782 0.1572682 0.09216768
000210 c2 14 13 3e b5 7f be 3d b9 10 78 bd 16 9b 36 be
       0.14363387 0.09301702 -0.060562823 -0.17832598
000220 15 69 f4 3d 33 cf 33 be 72 d4 4a be 2f de cc bb
       0.11934105 -0.17559509 -0.19807604 -0.0062520723
000230 e8 f3 aa 3d 1b c5 25 be 5b 88 09 bd 08 18 83 3c
       0.08347303 -0.16188471 -0.033577304 0.01600267
000240 de da cd be 02 25 76 3d 84 fe 0d 3d 4f 3a 27 be
       -0.40206045 0.060093887 0.034666553 -0.16330837
000250 62 07 11 be 0a 31 11 be 97 b7 5b bd 8e f6 0c bd
       -0.14162973 -0.14178863 -0.05364188 -0.03441482
000260 f4 fb 25 bd 05 f2 5e 3c 8d 78 95 be c6 8f 35 3d
       -0.040523484 0.013607507 -0.29193535 0.044326566
000270 ea 51 da bd 24 3b 73 bd 0c 76 11 3e 30 f1 a7 3d
       -0.10660155 -0.059382573 0.14205188 0.082003
000280 da ca 41 3c f6 73 08 bc e9 5f 06 3c cd c8 84 3e
       0.011828149 -0.0083284285 0.008201578 0.2593445
000290 0a 79 87 3d 01 d6 ae 3c ef 9f b8 bd dd d9 2e 3e
       0.06614883 0.02134228 -0.0901488 0.17075296
0002a0 44 a8 ba be c5 f7 be be ce b6 87 3e 7d c8 49 be
       -0.364565 -0.37298408 0.26506656 -0.19705386
0002b0 3b 58 22 be 51 ac a5 3d de 46 e4 3d 5c 5e ce 3d
       -0.1585397 0.08089507 0.11146329 0.10076591
0002c0 1f 90 60 3e 25 d1 55 bd 39 d0 59 be 10 d6 4b be
       0.21929978 -0.05220141 -0.21270837 -0.19905877
0002d0 84 47 9d 3d 19 62 b6 bd 86 2c 93 bd c3 c5 3b be
       0.07679656 -0.089054294 -0.071862265 -0.18337159
0002e0 81 53 6b 3c 5a 23 b2 3d 53 aa 60 3c 89 d4 10 3e
       0.014363171 0.08698149 0.013712483 0.14143576
0002f0 53 ee 49 3e c2 b6 4b 3e f9 b2 e3 3d 88 6e e8 bc
       0.1971982 0.19893935 0.11118121 -0.028373018
000300 f4 30 f8 3d 1e 52 2c be 84 be 45 be a0 0d 1b 3c
       0.12118712 -0.168282 -0.19310957 0.009463698
000310 63 27 97 bd 0c 3e c2 3d f2 6e b6 be 7a 07 42 bd
       -0.07380559 0.09484491 -0.3563152 -0.04737041
000320 2f c0 b5 3c e4 b7 da bd 59 c6 66 3e 0b 1f 33 bd
       0.022186367 -0.106796056 0.22536601 -0.043730777
000330 a8 6f ab 3c a0 17 f1 3d 3a 73 a2 bd e5 ab fd 3c
       0.020927265 0.11772084 -0.07932134 0.030965755
000340 32 ad 5e 3e e9 ea 61 3d 31 8e 7d 3b 4f f1 3e bd
       0.21745756 0.05515567 0.003868949 -0.04661685
000350 34 8d a2 3c 96 56 63 bd de 51 39 be ad 8e 6c be
       0.019842722 -0.055502497 -0.18097636 -0.23101301
000360 85 f2 49 be 2a 87 cf 3d 11 41 36 3e 27 97 54 bd
       -0.1972142 0.101332024 0.17798258 -0.051901963
000370 4d 6e 7a bc fa 8f 15 be ca cd 11 bd 4b 35 15 3d
       -0.015285087 -0.14605704 -0.035596646 0.036427777
000380 b2 72 4d 3c 1f ab 3b be 39 67 86 ba e7 0d 79 bb
       0.0125395525 -0.18326996 -0.0010254151 -0.0038002671
000390 4f db f1 3d 5b 52 31 3e ac c5 62 bd c3 19 c9 bb
       0.11809408 0.17316572 -0.055364296 -0.0061371042
0003a0 11 4d 7a be bb 99 80 3d 7d ae d6 38 b1 54 ad 3c
       -0.24443461 0.06279322 0.00010236816 0.021158548
0003b0 75 35 1a 3e e1 5b 58 bd a4 f0 98 be 31 8e bd 3c
       0.15059455 -0.052821998 -0.29871094 0.023139091
0003c0 b9 14 d1 bb ca 48 9f bd 0b 3f 0f be c8 b9 9a bd
       -0.006380644 -0.07777555 -0.13988893 -0.07554966
0003d0 cc 56 29 bc 0b 62 da bc bd e4 8b 3d 10 e8 3f be
       -0.010335635 -0.026658079 0.06830738 -0.18740869
0003e0 1f 14 44 be 82 72 13 be 28 4d bb 3d 83 f2 5b bc
       -0.191483 -0.1439915 0.09145576 -0.0134245185
0003f0 bc 43 e7 bc b8 a4 58 be d3 b6 0b be 27 f1 2b 3e
       -0.02823054 -0.21156585 -0.1364396 0.16791211

fc3.bias f4 [10]
000000 5a b0 a8 3d 0d 99 9e bd e1 2e 61 bd 64 54 53 3d
       0.082367614 -0.07744036 -0.054976348 0.051594153
000010 7d 07 5d 3d 32 1b c9 bd fe b0 59 be a2 81 49 bd
       0.05396222 -0.0981964 -0.21258923 -0.049195893
000020 a6 aa 3a 3e 74 3e c3 3c
       0.1822916 0.02383349
