logs/2020-02-02T22:55:28.368389_train_mode_classification_model_ConvNetSimple_dataset_ISIC_subset_1.0_bs_64_name_Adam_lr_1e-05/epoch_0003-model-val_accuracy_67.0.pth (torch_old, 45920 bytes, 8 tensors)

conv1.weight f4 [8, 3, 3, 3]
00000000: f70d 1e3e 9ff5 2a3e c916 1bbd aa6b 3c3e
00000010: aa21 0fbd c6a8 3c3d 5f18 b1bd 3645 f63d
00000020: 8420 353e d6cb 09be 405e 323e 1640 2f3d
00000030: 935e 183e b2bc 063d bd2c cc3d 5fb6 acbc
00000040: 45ae 1e3e 0e2e 103d 18e0 a8bd f637 673d
00000050: 9475 a6bd d174 78bc 6ce2 90bd e551 0a3e
00000060: 83fa 13be 1879 a6bd aa28 40bd 92ae f2bd
00000070: 0f13 7c3c 5a7f 45be 4a22 2f3e 5940 2abe
00000080: 604c 153e 70b4 ef3c 7ca4 85bd 9bec ed3d
00000090: 5dcb dc3c 1a20 1c3e db45 933c 337d 82bd
000000a0: 9559 473d 1333 62bd 62bc 9f3d 9fe1 2c3e
000000b0: 35ca dd3d eb78 b2bd 2261 dd3d d1a1 003d
000000c0: 1804 c23d a26b f6bd 1b2b 46be f25f 9ebd
000000d0: c434 1abe beb4 1e3e 0cf0 493d 90a6 963d
000000e0: 56fe 5f3d 785f 1bbc 51ec 133e d957 12be
000000f0: 772f c43b bacb 0cbe cedd 593d aa09 82bd
00000100: 4122 7c3d e593 19bd df0a 263e e567 e5bd
00000110: fb5f e6bd f023 e5bd 03ff 323e 1908 883d
00000120: 0aca 383e 3cb6 27be 4baa 48be 2d08 1fbe
00000130: 2aa9 09be f253 953d 1cc4 833d 30d3 1e3e
00000140: 914e d5bd da04 febd 84bb df3d 99b5 90bd
00000150: 13e5 fd3d f1dc 1dbd 4d11 f03d dbc4 11be
00000160: 0b47 b8bd d5cb 863d 2b9f 083d d314 67bd
00000170: 55d7 db3d f1f1 fc3d 386c 16be b47a e1bd
00000180: 11f6 2c3e eafe 93bd 16c1 9abd e02a 46be
00000190: 26b7 f0bd 9ad0 263d daf1 05bd e789 16be
000001a0: d9a6 38bb 2e14 0ebe 11ab 2ebe 9303 e8bd
000001b0: 4d5a 31be 2329 02be a629 413e 4732 013d
000001c0: 2f06 603d f2ea 3bbe 0743 06be 4f64 8cbd
000001d0: d56a d63c 16b7 30be c36c b0bd 552c f2bd
000001e0: a530 32bb 2a40 99bd 422a 86bc cecb 08be
000001f0: a279 0abe e600 ecbd 4375 8dbd 5ccc 1ebe
00000200: e835 223e b7a0 29bd 8255 263e 3590 693d
00000210: f61c 2abe 463e 053e eb98 64bd 0e9c 8bbd
00000220: ccd5 1dbe 2627 3ebe 8978 783d 1c37 15bd
00000230: 7ef8 a43d 14fd 1bbe 9f0e 183e 96e7 0abe
00000240: b512 e3bc 7250 3b3d 28dd d63d 27be 243e
00000250: 8d30 393e 7c91 16be 7aff 5c3d cc31 9ebd
00000260: e6b6 7ebc 59cb 0dbe b53b 393e 14e4 0abe
00000270: e513 de3d 29fd 953d f193 8b3d a4a5 c9bd
00000280: 01dd 383e e52b 443d e87c d33c 28a8 2cbe
00000290: 43f5 a63d 6ec9 e2bc ad22 b2bd 4351 2a3e
000002a0: 8c87 333d 1e92 d7bd e79f c4bd 7a2f bebb
000002b0: 9ed1 e23d 07e6 3bbd 8cee d9bd 511d 80bd
000002c0: 16ca 0fbe 355a 933d 5ffb 1b3e 3cfc 35be
000002d0: e36a 3d3d 7a7a ce3d eee8 143d 49e5 88bd
000002e0: ba12 d13d 1ab8 d23d c37b 963d 3e1c 03bd
000002f0: 2fae 47bd 9121 e23c 3a22 ddbc bb35 4ebd
00000300: 4f23 053e 4b83 303e 38a5 45bc 6fd8 13bd
00000310: 8d4d 203c adf3 93bb f91e 273d 1e57 463d
00000320: fcc9 38be 4879 9cbd 4879 203e 780d 8e3d
00000330: cb97 77bc 3307 f9bd 837d fcbd 1fa9 34be
00000340: c4c1 88bd f314 783d 7f0d f43d f32e af3d
00000350: a37a 32be 2b53 f5bd d369 0cbd 17e8 3a3e
0.15435015 0.1669526 -0.037863526 0.18400446 -0.034944214 0.046059392 -0.086472265 0.1202492
0.17688185 -0.13456663 0.17418766 0.042785726 0.14879827 0.032894798 0.09969471 -0.021083055
0.15496166 0.03520017 -0.082458675 0.056449853 -0.08127895 -0.01516457 -0.070744365 0.13507803
-0.14451031 -0.081285655 -0.04691378 -0.11849703 0.015385403 -0.19286862 0.17102924 -0.16626109
0.14579916 0.029260844 -0.065255135 0.116173945 0.02695244 0.15246621 0.017977646 -0.06371536
0.048669416 -0.05522449 0.07799603 0.16882943 0.108295836 -0.087144695 0.10809542 0.03140432
0.09473437 -0.12032248 -0.19352381 -0.07733144 -0.15059191 0.15498635 0.049301192 0.07355988
0.054685913 -0.009483211 0.14445616 -0.14291324 0.0059871036 -0.1374959 0.053190045 -0.063494995
0.061556105 -0.03749456 0.16215084 -0.11201457 -0.112487756 -0.11188495 0.17480092 0.066421695
0.18045822 -0.1637811 -0.19596212 -0.15530463 -0.13443437 0.07291402 0.06433889 0.15510249
-0.10415376 -0.12403269 0.10924438 -0.07065887 0.12397208 -0.038540784 0.1172205 -0.1423525
-0.08997925 0.065818466 0.03335492 -0.056416344 0.10734431 0.12350834 -0.1468972 -0.11009732
0.16890742 -0.072263554 -0.075563595 -0.19352293 -0.11753683 0.04072628 -0.03270135 -0.14701043
-0.002817562 -0.13874885 -0.17057444 -0.11328807 -0.17319603 -0.12711005 0.18863544 0.03154209
0.054693397 -0.18351343 -0.13111506 -0.0685507 0.026173988 -0.17257342 -0.08614495 -0.11824862
-0.002718964 -0.074829414 -0.016377572 -0.13358995 -0.13522962 -0.11523609 -0.069071315 -0.15507644
0.15840876 -0.041413035 0.16243556 0.057022292 -0.1661261 0.13012037 -0.055809896 -0.068168744
-0.15413588 -0.18569621 0.060661826 -0.03642951 0.080552086 -0.1523326 0.14849328 -0.13564906
-0.027718881 0.045731016 0.10491401 0.16088162 0.18084927 -0.14703935 0.05395458 -0.07724342
-0.015546536 -0.13847102 0.18089183 -0.13563567 0.10843638 0.07323677 0.06815327 -0.098460466
0.18053056 0.047893424 0.025816396 -0.16861022 0.08152249 -0.02768394 -0.0869802 0.16632561
0.04383044 -0.105259165 -0.096008115 -0.0058039995 0.110751376 -0.045873668 -0.10641202 -0.06255592
-0.14041933 0.0719494 0.15232609 -0.17772001 0.046244513 0.10081954 0.03635495 -0.06684358
0.1020865 0.10289021 0.073478244 -0.032009356 -0.0487501 0.027603896 -0.02699386 -0.05034421
0.1300175 0.17237584 -0.012063317 -0.03609508 0.009784115 -0.0045151324 0.040801022 0.048422925
-0.18045801 -0.0764032 0.15671265 0.06936163 -0.015111874 -0.12159576 -0.12328627 -0.1764264
-0.06677583 0.060566854 0.11916637 0.08553877 -0.17429595 -0.11978754 -0.03428061 0.18252598

conv1.bias f4 [8]
00000000: 5806 0f3d f33b 57bd 5dad 963d d135 87bd
00000010: 354e fbbd b29a 153e ac2f bdbd 1b28 02bd
0.03491816 -0.052547406 0.07357285 -0.066020615 -0.12270776 0.14609793 -0.09237608 -0.03177653

conv2.weight f4 [16, 8, 3, 3]
00000000: 5ebf e1bd 9fdc af3d ee2e c53d 4ea1 4c3d
00000010: aafa 99bd 0ce9 dfbd 17aa b5bd a84c c23d
00000020: ee2d 823d 84d6 d33d a014 873d e759 0b3d
00000030: 3e77 4a3b 39e9 aebd d72c c6bd ba01 d9bd
00000040: 8225 573d 69a1 5bbd f7b4 85bc 2d31 77bd
00000050: bf67 66bc f09a 9abd 2163 8ebd da68 3e3d
00000060: 3d07 e2bc ef38 a43d 7d28 f9bc 0ad0 9ebd
00000070: 99f6 43bc 996d 46bd feea ddbc 3ea7 d3bd
00000080: 14c4 983d 29c1 95bd 9d47 8b3d ce4d 7e3d
00000090: 3a10 bd3d 407f a8bd 2527 be3d dae7 42bd
000000a0: 7b70 543d a04d f33d 1a36 0bbc 2fba ec3b
000000b0: 12b3 9bbc 0443 bcbd 6601 813d 3355 e2bd
000000c0: 8a0a a33d 2dc0 c13d ad77 f13d ab73 aebc
000000d0: e7fb b8bd fbf5 063d ddf0 8e3d 6e6e e6bd
000000e0: 0f0c b4bc 3714 87bd 393e b6bb a43e 5abd
000000f0: d50b 32bd 3511 06bd dbd4 dbbd 21d3 d63d
00000100: 3842 db3d 751d 27bc 6e44 aabb 760f 23bd
00000110: aef2 c8bd 3dfc d9bd 061f 553d 1544 67bd
00000120: dcc5 9ebd 664a 31bc 338b 25bd 6b5b 23bd
00000130: 2384 113b f390 d6bc 2c01 2dbd 2c49 6dbd
00000140: 4184 c7bd 73f5 c93d 08bb 42bd c9ab fc3c
00000150: 24dd 27bd 37c1 163c ad24 e03d dc8f 5d3d
00000160: ac30 d1bd 183b 3d3d 48a7 e13d a291 ef3c
00000170: 1e0f 9e3d 3d86 ea3d 491e a2bc 2f71 b93c
00000180: 7c2a abbd 52ef d4bc e11c af3d 22e1 733d
00000190: 8c78 9bbd b8db c4bd 4c07 a6bd 865e f0bd
000001a0: 1092 bdbd d7c8 f3bc 5734 a03d 7e3c 943c
000001b0: b77f babd 120b c5bd c4c0 683d 6767 b6bd
000001c0: 494d 84bc 0627 603d b617 65bd 2a69 6dbc
000001d0: 90db 44bc 44ca f1bc 7422 7bbd 6f0a dabd
000001e0: 808e c6bd a684 84bd 01e2 e53d d120 70bd
000001f0: 0555 a5bd 79c8 dc3c 90e1 fd3c 1dfb 803d
00000200: e5f1 b33d 3b81 833d 9733 f2bd 285a 113c
00000210: 8b2b 8f3d f6ba 4bbc 3840 91bd c454 e23d
00000220: 7962 3cbd b847 8dbd f76d ddbd 7570 5b3b
00000230: 2dea 4d3d 5c8d c63c 86ce af3c 05f2 babd
00000240: bd6d ddbd f265 823b 45e6 df3d e8c3 8e3d
00000250: 7f32 89bd 622d 60bc c82b afbd 08c9 63bd
00000260: 6191 b93c 1837 823d 25a5 c63d 08c7 debd
00000270: 27f7 9f3d 5baa abbd 9819 323d a0e6 ca3d
00000280: 0fec 7d3a e537 da3d 0539 c7bd af40 2bbd
00000290: 6384 933d f2fe b5bc 1f5a a8bc f5cf 3abd
000002a0: 6a0b ae3d cee3 7b3d c22d 293d f9e9 72bd
000002b0: 2d7a b6bd 438c 963c 5df9 283d 5c71 47bd
000002c0: 6066 e3bc 75d7 ae3d 2015 713c 537a 283c
000002d0: 7259 bdbc 9d9d cebd a36c d6bd cdeb 49bd
000002e0: 901a 59bd 8c42 2e3d 65b0 e1bc b4f8 23bd
000002f0: 3c0c f13d 5725 303d 3cdd af3d a949 62bd
00000300: 8e91 3ebd 8a49 373d 9445 9ebd 85d2 9abd
00000310: 0b3e 93bb 4bac 2bbd a5ae aebd 8c1d 963d
00000320: 0635 c83d 7c4c ba3c 4d29 8bbc ad37 d9bd
00000330: e98f 21bd ea04 083d e5df 6f3d 85d1 2bbc
00000340: 5a01 2dbd 3277 8f3d 2523 b7bd a0ae a13d
00000350: 6c6e 29bd 4b92 ce3b 4227 9abc cad8 983c
00000360: 44bc efbc 5d83 bc3d a842 583b 8b66 c93d
00000370: 3e12 f53d 121e 51bd 4314 a3bd 33a7 ce3d
00000380: dc28 ca3d d382 afbd b5a5 9dbb f236 e5bd
00000390: 0fd1 bcbd d9be dd3c 4a10 123d b5d3 ef3c
000003a0: 758d e3bc 0383 e73d ff31 ba3c 7767 82bd
000003b0: a699 58ba 190c 0c3d aa20 413d 41ad 9ebd
000003c0: 0c0e 4d3d a994 5ebd 7794 bcbd 523f 6bbd
000003d0: bbd1 f63d 4e41 dc3d 9f4a e63d a6bf 9b3d
000003e0: da48 c43d f635 11bc 516f 6dbd 8490 863d
000003f0: 2903 5fbd 8279 95bd 931d ffbc 0575 003d
-0.110228285 0.08587002 0.09628092 0.04995852 -0.075185135 -0.10933122 -0.08870333 0.09487277
0.06356417 0.1034365 0.06595731 0.034021284 0.0030893828 -0.085405774 -0.09676521 -0.105960324
0.052526005 -0.05362073 -0.016321642 -0.060349632 -0.014062821 -0.07549083 -0.06952501 0.046486713
-0.027591342 0.08018672 -0.030414814 -0.07754524 -0.011960649 -0.048444364 -0.027089592 -0.10334633
0.07459274 -0.07312233 0.068007685 0.06208592 0.092316106 -0.08227396 0.0928481 -0.047584392
0.051865082 0.1188004 -0.008496786 0.0072243433 -0.019006286 -0.0919247 0.06299095 -0.11051407
0.079609945 0.09460483 0.117904045 -0.02129539 -0.090324216 0.03294943 0.06979535 -0.112515315
-0.021978406 -0.065956526 -0.0055616167 -0.053282395 -0.043468315 -0.032731254 -0.10733958 0.104894884
0.107059896 -0.010199894 -0.0051961457 -0.039809667 -0.098119125 -0.10643814 0.05203154 -0.056461412
-0.077525824 -0.010820961 -0.040415954 -0.039882105 0.0022204004 -0.026192164 -0.042237446 -0.05793111
-0.09742022 0.09861269 -0.04754165 0.030843632 -0.04098238 0.009201339 0.10944495 0.054092273
-0.102143615 0.046198934 0.110182345 0.029244248 0.07717727 0.11451385 -0.019789832 0.022636978
-0.083577126 -0.025993023 0.0855043 0.059540875 -0.07591352 -0.096122205 -0.081068605 -0.11736779
-0.09256375 -0.029758854 0.07822483 0.018095251 -0.09106391 -0.09621252 0.05682446 -0.08906441
-0.016150134 0.054724716 -0.055930816 -0.014490405 -0.012015238 -0.029515393 -0.061312154 -0.10646521
-0.096951485 -0.06470613 0.112247474 -0.058625046 -0.08072857 0.026951062 0.030991346 0.06297896
0.08786372 0.06421133 -0.11826246 0.008871593 0.06990727 -0.012434712 -0.07092327 0.11051324
-0.04599235 -0.06898445 -0.1081199 0.0033483778 0.050272156 0.024237327 0.021460783 -0.09128193
-0.108119465 0.003979438 0.10932592 0.0697096 -0.066990845 -0.013682695 -0.085532725 -0.05561164
0.02265233 0.063581645 0.096994676 -0.10877806 0.078108124 -0.08382102 0.04348144 0.099072695
0.00096863596 0.10655192 -0.097276725 -0.041809734 0.07202985 -0.022216294 -0.020550786 -0.04560848
0.08498271 0.06149655 0.041303404 -0.059305165 -0.08910022 0.018377429 0.041253436 -0.048692092
-0.027758777 0.08537189 0.014714509 0.010283071 -0.02311394 -0.10088656 -0.104699396 -0.049297143
-0.053003848 0.042543933 -0.027549932 -0.040032104 0.11769912 0.04300436 0.08587119 -0.05524603
-0.04652553 0.044747867 -0.07728115 -0.07559685 -0.00449348 -0.04191236 -0.085294046 0.07329854
0.097757384 0.022741549 -0.016987467 -0.106063224 -0.039443884 0.03320781 0.05856313 -0.010486965
-0.042237617 0.070051566 -0.0894225 0.07894635 -0.041365072 0.0063040606 -0.018817548 0.01865806
-0.029264577 0.09204743 0.0032998715 0.09834012 0.1196637 -0.051054068 -0.07962849 0.100904845
0.098710746 -0.085698746 -0.0048110136 -0.111921206 -0.09219562 0.027068542 0.035660066 0.029275754
-0.027777413 0.113042854 0.022728918 -0.063673906 -0.00082626415 0.034191225 0.04715029 -0.07747889
0.050062224 -0.054340992 -0.09208005 -0.057433434 0.12051722 0.107546434 0.112447016 0.076049134
0.09584208 -0.008862963 -0.057967488 0.06570533 -0.054446373 -0.072985664 -0.031142032 0.0313616

conv2.bias f4 [16]
00000000: 5994 fa3d 2c74 efba f0a9 bd3d b1a7 a03d
00000010: 7be6 ac3d 2e78 debd fefd d53d 563b bebd
00000020: b69a d63d 4ec0 63bb 0bd0 cabd 5d77 1b3d
00000030: 4ef3 82bc 02e2 e0bd 3021 15bd 2029 963c
0.12235326 -0.0018268875 0.09260929 0.078444846 0.08442398 -0.10862766 0.10448836 -0.09288661
0.104787275 -0.0034752074 -0.09902962 0.03795563 -0.015985157 -0.109806076 -0.036408603 0.018330157

conv3.weight f4 [64, 16, 3, 3]
00000000: 687f 703d 7950 02bd 963e 313d 79ea 8a3b
00000010: cf39 5fbb 4e2b 1f3c 175b 79bd 0696 9abd
00000020: 45c1 04bd 0d78 a0bd 6e32 22bd b425 433b
00000030: adce 63bd 2d94 10bd ae5d 81bc 2205 2abc
00000040: d0b3 3fbd fac4 4e3b 6995 83bc 66dc 9f3c
00000050: 50fe 10ba d33e 3cbd dd46 07bd d681 aebb
00000060: bc7c 66bd 6fce 133b 85b2 26bc 55d9 e03c
00000070: 6309 733c 856a 6b3d 01f7 f9bb 5f1b 88bd
00000080: d891 043d cfaa 7abd b1ce 85bc b083 02bd
00000090: 478b 13bd 2fda 0fbd f718 943d 8f2e 313d
000000a0: 0774 993c bd65 973d 4ed8 a3bd 827e 133c
000000b0: 3e7a 483d 5c06 443d 1030 97bd f79d b43c
000000c0: e342 61bd 0983 30bc d8e4 ccbc 84ff 9dbd
000000d0: a049 b2bd 23db 7fbd 31bf 053d 8042 073d
000000e0: 9ac0 9ebd 5f68 15bd 355e 77bb 1bf4 9dbd
000000f0: 1004 2b3d 9cf7 8f3d 2d3e 1d3c 007f 8abd
00000100: 7ad2 693c 1635 cc3c 4c02 763d df31 4bbd
00000110: 8ccb a1bd 63bd f93c 9b37 41ba 314d 04bd
00000120: 0e52 20bd 7e55 41bd 4e66 813d ea54 98bc
00000130: 69eb 643d 22a7 8f3d a087 cf3b 92dc 5d3c
00000140: e02c 22bc 0594 583d 39b8 a2bd c2e7 eb3c
00000150: 63ec 92bc 12fb 093d 2ffd 9abb 0e3b 10bd
00000160: 68e7 5abc cb6b 263d 4de6 81bd 9b33 6ebd
00000170: 4466 c4bc 78bc 12bd 7877 de3c 994b 4f3d
00000180: d766 6ebc 1bda 953d ec74 25bd ea56 54bd
00000190: f0fe 2cbd 053a 7fbd 1320 82bd 302e a2bd
000001a0: f040 a1bd d9cc 873c c997 3b3d ef2b 963d
000001b0: 0bda 853d 369f 29bc db23 2f3c 1a5c 63bd
000001c0: c818 da3c a1ec aebd f5bf 093d 170a 1e3c
000001d0: 890a a43c 0f2c db3c 4535 2cbd a8ad 8a3d
000001e0: c6b6 133d bbe7 503d f0d9 ed3b 8258 473d
000001f0: 7395 563d 1d88 0b3d ddd8 6e3d 0c04 a6bc
00000200: d148 4b3d 10ab 653c d031 383d f29d 9b3d
00000210: 1530 603c 70ea 13bd f5c8 5cbc 5237 963c
00000220: 514d 123c a16d e4bc 6574 763d 341e 383d
00000230: 75f9 68bd 3538 43bc c5f4 56bc 1ce3 6abd
00000240: 117a 9a3c f073 9abc e578 14bd 96ad a4bc
00000250: 245d bcbc ed10 b13d e851 1e3d beb5 b53d
00000260: 1b58 f23c 846d a13c ff8e 103d 8e8e 7e3c
00000270: 481c 84bd dcb4 45bd 8bc2 9bbc 29aa 073b
00000280: 48d1 043d 96ee 073d cd0a 913d 877e b13c
00000290: 3f51 c2bc 688d 6dbd 0392 66bd 3270 38bd
000002a0: f196 f33c dc65 4b3d 39be 9e3d 39e6 aabc
000002b0: 8f5c 8cba 178b 9dbc 1518 aa3b 4116 043d
000002c0: 5b15 713b 985b 193c ef8f 833c afb1 153d
000002d0: 9235 9dbc 0224 33bd 27c3 cf3c 6a83 67bb
000002e0: 881a 01bd e467 273d cfb3 e53b f9de bfbb
000002f0: f9e5 0cbd ab23 34bb 8565 80bd dfc5 dd3c
00000300: ec69 1b3c a68c 703d 8ad4 5c3c a72b 743c
00000310: 78c3 fc3c 777f 923d d922 05bd b9a3 673d
00000320: f451 dd3c f1f7 46bd 2683 133d 9bc5 30bd
00000330: 7705 9ebc bbf6 05bd b00f 4cbd b442 933d
00000340: 39db 8bbd 3eb5 433d 9600 8cbd f1d1 75bb
00000350: b1ca 383c ef65 863d bc2f c0bc 24ce fb3c
00000360: 1e65 913c 409e 5c3d 6b7e 203c 8aa7 133d
00000370: 136e 3abd 0568 59bd 2d11 a23d 44d5 64bd
00000380: 91ff 18bc cc7b a2bb 4f68 b13d fcef 52bc
00000390: fded 6ebd c703 83bc 5b1e 453d ab1e 1c3d
000003a0: a3a8 973d 3072 43bc 9f85 423d 94f2 8fbd
000003b0: 6a99 233d 73c6 3f3d ccf3 7f3d e1d7 20bd
000003c0: 48ab 69bc ebfe ea3c 42e6 4dbd d664 79bd
000003d0: 1a18 99bd d794 243c 2e27 6a3d 4307 dc3c
000003e0: c971 2b3c d950 0d3d 9f05 40bd 1f7e 683c
000003f0: fbb2 5abc 5532 0bbd 95ad a13d 67d6 68bd
0.058715254 -0.031815026 0.043272577 0.004239377 -0.0034061556 0.0097149145 -0.060877886 -0.07548146
-0.03241088 -0.07835398 -0.039598875 0.0029777111 -0.055617023 -0.03529756 -0.01579174 -0.0103772
-0.046802342 0.0031550513 -0.016062455 0.019514274 -0.00055310596 -0.04595835 -0.033026565 -0.0053255362
-0.0562713 0.0022553464 -0.010174398 0.027447382 0.014833781 0.05747463 -0.007628322 -0.066458456
0.03236565 -0.061198052 -0.01633391 -0.03186387 -0.036021497 -0.035120185 0.07231324 0.043257292
0.018732084 0.07392452 -0.08000241 0.00900233 0.048944704 0.047857627 -0.07382214 0.02204798
-0.05499543 -0.010773429 -0.025011465 -0.07714751 -0.08705449 -0.062464844 0.032653037 0.033022404
-0.077515796 -0.03647649 -0.003774536 -0.07712575 0.04175192 0.070296496 0.009597343 -0.067625046
0.014271373 0.024927657 0.060060784 -0.049608108 -0.079001516 0.030485814 -0.00073706516 -0.032300178
-0.039140753 -0.047200672 0.06318341 -0.018595178 0.055888567 0.070143 0.0063333064 0.013541358
-0.009898394 0.052875537 -0.07945294 0.028797034 -0.017934984 0.033686705 -0.004729889 -0.03521257
-0.013360836 0.040630143 -0.063427545 -0.058154684 -0.023974545 -0.03582427 0.027156577 0.050609205
-0.014550886 0.07316991 -0.04039471 -0.0518407 -0.042235315 -0.06231119 -0.06353774 -0.07918966
-0.07873714 0.016577171 0.04579905 0.073325984 0.06535729 -0.0103529 0.010689701 -0.055507757
0.026623145 -0.08541227 0.03363033 0.00964596 0.020024555 0.026754407 -0.04204299 0.067714036
0.03606298 0.051002245 0.007258646 0.048668392 0.05238862 0.034065355 0.058312286 -0.020265602
0.04962999 0.014017835 0.04496938 0.07598485 0.013683339 -0.03611225 -0.013475646 0.018336926
0.0089295665 -0.027884306 0.060169596 0.04495068 -0.056878526 -0.011915256 -0.013119881 -0.057345495
0.018857034 -0.018854111 -0.036248107 -0.020102303 -0.022993632 0.086458065 0.03865233 0.08872555
0.029583028 0.019705541 0.03529262 0.015536917 -0.06450707 -0.048268184 -0.019013664 0.0020700789
0.03242615 0.033186518 0.07082138 0.021666778 -0.023720382 -0.057996184 -0.05629159 -0.045028873
0.02973506 0.049657688 0.07751126 -0.020861732 -0.0010708737 -0.019231362 0.005190859 0.032247785
0.003678641 0.009360217 0.016059844 0.036546405 -0.019190583 -0.04373551 0.02536161 -0.0035326132
-0.031519443 0.040870562 0.0070099602 -0.005855438 -0.034399007 -0.002748708 -0.06269363 0.027071891
0.009485703 0.058727883 0.013478408 0.014902986 0.030854926 0.07153218 -0.032503936 0.056552622
0.027016617 -0.0485763 0.036013745 -0.0431572 -0.019289715 -0.032706004 -0.04981965 0.07190457
-0.06828923 0.047780268 -0.06836049 -0.0037509168 0.011278794 0.06562411 -0.023460262 0.030737944
0.017748412 0.053861856 0.009795765 0.03604845 -0.04551513 -0.053077716 0.07913432 -0.05586745
-0.0093382755 -0.0049586054 0.086624734 -0.0128746 -0.058332432 -0.015993012 0.048124652 0.038115185
0.07405212 -0.01192908 0.047490712 -0.0702869 0.03994123 0.046820115 0.062488362 -0.03926838
-0.014262028 0.028686007 -0.05026842 -0.06088718 -0.074753 0.010045252 0.05716627 0.026858931
0.01046414 0.03450093 -0.04688036 0.014190226 -0.013348336 -0.033983547 0.07894436 -0.056845095

conv3.bias f4 [64]
00000000: 22a0 3f3d 6b8e 3f3d 14cb 7bbd 3048 523c
00000010: bfa4 89bd 051e 42bd f3a7 fd3c afde 3c3a
00000020: 3f27 38bd edf4 073d 7f5d 653d b668 9abd
00000030: aa0e 983d 6de6 2e3d 9eba 6fbb 345b 94bd
00000040: 0f45 22bd 075e fd3c dbce 20bd 8d15 a7bc
00000050: 0120 18bd 0b63 8f3d 208a 9a3d 6eb6 75bd
00000060: ad10 e9bc 883c 923d 2ea0 ee38 057f 02bd
00000070: 0145 c53b e1e1 7d3d 63eb 16bc 927e 96bd
00000080: 92a6 f8bc 9a3b 3e3d f9dc 77bc 2265 823d
00000090: cc61 c53c c4e7 3cbb 9188 173d 619a 41bc
000000a0: 0135 82bd 4e74 94bd 3449 66bd c17a 06bc
000000b0: bb68 7ebd c7bd 1e3c 677d 993c eb38 8c3d
000000c0: 48af 183c ad98 9c3c c7f0 0d3d 60c6 96bc
000000d0: 07bb 35bd 2cc4 90bd 9488 afbd e3eb 413c
000000e0: 445a 2dbd e916 9b3c 99e2 d13c 435c 8f3d
000000f0: 3a18 9fbb 0554 be3b cffb 833d ce62 ab3c
0.046783574 0.04676668 -0.061472967 0.012834594 -0.06720876 -0.04739191 0.030963873 0.00072048133
-0.044959303 0.033192564 0.055997368 -0.07539503 0.07424672 0.04270022 -0.0036579738 -0.07243958
-0.03961664 0.030928625 -0.039259773 -0.020396018 -0.037139896 0.07001313 0.075458765 -0.05998843
-0.028450334 0.07140452 0.0001137856 -0.031859417 0.006020189 0.061982993 -0.009211394 -0.0734836
-0.030352864 0.04644356 -0.015128368 0.06366946 0.024094485 -0.0028824667 0.036995474 -0.011816592
-0.06357766 -0.07248746 -0.056222156 -0.008207978 -0.062111598 0.009688801 0.018736554 0.06846794
0.009319134 0.01911577 0.03465345 -0.01840514 -0.044367816 -0.07068667 -0.08570972 0.011836025
-0.042322412 0.018931823 0.025620745 0.070000194 -0.004855183 0.0058083558 0.06444513 0.020921137

fc.weight f4 [7, 64]
00000000: 6ac5 5a3d b63e 96bd 876a c6bd 405d be3d
00000010: 3e90 b33d 2562 4bbd 8a15 4a3c 98d5 f1bd
00000020: 4d91 3439 89cc f9bd fb36 8d3d 0687 06be
00000030: 1e2c 08bd 2034 ea3d 127c 3ebd 6aca a5bd
00000040: 98f5 de3d 084b 90bd 2089 c33c 5c01 7d3d
00000050: a62f fc3c ee57 b3bd cc22 dd3d 252e 583d
00000060: 66f1 a6bd 0d8c 9bbd 6366 0fbd 0d34 043d
00000070: c8da 333d d241 483c 2d47 9c3d 331f f23d
00000080: daa2 be3c 67e8 313d 6aa1 8c3d 166a 9d3c
00000090: b2c1 713b abb6 dc3d 4b1f a33d 6272 a53d
000000a0: 0cf6 6dbd 668d 78bd 0b38 9fbd 8d39 e2bd
000000b0: 8e29 6fbc 5c93 8c3d c612 0a3c 9648 4dbd
000000c0: 3dc0 babc 77a2 d0bd 4177 afbd d082 913b
000000d0: 4a32 99bd b41f e03b db88 c93d 56fd c63c
000000e0: 939e bd3d 5d03 abbd 38b5 30bb ff50 03be
000000f0: f856 9ebb ff62 cbbd 395b df3d 483e e8bd
00000100: 8af3 1f3d 7ba4 a4bd 5915 e83c 286e 3fbb
00000110: a36f 8bbc 2b1b 50bd 12b3 933d f386 f0bc
00000120: 2544 0d3b 1622 32bd a81e bebd d903 74bd
00000130: 6d44 df3d b507 ef3d fdac 79bd 2af2 703b
00000140: f9c4 873c 2e56 d33d 12fe 5f3c 0612 0abb
00000150: d75f 20bd 3ad1 cd3c 3bee 04be 78c1 06be
00000160: 3ca2 8cbc a3b8 babd 1337 bebd b73e f9bc
00000170: 5c27 873d 58a6 6e3d cb1d 49bd 5faa 74bc
00000180: 31b2 e83d 5b92 b13c 3d92 ac3d 5a60 6abd
00000190: e323 edbd ab3e 80bd 5cd8 943b ca8e f9bc
000001a0: 179c 9ebd ff27 f53d 0c7c ffbd f121 20bb
000001b0: c044 443d 86e0 10bd 30eb 353d 1976 adbb
000001c0: 00fd a2bd c673 97bd d215 7bbd 1215 04be
000001d0: 2970 9c3d 72b3 d93d 36aa 8cbd a73a 97ba
000001e0: cc3a 1e3d 237d fe3c bb0b 9abd 1837 a6bd
000001f0: 791a ee3d 9bd3 8a3d 191a e03d 2b61 a63d
00000200: 1470 49bc 6b5e ab3d 1f96 1cbc 256d 333a
00000210: 66e1 5bbd 32a2 c63d 2036 09bd bc62 403c
00000220: 0e2b dabd 6fd0 1a3d c6d9 74bd 26e8 0cbd
00000230: 8a37 5abc a8a4 363d 46a1 d73b 4ab1 703c
00000240: 31c9 adbd 55da cebd 9e85 293d b3df 71bd
00000250: 140a e2bd eca7 57bd 522b 02be 3652 983c
00000260: d1c2 083c 5d7c e53d d301 96bd 59d5 93bd
00000270: 0b30 db3c eb57 0dbd 9773 bd3d e11d 633c
00000280: 0a6a 90bb 6efe 56bd 522c 973d e183 81bd
00000290: 381e 413d 59b6 9b3d a6af d4bd 9f4c e3bd
000002a0: e6d3 a1bd 976c 733d a20e 98bd 7a66 de3b
000002b0: 44d9 8c3c 57b4 d73c 6217 94bd 9d4c e339
000002c0: 20d2 a73d 21de 723d e30e a93c 253f d8bd
000002d0: 19eb 683d a6b8 6bbd ebe1 aa3d e4ff 573d
000002e0: 9846 d1bc ccc4 383d f530 67bd 0cd1 923c
000002f0: aa50 31bc 1abf d23b 93be 473d 9ab6 ed3d
00000300: 4f95 72bd 2c2c ed3d 5ee0 f4bc f190 ee3d
00000310: ec2d d43c 0383 fa3b 2224 4fbd edc7 95bd
00000320: d40d 07be 2581 98bd 8d80 53bc 098b c73d
00000330: 9ddc 833d 9115 9f3c 372f 00be 8674 a13d
00000340: 3e9d a73d 278e 82bd 69bc 3f3d e69f e6bd
00000350: 637c 87bd af97 1fbd e6fa f3bd 3821 7abc
00000360: eaf7 b83c eedd 003d 3143 e23d 6b25 7f3d
00000370: 136a f1bd a001 32bd e04c 833d b267 01be
00000380: b22b 28bc ecc1 293d 2731 b1bd 178b cf3d
00000390: c080 b1bd 2d9d c5bd 56c2 d0bd c790 babc
000003a0: acaf 023d a38e 0f3d c157 93bd b44f d33d
000003b0: 1547 8dbd 7ae9 c43d 57ae 023d 0dc3 3ebd
000003c0: 3b3d b13d ff90 0f3d d083 e5bd 73fa 653d
000003d0: edf2 ec3d 4cf3 d1bd fda2 00bd 3d51 dfbd
000003e0: 5a19 a53d 1729 7d3d cae0 ad3d 1bf9 ef3c
000003f0: 0ca3 dabc e1b9 9ebc a671 d0bd d26a 943d
0.053410925 -0.0733618 -0.09688287 0.0929513 0.087677464 -0.049654145 0.012334237 -0.11808318
0.00017220266 -0.12197215 0.06895252 -0.13137445 -0.0332452 0.11435723 -0.04650504 -0.08095248
0.10886687 -0.07045561 0.023869097 0.061768875 0.03078444 -0.08757006 0.107976526 0.05277838
-0.08151512 -0.07595072 -0.035009753 0.032276202 0.043909818 0.012222724 0.07630763 0.11822357
0.023271013 0.043434527 0.06866725 0.019215625 0.0036889133 0.10777029 0.07964953 0.080784574
-0.058095977 -0.060681723 -0.07774361 -0.11046133 -0.01459731 0.06864044 0.0084273275 -0.05011805
-0.022796744 -0.10187238 -0.08567668 0.004440643 -0.07480295 0.006839717 0.09840556 0.024290722
0.09258761 -0.08350251 -0.0026963484 -0.12823866 -0.004832145 -0.099309914 0.10906071 -0.11340004
0.039050616 -0.08039185 0.028330492 -0.0029209945 -0.017021006 -0.05080716 0.07211889 -0.029361224
0.002155551 -0.043489538 -0.09283191 -0.059573982 0.10901723 0.11671392 -0.06095599 0.0036765435
0.016573416 0.10319172 0.013671415 -0.0021067872 -0.0391539 0.025124181 -0.12981503 -0.1315974
-0.017167203 -0.09117248 -0.09287848 -0.030425413 0.06599304 0.058264107 -0.04910068 -0.014933198
0.11362112 0.021676233 0.0842633 -0.057220794 -0.115791105 -0.06261953 0.0045423936 -0.030463595
-0.077446155 0.11970519 -0.12474832 -0.0024434293 0.047917128 -0.035370372 0.044413745 -0.0052936194
-0.07958412 -0.07395129 -0.061300106 -0.12898663 0.0763858 0.106299296 -0.06868403 -0.0011537866
0.03863029 0.03106553 -0.07521769 -0.08115977 0.11626143 0.06778642 0.10942478 0.08124002
-0.012294788 0.08367618 -0.009557276 0.0006844572 -0.053681754 0.09698905 -0.033498883 0.01174229
-0.10652743 0.037796434 -0.059777997 -0.03440108 -0.013318906 0.044590622 0.0065805046 0.0146907065
-0.0848564 -0.10100237 0.041387193 -0.059051227 -0.110370785 -0.052650377 -0.12711838 0.018593889
0.008347229 0.11205361 -0.07324567 -0.07218427 0.026756307 -0.034507673 0.09250563 0.013862104
-0.004407172 -0.052488737 0.073815 -0.06323982 0.04714796 0.076031394 -0.10385065 -0.11098599
-0.079017445 0.05942973 -0.07424666 0.0067871185 0.017193444 0.02633111 -0.072310224 0.00043353895
0.08194375 0.05929387 0.020636981 -0.10558919 0.05686483 -0.05754914 0.08343872 0.05273427
-0.025546357 0.045109555 -0.056443173 0.017921947 -0.0108224545 0.0064314725 0.04876573 0.11607094
-0.059224423 0.11580691 -0.029892143 0.11648739 0.025900804 0.0076450123 -0.05057157 -0.073135234
-0.13188869 -0.07446507 -0.012909067 0.09743316 0.06438563 0.019419463 -0.12518011 0.07883553
0.081842884 -0.0637477 0.04681054 -0.11260967 -0.06615522 -0.038963016 -0.119130895 -0.015266709
0.022579152 0.03146165 0.11047972 0.062291544 -0.1178781 -0.04345858 0.06411147 -0.12637213
-0.010264324 0.041444704 -0.08651953 0.10133951 -0.08667135 -0.096491195 -0.10193317 -0.022774113
0.031905815 0.03504814 -0.07194472 0.103179365 -0.068983234 0.096148446 0.031904545 -0.046572734
0.08654257 0.03505039 -0.11206782 0.05614705 0.11569772 -0.10251483 -0.031405438 -0.10904167
0.08061476 0.061806764 0.08490141 0.029293587 -0.026689075 -0.019375743 -0.10177927 0.07246937

fc.bias f4 [7]
00000000: af04 6ebd 7c62 953d e9cf ddbc b642 873d
00000010: 99af 2ebc d6ab f1bd 207a 7fbc
-0.058109935 0.07294175 -0.027076678 0.06604521 -0.010661983 -0.11800353 -0.015593082
