logs/2019-12-22T02:24:08.329024_mode_classification_model_ConvNetSimple_dataset_MNIST_subset_1.0_bs_64_name_Adam_lr_0.001/epoch_0032-model-val_accuracy_99.11754911754912.pth (torch_old, 46124 bytes, 8 tensors)

conv1.weight f4 [8, 1, 3, 3]
0.7230227 0.65077055 -1.2836004 0.7285001 0.9401722 -0.092205785 -1.0123076 0.6017004
0.61632884 -0.93519825 0.794141 0.84950364 0.18425786 0.6655208 0.828008 0.030504826
0.80700463 0.42938718 -0.33836448 -0.2511768 -0.6007936 -0.20667137 -0.3863508 -0.19349764
-0.61893076 -0.39012685 -0.34053963 -0.7556543 -0.86565256 -1.1905204 0.48985773 -0.35537344
0.38581946 0.7354533 0.7055649 1.1772381 0.7817063 0.9181518 0.42243475 0.35504195
0.44874984 -0.04453286 0.6354395 0.7742234 -0.18492486 0.029025894 0.15277515 -0.26846784
0.2600499 -0.26782173 -0.5988755 -0.4044411 -0.4527652 -0.0015237713 0.56094533 1.3026896
1.0436743 0.47074667 0.69743645 -0.36734048 -0.57026887 -1.2169366 -0.8432562 0.60808074
-0.27714252 -0.9265612 1.2244139 -0.40031096 -1.0265858 0.5729059 0.8036428 0.16303743
00000000: 0418 393f e698 263f 054d a4bf fc7e 3a3f
00000010: 20af 703f 63d6 bcbd 4c93 81bf 0a09 1a3f
00000020: bac7 1d3f 2769 6fbf d34c 4b3f 1279 593f
00000030: 18ae 3c3e 925f 2a3f 55f8 533f 42e5 f93c
00000040: db97 4e3f a3d8 db3e 1c3e adbe 3f9a 80be
00000050: 9ccd 19bf a9a1 53be c6cf c5be 3f24 46be
00000060: 3f72 1ebf b5be c7be 365b aebe 8f72 41bf
00000070: 689b 5dbf f962 98bf a2ce fa3e 82f3 b5be
00000080: 218a c53e ab46 3c3f e79f 343f bdaf 963f
00000090: e71d 483f ff0b 6b3f 5e49 d83e 0fc8 b53e
000000a0: 8ac2 e53e 1768 36bd 2aac 223f 8133 463f
000000b0: f15c 3dbe b6c7 ed3c 1771 1c3e 9e74 89be
000000c0: 4325 853e ee1f 89be e84f 19bf e712 cfbe
000000d0: d7d0 e7be 48b9 c7ba 1d9a 0f3f 88be a63f
000000e0: 1f97 853f b505 f13e 328b 323f 0d14 bcbe
000000f0: 24fd 11bf 94c4 9bbf a3df 57bf 2eab 1b3f
00000100: a0e5 8dbe 1d33 6dbf 98b9 9c3f 8ff5 ccbe
00000110: 2a67 83bf f6a9 123f 89bb 4d3f 49f3 263e

conv1.bias f4 [8]
1.0276147 0.38623616 -0.55763364 0.28424677 0.12843958 -0.080947645 1.047824 0.6443866
00000000: e188 833f bfc0 c53e 14c1 0ebf cb88 913e
00000010: aa85 033e e1c7 a5bd 191f 863f 85f6 243f

conv2.weight f4 [16, 8, 3, 3]
-0.08747268 0.14011234 -0.13353948 -0.16142681 0.3510979 0.16278103 0.07956375 0.085990906
-0.2499906 0.08909636 -0.07859476 -0.5790058 0.028069474 0.07744187 -0.44978178 -0.1538893
0.058881678 -0.36791047 0.07378848 -0.17264204 0.052747905 0.22409163 -0.38523445 -0.11891864
0.1059772 -0.21642417 0.12383583 -0.61304086 -0.18806808 -0.09446233 -0.038005944 0.017105205
0.25243542 -0.041350044 -0.31646365 -0.5393204 0.2928349 0.041803837 -0.48870388 -0.040037848
0.13177057 -0.17864032 -0.19138524 -0.031472616 -0.40489092 0.011815602 -0.06736956 0.0372117
0.21682139 -0.26335216 0.15352868 0.10141971 -0.09874617 0.32880175 -0.24061452 -0.20747915
-0.33692622 -0.6461277 0.14319204 -0.03969948 -0.06258352 0.15887846 0.41327494 -0.48759124
0.44403714 0.49880588 -0.039066385 0.5319394 0.61796284 -0.10759539 0.43322784 0.0019539245
0.17027536 -0.25563645 0.23862308 0.12962028 -0.1893114 0.008326093 0.12616435 -0.1920677
0.14188801 -0.07048677 -0.095375404 -0.36387128 -0.06008971 -0.12576966 -0.023177477 0.024840772
0.05439849 -0.19207273 -0.102010675 0.09841014 0.002996252 -0.19142224 -0.16646992 -0.41038436
-0.3825147 -0.29364938 -0.054358233 -0.16513897 -0.032482535 0.3197101 0.35002598 0.34230974
0.42171076 0.5052105 0.04438986 -0.1498068 0.052348852 -0.27362266 -0.25747466 0.0066904826
-0.012176894 -0.08205415 0.0049827537 -0.20467824 -0.30531472 0.06014976 0.109314546 0.054440334
-0.13252598 -0.046041615 0.004981808 -0.069080636 -0.072610445 -0.048853043 0.13161415 -0.15721172
-0.1626101 -0.08088347 -0.19944213 0.21553789 0.25311622 0.31591478 0.4688234 0.41268134
-0.11496396 0.3382667 0.4205548 -0.2158966 0.055586483 0.08519505 -0.46163836 -0.12806615
0.13189983 0.20471114 0.10954546 -0.041247755 0.23712495 -0.14404853 -0.76992947 -0.54903114
-0.21585461 0.2338453 0.30812186 0.13816218 -0.012328524 0.01060185 -0.16690771 -0.66056496
-0.06291911 -0.2266093 -0.03751555 -0.28555048 -0.12994674 -0.035351783 -0.11816245 0.006414156
0.054601453 0.16479063 0.0679877 0.107346706 0.47913423 0.4866976 -1.1211498 -0.6523265
-0.49418283 0.6740062 0.40956068 0.03518708 0.17232578 0.21163173 0.08720372 -0.2876683
0.18329418 0.010618984 -0.5151774 -0.11548149 -0.09848871 -0.18459691 -0.11459248 -0.13702323
0.09213156 0.11181169 0.18465593 0.06037299 0.0031845565 0.13383237 0.3535302 0.15206647
0.43519372 0.16887324 0.42977315 0.3945205 -0.42455348 -0.20521806 -0.29566297 0.22371963
0.21077992 0.035673402 -0.5793888 -0.6841068 -0.47952494 -0.18357049 -0.5299895 -0.4394962
0.23251916 0.5112092 0.09937121 -0.6196203 -1.0886464 -0.12754196 -0.011630525 0.4275097
0.019819692 -0.13715045 0.39649844 0.30605114 -1.0734683 -0.9119121 -0.29940134 0.5918465
-0.024809089 -0.18756858 0.1261367 -0.10072153 -0.01931246 0.1662598 0.029096058 0.0880107
-0.14718905 -0.05976405 0.091054395 -1.3245872 -0.79807085 -0.032481313 0.3361289 0.15757187
-0.6153566 0.7148161 0.69279593 0.36370122 -0.22776194 0.05074366 0.30875945 -1.1078221
00000000: e024 b3bd 9c79 0f3e 93be 08be 124d 25be
00000010: 1bc3 b33e 12b0 263e 52f2 a23d 001c b03d
00000020: 89fd 7fbe 2778 b63d 4af6 a0bd b939 14bf
00000030: f4f1 e53c d899 9e3d cc49 e6be 2895 1dbe
00000040: ea2d 713d c35e bcbe 6a1e 973d 13c9 30be
00000050: 300e 583d 4778 653e 733d c5be 9e8b f3bd
00000060: 930a d93d 4c9e 5dbe a49d fd3d 3ff0 1cbf
00000070: eb94 40be 7775 c1bd 1fac 1bbd 3720 8c3c
00000080: 373f 813e aa5e 29bd 8607 a2be e710 0abf
00000090: 75ee 953e 803a 2b3d 6537 fabe bafe 23bd
000000a0: ddee 063e 7ded 36be 7efa 43be 6ee9 00bd
000000b0: dd4d cfbe 3a96 413c 0df9 89bd 4c6b 183d
000000c0: 6d06 5e3e 18d6 86be 9f36 1d3e 23b5 cf3d
000000d0: 6f3b cabd b458 a83e a763 76be 6a75 54be
000000e0: 9881 acbe a068 25bf efa0 123e ec9b 22bd
000000f0: ca2b 80bd 09b1 223e c698 d33e 8fa5 f9be
00000100: d658 e33e 7c63 ff3e 1304 20bd 2e2d 083f
00000110: d032 1e3f f95a dcbd 0ad0 dd3e 6a0d 003b
00000120: aa5c 2e3e c8e2 82be 9c59 743e 2ebb 043e
00000130: d9da 41be 2a6a 083c 3a31 013e 65ad 44be
00000140: 174b 113e 5e5b 90bd 2e54 c3bd 564d babe
00000150: a120 76bd c3c9 00be b1de bdbc e07e cb3c
00000160: f3d0 5e3d b7ae 44be f9ea d0bd 418b c93d
00000170: c45c 443b 3104 44be 1777 2abe e61d d2be
00000180: f7d8 c3be 3659 96be bda6 5ebd 311a 29be
00000190: 680c 05bd 0bb1 a33e 9b36 b33e 3943 af3e
000001a0: 79ea d73e 7a55 013f 24d2 353d f466 19be
000001b0: c06b 563d 4518 8cbe b8d3 83be d63b db3b
000001c0: 9881 47bc 020c a8bd 5e46 a33b 2c97 51be
000001d0: 3652 9cbe 985f 763d 4ee0 df3d d4fc 5e3d
000001e0: e4b4 07be 2296 3cbd 6f3e a33b 267a 8dbd
000001f0: c9b4 94bd 211a 48bd dcc5 063e 1cfc 20be
00000200: 4383 26be 3ca6 a5bd 8f3a 4cbe f7b5 5c3e
00000210: 7398 813e 95bf a13e 9f09 f03e f84a d33e
00000220: 3a72 ebbd 4b31 ad3e f552 d73e 0014 5dbe
00000230: a7ae 633d be7a ae3d dd5b ecbe c623 03be
00000240: c010 073e cc9f 513e 5f59 e03d 68f3 28bd
00000250: e2d0 723e 7581 13be 191a 45bf 4e8d 0cbf
00000260: fe08 5dbe 2475 6f3e 26c2 9d3e 637a 0d3e
00000270: 94fd 49bc 62b3 2d3c dbe9 2abe c91a 29bf
00000280: bcdb 80bd 450c 68be e8a9 19bd ac33 92be
00000290: c210 05be 08cd 10bd 28ff f1bd d72d d23b
000002a0: c6a5 5f3d e0be 283e 233d 8b3d 97d8 db3d
000002b0: 1551 f53e 6e30 f93e d681 8fbf dffe 26bf
000002c0: 8805 fdbe ac8b 2c3f f0b1 d13e 5420 103d
000002d0: 2b76 303e fdb5 583e dd97 b23d 4249 93be
000002e0: 78b1 3b3e 3ffb 2d3c abe2 03bf 8f81 ecbd
000002f0: 73b4 c9bd f906 3dbe 76af eabd d14f 0cbe
00000300: 79af bc3d 87fd e43d 7216 3d3e ab49 773d
00000310: feb3 503b 5a0b 093e e901 b53e 50b7 1b3e
00000320: b6d1 de3e 1bed 2c3e 3a0b dc3e 97fe c93e
00000330: 135f d9be af24 52be 2361 97be c216 653e
00000340: b1d6 573e 461e 123d d352 14bf a021 2fbf
00000350: 4b84 f5be e7f9 3bbe 64ad 07bf a505 e1be
00000360: 8119 6e3e 9bde 023f 2283 cb3d 709f 1ebf
00000370: c458 8bbf 5c9a 02be f58d 3ebc 8de2 da3e
00000380: e85c a23c 2b71 0cbe d801 cb3e bcb2 9c3e
00000390: 6967 89bf 1273 69bf 224b 99be 4183 173f
000003a0: 6e3c cbbc fa11 40be fb29 013e 1747 cebd
000003b0: 2a35 9ebc 0240 2a3e db5a ee3c f43e b43d
000003c0: bab8 16be 26cb 74bd ba7a ba3d 138c a9bf
000003d0: 5f4e 4cbf 200b 05bd 1619 ac3e 855a 213e
000003e0: 0388 1dbf 30fe 363f 135b 313f 0c37 ba3e
000003f0: 6d3a 69be 96d8 4f3d b815 9e3e 1dcd 8dbf

conv2.bias f4 [16]
0.1519758 0.1561638 0.059870947 -0.13006277 0.054438576 0.11390525 0.009124881 0.20974049
0.09246297 0.06379495 0.068868406 -0.042047042 0.01993602 0.037081886 -0.06689783 0.048023794
00000000: 8b9f 1b3e 67e9 1f3e 3d3b 753d 2d2f 05be
00000010: fcfa 5e3d 2847 e93d 8680 153c 36c6 563e
00000020: 3a5d bd3d eda6 823d e10a 8d3d 8539 2cbd
00000030: dd50 a33c 2de3 173d bb01 89bd 99b4 443d

conv3.weight f4 [64, 16, 3, 3]
0.07751302 -0.035967126 -0.19175093 -0.012152468 0.14321807 0.29146895 0.08757746 0.2294071
-0.049178258 0.037973028 -0.10519434 -0.23289779 -0.04145653 -0.023658877 -0.10955233 0.27926219
0.29741567 0.17453086 -0.2469799 -0.026147509 0.10169323 -0.2929092 -0.43398428 -0.18185093
0.05351572 0.026528304 0.06945392 -0.10519636 0.06970923 0.15290235 -0.5322955 -0.28706267
-0.3155991 -0.26215214 -0.024568506 0.092534035 -0.17961484 0.114449225 0.42157573 -0.40424293
-0.10679173 0.14994043 0.17067873 0.2783248 -0.07022971 0.039891705 -0.030570311 -0.06673597
-0.15883306 -0.12940753 0.017918004 0.22522457 0.01751378 -0.0805129 0.042227235 -0.073837966
-0.19249785 -0.03107212 -0.02322278 -0.11733673 0.2509178 0.29845622 0.17405948 -0.049827248
-0.15423463 -0.11636933 0.018453684 -0.18074773 -0.11576117 0.336934 0.08326367 -0.040091842
-0.04277946 -0.12926944 0.13766417 0.24271192 -0.16721204 -0.2423864 0.27605513 -0.028060852
-0.40956524 0.32954863 -0.1134913 -0.0035177493 0.18279049 0.021537313 0.010404931 0.03158974
0.08644617 0.11730585 0.104023695 0.10649885 0.1834409 0.009381924 0.1652286 0.20594989
-0.0023142733 -0.021022437 -0.119828 0.008206744 -0.13603948 -0.029052174 -0.19650486 -0.12565278
0.006067007 0.08788286 0.1658604 0.061261687 0.19020243 0.29803503 -0.068380415 0.06002894
0.16171314 0.2549145 -0.35526916 0.10191726 0.21744636 0.07702545 0.109117836 0.036650818
0.016926583 0.03537718 0.047674954 0.072816424 -0.11689826 -0.07007592 -0.03149438 0.00996095
-0.051793702 0.37268895 0.039631624 -0.044998854 0.31526136 -0.10969085 0.11263713 0.006272085
-0.009215985 0.17350629 -0.048340123 -0.016608352 -0.03334041 -0.04267632 -0.08888431 -0.23888236
0.23449108 0.098068 0.19181429 0.143271 0.30105343 0.17643473 -0.052216854 0.21398622
-0.02859733 -0.18459783 -0.04845093 -0.054240536 0.12755439 -0.11955762 -0.25875166 0.0742566
-0.09213798 -0.008429565 0.1955121 0.32253128 0.34964082 -0.054053765 -0.14059894 -0.22716363
-0.15124491 -0.06285811 -0.12149671 0.013700002 0.1533569 0.5064296 -0.15218173 -0.15293862
0.060336962 -0.0067312797 0.1265983 -0.1696343 0.19756924 0.2124021 0.57085687 0.1662169
0.23969756 0.4197482 0.11408592 0.29442027 0.009959956 -0.09149333 -0.08551276 0.104429685
-0.073854685 -0.030308973 -0.2691432 -0.077404 -0.032840747 -0.14551131 -0.1999596 -0.028032873
-0.13285832 -0.027555823 -0.042503513 -0.25713897 0.06828857 0.010311213 -0.0950206 0.039851367
0.03965719 0.14409344 0.29785258 0.05978915 -0.0047623664 0.302303 0.085194804 -0.13055395
0.18213315 0.122296795 0.2515765 0.037016746 0.09980816 0.10702346 0.21555534 0.04736586
-0.17293897 0.14335628 -0.550067 -0.7034504 -0.44101658 -0.20431018 -0.2900646 -0.49655807
0.045089472 0.13244705 -0.04545462 -0.099061154 -0.16257082 -0.060696002 0.013010154 -0.21654284
-0.16803902 -0.0032765127 -0.14817601 -0.020990675 0.0013157004 0.019488659 -0.11226282 -0.085060515
-0.2333178 -0.04031004 -0.027758826 0.036721174 -0.49895513 -0.3548228 -0.41523972 -0.3457895
00000000: 25bf 9e3d 4452 13bd 5b5a 44be 251b 47bc
00000010: c2a7 123e 6b3b 953e d05b b33d b2e9 6a3e
00000020: 246f 49bd 9b89 1b3d 2170 d7bd c27c 6ebe
00000030: 53ce 29bd 43d0 c1bc f95c e0bd 74fb 8e3e
00000040: de46 983e 38b8 323e 4de8 7cbe 4d33 d6bc
00000050: 8a44 d03d 32f8 95be 3033 debe 2137 3abe
00000060: 4d33 5b3d e351 d93c db3d 8e3d 3071 d7bd
00000070: b6c3 8e3d 6f92 1c3e 8544 08bf e1f9 92be
00000080: 3596 a1be ce38 86be e443 c9bc 7c82 bd3d
00000090: f4ec 37be 5b64 ea3d c6d8 d73e eef8 cebe
000000a0: 9fb5 dabd fc89 193e 68c6 2e3e 9780 8e3e
000000b0: 98d4 8fbd 7c65 233d 976e fabc deac 88bd
000000c0: 22a5 22be 6883 04be c7c8 923c 45a1 663e
000000d0: 0f79 8f3c f3e3 a4bd 77f6 2c3d 5c38 97bd
000000e0: 281e 45be f58a febc b33d bebc 3d4e f0bd
000000f0: 4c78 803e 41cf 983e a63c 323e a817 4cbd
00000100: afef 1dbe 0b53 eebd 2e2c 973c ef15 39be
00000110: 3114 edbd 9d82 ac3e 2586 aa3d 5837 24bd
00000120: 8439 2fbd 355f 04be d6f7 0c3e 7989 783e
00000130: a239 2bbe 2434 78be 1957 8d3e dfdf e5bc
00000140: 89b2 d1be 99ba a83e 206e e8bd 0a8a 66bb
00000150: 6e2d 3b3e 056f b03c 7279 2a3c 3e64 013d
00000160: b10a b13d 0d3e f03d 600a d53d 121c da3d
00000170: eed7 3b3e a4b6 193c b031 293e 87e4 523e
00000180: 10ab 17bb 3f37 acbc 6268 f5bd 9475 063c
00000190: ef4d 0bbe d3fe edbc 9238 49be 1fab 00be
000001a0: becd c63b eefb b33d 4fd7 293e 89ed 7a3d
000001b0: 6dc4 423e 0c98 983e 080b 8cbd e8e0 753d
000001c0: 2198 253e 2784 823e d7e5 b5be ffb9 d03d
000001d0: 42aa 5e3e 85bf 9d3d 2c79 df3d 2b1f 163d
000001e0: 9ea9 8a3c a9e7 103d d046 433d c720 953d
000001f0: 5b68 efbd f783 8fbd 4000 01bd 4133 233c
00000200: a225 54bd 16d1 be3e c554 223d b850 38bd
00000210: f069 a13e 99a5 e0bd 4cae e63d 1086 cd3b
00000220: a5fe 16bc a2ab 313e 4b00 46bd 3d0e 88bc
00000230: f48f 08bd 5dcd 2ebd fa08 b6bd 949d 74be
00000240: 6e1e 703e e0d7 c83d f76a 443e a2b5 123e
00000250: ad23 9a3e 4eab 343e 57e1 55bd 341f 5b3e
00000260: f344 eabc 3707 3dbe 7b74 46bd 532b 5ebd
00000270: 9e9d 023e a0da f4bd 197b 84be d813 983d
00000280: d6b2 bcbd 281c 0abc 5334 483e d222 a53e
00000290: 1f04 b33e 7b67 5dbd 2bf9 0fbe 959d 68be
000002a0: f2df 1abe c1bb 80bd 44d3 f8bd f975 603c
000002b0: 9709 1d3e 5fa5 013f 87d5 1bbe f19b 1cbe
000002c0: e423 773d 1192 dcbb fca2 013e 9db4 2dbe
000002d0: 974f 4a3e f07f 593e ad23 123f c334 2a3e
000002e0: 4773 753e 3ce9 d63e e1a5 e93d 41be 963e
000002f0: 152f 233c db60 bbbd 5021 afbd 3bdf d53d
00000300: 2041 97bd 864a f8bc 23cd 89be fd85 9ebd
00000310: 0584 06bd eb00 15be 36c2 4cbe 32a5 e5bc
00000320: 030c 08be c0bc e1bc 2a18 2ebd b8a7 83be
00000330: e1da 8b3d 5df0 283c 299a c2bd 303b 233d
00000340: 946f 223d 3b8d 133e 2280 983e 78e5 743d
00000350: a00d 9cbb 75c7 9a3e 9d7a ae3d efaf 05be
00000360: 1d81 3a3e be76 fa3d a3ce 803e df9e 173d
00000370: 3868 cc3d 1e2f db3d 8aba 5c3e b402 423d
00000380: ea16 31be fdcb 123e 31d1 0cbf 5315 34bf
00000390: edcc e1be b036 51be 5983 94be dc3c febe
000003a0: bdaf 383d 33a0 073e a02e 3abd 93e0 cabd
000003b0: f778 26be 5f9c 78bd 8a28 553c 68bd 5dbe
000003c0: 6c12 2cbe c3ba 56bb 74bb 17be a3f4 abbc
000003d0: 9473 ac3a aea6 9f3c 0dea e5bd 3534 aebd
000003e0: ddea 6ebe 241c 25bd 7a66 e3bc f168 163d
000003f0: 0c77 ffbe 56ab b5be 4d9a d4be 520b b1be

conv3.bias f4 [64]
0.15408345 -0.039981447 -0.063978106 0.1155176 -0.02279563 0.039271154 -0.005088892 -0.10227992
-0.19050935 0.030509723 -0.08899415 0.040925946 0.0117669795 0.001581962 -0.17459635 -0.18442817
0.088701494 0.13578816 0.03647787 -0.086225785 -0.09076348 0.10533182 0.025071355 0.1356218
-0.054475445 -0.15402102 -0.18405713 -0.107493676 -0.09788638 -0.10328095 0.06399807 -0.07285616
-0.084005736 0.038859237 -0.32825986 -0.066321656 0.08966071 0.230136 -0.101970285 0.013570049
0.103318386 0.08215351 -0.1549757 -0.13518955 0.10971273 -0.07261587 -0.119441286 -0.0969786
0.044488873 0.045588467 -0.16653645 0.09132816 0.11008438 0.03150973 -0.004210581 0.06401275
-0.13183075 0.008877979 0.09793153 -0.2488182 0.052188933 0.08117028 -0.050668057 0.042066094
00000000: 0dc8 1d3e 96c3 23bd f406 83bd 7e94 ec3d
00000010: e7bd babc cada 203d b8c0 a6bb 2278 d1bd
00000020: e214 43be 87ef f93c 9142 b6bd f7a1 273d
00000030: 4aca 403c d659 cf3a 63c9 32be bdda 3cbe
00000040: 21a9 b53d 0d0c 0b3e d269 153d 2597 b0bd
00000050: 34e2 b9bd 36b8 d73d 7162 cd3c 71e0 0a3e
00000060: a521 5fbd b0b7 1dbe 7979 3cbe a525 dcbd
00000070: a878 c8bd f684 d3bd 6c11 833d 9c35 95bd
00000080: 330b acbd dd2a 1f3d ad11 a8be a6d3 87bd
00000090: 09a0 b73d c6a8 6b3e ccd5 d0bd e954 5e3c
000000a0: 9798 d33d 1940 a83d f3b1 1ebe 216f 0abe
000000b0: 11b1 e03d a1b7 94bd a29d f4bd b79c c6bd
000000c0: f739 363d f9ba 3a3d 8888 2abe 420a bb3d
000000d0: eb73 e13d 5910 013d eaf8 89bb 1e19 833d
000000e0: a4fe 06be f174 113c 5390 c83d 33ca 7ebe
000000f0: 10c4 553d 9b3c a63d 4f89 4fbd 7f4d 2c3d

fc.weight f4 [10, 64]
0.30493334 0.5851613 0.12003712 0.29345426 -0.1623437 0.32812035 -0.24888605 0.07898509
-0.25417235 0.046678163 -0.058725525 0.1523612 -0.19176522 0.10882133 -0.6036664 0.06949376
0.06557154 -1.0754322 -0.02460715 -0.38604462 0.2917266 0.14157848 -0.31967685 0.022960147
0.07277153 -0.33853805 -0.36562905 -0.110732384 -0.14694846 -0.4874532 0.06946605 0.3180743
0.35726973 0.5314059 -0.5748049 -0.14213026 0.18839426 0.09321584 -0.1849903 0.16677645
0.34188503 -0.17320198 0.30945405 -0.24115354 0.3036341 0.02039652 0.081654795 0.030584382
0.104594745 0.4497354 -0.5127542 -0.204035 -0.11772585 0.108683355 -0.114720926 -0.10723695
-0.4975211 -0.3687854 0.093905926 -0.3832436 -0.13734464 0.251807 0.062372256 -0.15783393
-0.07384694 0.13893364 -0.89958835 -0.10601921 0.08300438 0.051500697 0.2623486 -0.058605175
-0.015944475 0.22954538 -0.04885025 -0.09318406 -0.10967961 -0.28241482 0.022442872 -0.24929255
0.21588646 0.3214844 -0.29330635 0.0060770917 -0.40900293 -0.24016476 0.15709183 0.23136339
-0.20457911 0.05478057 0.118543975 -0.15193948 0.09464709 0.27966106 -0.24133942 -0.87740546
0.06301083 0.13854766 -0.09049282 -0.0797419 -0.5586898 0.38717923 0.14922045 -0.4914674
-0.27170888 0.49731138 -0.16888037 0.43727645 -0.25637776 0.07394714 -0.46205807 -0.07073196
-0.22361478 0.07410746 0.29654285 0.29728568 -0.32155648 -0.028800506 0.007332851 0.21641688
-0.48294616 -0.18772629 -0.53441846 -0.3031971 -0.663809 0.18792883 0.093399346 0.27900708
-0.009631402 -0.10714002 0.23305896 0.087412134 -0.14868064 -0.523721 -0.4439779 0.02351805
-0.47499657 0.088119075 -0.11906748 0.36976004 0.021876348 0.04866006 0.048642732 0.15941463
0.52176106 -0.29856038 -0.123644106 0.46585226 0.25927913 -0.12911049 0.20672412 -0.2082969
0.05894182 -0.1030426 0.14642479 -0.46298635 -0.46476144 0.25310102 0.1352134 -0.26908416
0.38059244 -0.2936369 -0.31403372 0.15579177 0.2939685 -0.5742576 0.537419 0.2503959
-0.8140266 -0.4782781 0.07342154 -0.03601716 0.04661071 0.027180545 0.29404423 0.47478616
-0.10541274 0.14274925 0.16438365 -0.4325122 0.19113927 0.25816315 0.013577971 -0.003679198
-0.18973444 -0.28176907 -0.27658248 -0.14946042 -0.022693308 0.14502102 0.047711767 -0.30096406
-0.040239595 -0.37122744 -0.024508463 0.110063106 -0.38279566 -0.1773613 0.15008038 0.01851587
0.4711229 -0.7216462 -0.0013627977 -0.8976294 -0.2203276 -0.16400833 0.3382797 -0.82119256
0.10677012 -0.27726194 0.16095951 -0.16471201 0.108308755 -0.09752305 0.32136312 -0.48255125
0.23180564 0.08399347 0.08453889 0.23544303 0.09170362 -0.036600053 0.034282688 0.33241597
0.126923 -0.02564924 0.020920018 0.2898028 -0.16296613 -0.46033508 0.32775852 -0.713587
0.47245196 -0.5431771 -0.22096074 0.16599746 0.015401945 0.053743422 -0.4473261 -0.18640108
0.46829733 0.34306964 0.11628322 -0.58816266 -0.67695755 -0.31228018 0.06548419 -0.04833219
0.129354 0.358502 0.020159828 0.08821462 -0.105707005 -0.8779669 0.1791055 -0.4440199
00000000: 3920 9c3e 22cd 153f 06d6 f53d a33f 963e
00000010: 6d3d 26be 64ff a73e fcdb 7ebe efc2 a13d
00000020: e122 82be 9a31 3f3d 2d8a 70bd 9304 1c3e
00000030: 1a5e 44be b8dd de3d e289 1abf bf52 8e3d
00000040: 5f4a 863d c3a7 89bf ef94 c9bc a4a7 c5be
00000050: 305d 953e f3f9 103e afac a3be eb16 bc3c
00000060: 3d09 953d dc54 adbe bb33 bbbe a9c7 e2bd
00000070: a879 16be 7793 f9be 3744 8e3d a2da a23e
00000080: 0fec b63e 380a 083f 6a26 13bf 988a 11be
00000090: 6dea 403e f2e7 be3d 196e 3dbe 72c7 2a3e
000000a0: 8e0b af3e dc5b 31be c370 9e3e f4f0 76be
000000b0: ee75 9b3e 9a16 a73c a13a a73d 198c fa3c
000000c0: c535 d63d b843 e63e dc43 03bf 8dee 50be
000000d0: 401a f1bd 6195 de3d cef2 eabd 0c9f dbbd
000000e0: 16bb febe 71d1 bcbe c051 c03d 8138 c4be
000000f0: 13a4 0cbe d9ec 803e 0d7a 7f3d 389f 21be
00000100: 113d 97bd 9f44 0e3e 6c4b 66bf 9920 d9bd
00000110: 33fe a93d 65f2 523d 8e52 863e fb0b 70bd
00000120: fd9d 82bc f20d 6b3e 3317 48bd 49d7 bebd
00000130: b49f e0bd ad98 90be 1dda b73c 8c46 7fbe
00000140: 5711 5d3e 9a99 a43e 402c 96be 5722 c73b
00000150: d568 d1be c0ed 75be aedc 203e 86ea 6c3e
00000160: 307d 51be 9761 603d 2fc7 f23d 0696 1bbe
00000170: 55d6 c13d bc2f 8f3e ae21 77be a59d 60bf
00000180: d20b 813d 70df 0d3e 4d54 b9bd b94f a3bd
00000190: 4b06 0fbf 5b3c c63e 3fcd 183e 9da1 fbbe
000001a0: 6d1d 8bbe 999f fe3e faee 2cbe b3e2 df3e
000001b0: f243 83be 9971 973d e092 ecbe ebdb 90bd
000001c0: 46fb 64be a7c5 973d 77d4 973e d435 983e
000001d0: 0da3 a4be 0aef ebbc 6a48 f03b 639c 5d3e
000001e0: b844 f7be 523b 40be a6cf 08bf a63c 9bbe
000001f0: 63ef 29bf 6a70 403e 2848 bf3d 04da 8e3e
00000200: 07cd 1dbc 3a6c dbbd 02a7 6e3e 2205 b33d
00000210: bd3f 18be 9412 06bf 1251 e3be eda8 c03c
00000220: c032 f3be c677 b43d a7d9 f3bd 3051 bd3e
00000230: 0736 b33c c54f 473d 9a3d 473d 973d 233e
00000240: 2292 053f e8dc 98be 1f39 fdbd 3084 ee3e
00000250: 3cc0 843e 8a35 04be 7daf 533e c84b 55be
00000260: fa6c 713d 0008 d3bd 61f0 153e 8c0c edbe
00000270: 36f5 edbe 7596 813e 6275 0a3e 66c5 89be
00000280: 03dd c23e 9357 96be 07c9 a0be e187 1f3e
00000290: 0a83 963e 8c02 13bf 4b94 093f e433 803e
000002a0: 0c64 50bf dee0 f4be 085e 963d bb86 13bd
000002b0: dfea 3e3d bca9 de3c f78c 963e 2c17 f33e
000002c0: a2e2 d7bd dc2c 123e 3054 283e 3d72 ddbe
000002d0: 03ba 433e f62d 843e 2376 5e3c b31e 71bb
000002e0: bf49 42be 0944 90be 389c 8dbe 270c 19be
000002f0: 51e7 b9bc 6480 143e 6a6d 433d f617 9abe
00000300: 46d2 24bd 8611 bebe f9c5 c8bc c468 e13d
00000310: cbfd c3be 339e 35be acae 193e 98ae 973c
00000320: 0537 f13e cebd 38bf e79f b2ba 0acb 65bf
00000330: 8f9d 61be cdf1 27be ff32 ad3e ad39 52bf
00000340: 4baa da3d 47f5 8dbe 92d2 243e 44aa 28be
00000350: fbd0 dd3d 2aba c7bd b589 a43e f510 f7be
00000360: 755e 6d3e c504 ac3d ba22 ad3d fa17 713e
00000370: 1ccf bb3d f0e9 15bd 016c 0c3d 6d32 aa3e
00000380: 1af8 013e 5b1e d2bc 7560 ab3c 0861 943e
00000390: 98e0 26be 0ab1 ebbe f7cf a73e a3ad 36bf
000003a0: 39e5 f13e a80d 0bbf 8843 62be 3dfb 293e
000003b0: 7158 7c3c 1022 5c3d ed07 e5be eddf 3ebe
000003c0: abc4 ef3e d3a6 af3e e625 ee3d d491 16bf
000003d0: 174d 2dbf 30e3 9fbe 931c 863d f9f7 45bd
000003e0: 6075 043e 938d b73e 3926 a53c dea9 b43d
000003f0: ea7c d8bd 70c2 60bf 6f67 373e 9456 e3be

fc.bias f4 [10]
0.12975329 -0.092137285 -0.30447188 0.14895076 -0.020701395 -0.24003425 -0.030476222 0.08269318
0.2737946 -0.08236754
00000000: 0cde 043e 79b2 bcbd bde3 9bbe 8c86 183e
00000010: f995 a9bc 8acb 75be 45a9 f9bc 0b5b a93d
00000020: ce2e 8c3e 50b0 a8bd
