logs/2019-12-03T22:52:33.058070_model_ConvNetSimple_dataset_MNIST_subset_1.0_bs_64_name_Adam_lr_0.001/epoch_0038-model-val_accuracy_99.23409923409923.pth (torch_old, 179344 bytes, 10 tensors)

conv1.weight f4 [6, 1, 5, 5]
000000 7a 23 2c 3e 9f d1 d4 3c 73 9d b1 bd e9 35 3c bd
       0.16810408 0.025978861 -0.08672609 -0.04594985
000010 55 fe 8a bd fb bb 0f bd 3f 7b f6 3d 33 df 6b 3e
       -0.06786791 -0.03509138 0.12035226 0.23034362
000020 d3 4a c0 3e f8 1d a4 3d 92 5c 92 3e 50 20 9b 3e
       0.37557086 0.080135286 0.2858625 0.3029809
000030 0d c4 9e 3e 53 28 91 3e 37 51 8c 3e 83 c6 81 be
       0.3100895 0.28351077 0.27405712 -0.25346765
000040 89 6e 89 bc 4e 64 80 be 24 18 a0 be 63 fd 8c bd
       -0.01677634 -0.25076526 -0.31268418 -0.06884267
000050 b8 a1 a0 be e3 ad 8e be d0 d3 9a be b8 73 8b bd
       -0.31373382 -0.2786704 -0.30239725 -0.06809181
000060 86 e6 6f be 2e 04 a2 3d 90 c6 b1 be 66 a5 b9 be
       -0.23427781 0.079109535 -0.34721804 -0.36259001
000070 a2 a8 43 3b a8 c4 15 be d6 08 ae 3e 3a 16 af be
       0.0029855152 -0.146258 0.33991116 -0.34196645
000080 b2 63 9f be 2f e2 8e be 40 2d a2 be 0b 4b b8 3e
       -0.3113075 -0.2790694 -0.31675148 0.35994753
000090 f6 bd f2 3e 60 25 9b 3e a0 52 54 bc d2 41 cc 3b
       0.47410554 0.30301952 -0.012959152 0.0062334323
0000a0 ba 67 cb 3c d0 f0 5e 3e de 13 b7 3e 58 86 5f 3e
       0.024829734 0.2177155 0.35757345 0.21828592
0000b0 10 55 39 3e 39 b1 80 be 58 b5 c9 3b 60 72 ff bc
       0.18098855 -0.2513521 0.006155651 -0.031182468
0000c0 d2 7f 87 bd 0d 24 33 bd b1 a5 c1 bd c6 3e a2 3c
       -0.06616177 -0.043735553 -0.09455431 0.019805323
0000d0 1e 88 91 bd 12 83 3b 3e f0 36 63 3d b4 ec e6 3d
       -0.071060404 0.18311718 0.055472314 0.11275616
0000e0 3a 17 1a 3e d7 94 3d 3e 67 7d f5 3d c5 a4 79 be
       0.15047923 0.18513809 0.11986809 -0.24379261
0000f0 87 40 c8 3c fc 1f c6 3e 50 53 a7 3e 85 b0 a4 be
       0.024444832 0.38696277 0.3268075 -0.32165924
000100 58 03 2d be ff 47 c9 bd 77 89 0b 3f 14 36 80 3c
       -0.16895807 -0.09828185 0.5450663 0.015650786
000110 f7 90 a9 be ad 8f 80 be 70 b4 15 3b 21 a0 b0 3e
       -0.33118412 -0.25109616 0.0022843145 0.3449717
000120 df ea 8d 3e cd be 73 be ee be 9b be f1 3e 7e be
       0.27718255 -0.23803253 -0.30419105 -0.24828698
000130 02 19 83 be 4d 6c 47 3e 06 8d 90 3d 0e e9 44 3e
       -0.25605017 0.19474907 0.07058148 0.19229528
000140 63 9d 53 be a3 4f c6 bd 96 eb 6c 3e fd c3 92 3c
       -0.20665507 -0.09683158 0.23136744 0.01791572
000150 57 2c 6b 3e 86 69 80 be da 4f 90 3d 94 96 0a 3e
       0.22966133 -0.25080508 0.070464805 0.13534003
000160 b1 4d 13 3e 2c 5f 6a 3d 9f d1 d3 bc 78 bc 45 3d
       0.14385106 0.05721967 -0.025856791 0.04827544
000170 d2 71 01 3f 9f 39 c5 3d e0 08 aa be f5 34 66 be
       0.505643 0.09630131 -0.33209896 -0.22481139
000180 45 af 3b 3e de 07 9b bd e4 43 85 be a4 30 1b be
       0.18328579 -0.0756986 -0.2602836 -0.15155274
000190 22 a1 0a be 8e 70 99 3d 80 e7 03 3e 1c 86 a3 3d
       -0.1353803 0.07492171 0.12881279 0.07984564
0001a0 fb 04 93 3d 0f a5 e2 bd 07 14 1c be da 65 0a be
       0.07178684 -0.11066639 -0.15242015 -0.13515416
0001b0 40 4c 88 bd 01 77 55 bd a9 40 50 3e 3a dd 30 bd
       -0.066551685 -0.052115444 0.20337166 -0.043179728
0001c0 e9 06 04 bd 57 1b 36 be b0 cf 39 be 23 a8 59 3d
       -0.032233153 -0.17783867 -0.18145633 0.053138863
0001d0 c9 7b d5 3d e3 77 8a bd 84 b0 48 bd d5 f4 25 be
       0.10424001 -0.06761148 -0.048996463 -0.16206677
0001e0 e7 6a b9 3c d2 93 56 bd e2 8b c8 3c a9 4d 7d bd
       0.022633983 -0.052387066 0.024480764 -0.06184164
0001f0 f0 6a de 3c f6 c9 81 bd 64 13 ac 3d 2f 60 97 bd
       0.027150601 -0.06337349 0.08402136 -0.073913924
000200 0d 83 2e 3d be 22 c4 bd 44 a4 91 3e 00 b2 24 be
       0.04260545 -0.09576939 0.28445637 -0.16083527
000210 2b b3 fc be 51 b4 90 bc 26 a6 8c 3c 6f 4a 83 be
       -0.49355444 -0.017664107 0.01716907 -0.25642726
000220 89 ce 17 bf 26 ab a6 be e7 32 91 3e 67 5f 36 3e
       -0.5929952 -0.3255245 0.28359148 0.1780983
000230 61 11 02 be 96 cc 56 be b6 72 ea 3e a7 62 95 3e
       -0.12701942 -0.20976481 0.45790642 0.29176828
000240 cd cb 25 bd 10 4e 43 3e 0a e4 18 3f 6f eb cd 3e
       -0.040477563 0.19072747 0.5972296 0.40218684
000250 7b 6e 6d bc 4d c0 a8 be
       -0.014491673 -0.32959214

conv1.bias f4 [6]
000000 9f f2 fc bd e1 2c 19 be 8f 11 4f bd 34 d2 b4 be
       -0.12350964 -0.14958526 -0.050553855 -0.35316622
000010 9a 0a 92 be e8 e4 98 be
       -0.28523713 -0.29862142

conv2.weight f4 [16, 6, 5, 5]
000000 55 d4 3d 3e e5 fb 33 3e 0c a2 4e 3e 4c 88 b3 3d
       0.1853803 0.17576559 0.20179003 0.08766231
000010 1e d5 5f 3e 1e b0 44 be 24 c9 80 be ce 2b 09 be
       0.21858642 -0.19207808 -0.25153458 -0.13395616
000020 94 52 9f 3d 0f bb 19 3c e0 cc 18 be 14 8a aa bd
       0.077794224 0.009382977 -0.14921904 -0.083271176
000030 88 99 b2 3c e6 9e 99 bb 3b 7d cc bd 50 ff 88 3d
       0.021801725 -0.0046881316 -0.09984823 0.06689322
000040 e9 7b 12 3e 03 8f e4 3c a1 44 9a 3d 2e 8b 83 be
       0.1430508 0.027900225 0.07532621 -0.25692123
000050 d8 f9 33 3e 43 ef 7d 3d 88 78 8e bd 4b b7 93 be
       0.17575777 0.061995756 -0.06956583 -0.2885078
000060 b7 42 8e be 47 20 31 3e 85 b5 9d 3d 33 1d bb 3d
       -0.27785274 0.17297469 0.07700638 0.09136429
000070 e7 46 02 bd b8 2a 88 3e 6e 84 58 3e 73 0a 39 3a
       -0.0318059 0.26595092 0.21144268 0.0007058747
000080 6f 71 d8 bd 18 a3 61 be 46 6e df bd 5e 58 07 3d
       -0.10568511 -0.22034872 -0.10909705 0.033043258
000090 3f f3 6c 3e 15 36 9c 3e f1 2b 02 3d d3 fe 9d 3d
       0.23139666 0.3051001 0.031780187 0.077146195
0000a0 eb 3c c4 bc f9 41 97 3d cf 68 89 3d 75 5b 20 3e
       -0.02395483 0.0738563 0.06709444 0.15659888
0000b0 1a 8d 2c be e3 86 23 3e b7 80 8f bc ae 4a 19 3e
       -0.16850701 0.15969424 -0.01751743 0.14969894
0000c0 4f aa 20 3e 2f 0f 8f 3d f7 a7 a4 3e 26 2e b3 3d
       0.15689968 0.06985318 0.32159397 0.087490365
0000d0 c7 7d 62 bd 3e 30 cf 3d ac dd e2 3d b6 7d 9c 3e
       -0.055295732 0.10116623 0.11077437 0.3056466
0000e0 93 86 42 bc 12 2a b2 bd 2d 07 32 bc 55 de 14 3e
       -0.011872905 -0.086994305 -0.010865969 0.14537938
0000f0 4f f9 f7 3d 91 93 5c 3d 91 ef 1b 3e 70 6b 36 be
       0.12108099 0.053851668 0.15228106 -0.17814422
000100 da 3d 8f 3c 75 e4 fa 3d 0d 05 d7 3d 85 29 41 3e
       0.017485548 0.12250606 0.1049901 0.18863495
000110 8e 47 02 3d 79 1e bd 3b 39 31 35 3d 54 42 93 3e
       0.03180652 0.005771455 0.044236396 0.28761542
000120 79 cd 39 3e f7 ac 4a 3e f2 e8 0d be 10 85 e5 3d
       0.18144788 0.19792543 -0.13858393 0.1120702
000130 65 3d 7c be 3b 57 01 3d b0 30 7b 3e 0f 4c 09 bc
       -0.24632795 0.03157733 0.24530292 -0.00837995
000140 9c e7 a0 be 5c 22 e1 be bb 77 99 be 4b 50 d4 3d
       -0.31426704 -0.43971527 -0.2997416 0.10366877
000150 09 a3 5b be 17 41 d5 be 2c 65 fc be 76 a4 19 bf
       -0.21448912 -0.41651222 -0.49295938 -0.6001657
000160 17 39 92 bd 1f 66 b3 be 3a b3 4c bc 19 27 16 be
       -0.07139795 -0.3503885 -0.012493903 -0.14663352
000170 c5 a3 d7 be 2c ae 0b be d0 33 1e bf 46 3f 1c bd
       -0.42117134 -0.1364066 -0.6179781 -0.03814628
000180 cc cf 9e be 61 a2 50 be a2 7d 0a be 20 80 97 b9
       -0.3101791 -0.20374443 -0.13524488 -0.00028896425
000190 f5 03 9a bd d8 34 9e bd 82 e2 8d 3d 14 c7 f5 bc
       -0.07520286 -0.07724923 0.069279686 -0.030002154
0001a0 73 60 07 3d 72 d4 35 be 1d 7d 18 3e 4c dd ae b9
       0.033050966 -0.17756823 0.14891477 -0.00033352745
0001b0 9d 07 56 3d 0e b1 b9 3d 52 49 0a be 5c a8 e5 bc
       0.052253354 0.090669736 -0.13504532 -0.028034382
0001c0 cf 71 09 3d 1c ea 71 bd 9c e1 93 3d 15 6d 0e be
       0.033555802 -0.059061155 0.07220766 -0.13908799
0001d0 c1 89 41 bd 91 8d d1 3d 31 65 b5 3d 1e 27 4b bd
       -0.047250513 0.1023208 0.08857191 -0.049597852
0001e0 3d 7e 05 be de 3e e3 3c e3 27 2a 3d b8 13 74 bd
       -0.13036437 0.027739938 0.041541945 -0.059589118
0001f0 26 4f e6 bd cf 7f 91 bd 2e 58 90 be 76 76 a5 be
       -0.11245565 -0.07104456 -0.28192276 -0.3231694
000200 d4 8e 6a be 12 28 0e bf d5 9c 30 bf 9f 9e f1 be
       -0.22906047 -0.5552989 -0.68989307 -0.4719133
000210 d6 4b 6d be 5e 3a 3c 3d a4 5f 9b bd 46 68 3d bf
       -0.2317346 0.0459541 -0.075866014 -0.73987234
000220 06 58 df be ff bf 79 be df bd 8e 3c 58 5c f9 be
       -0.43621844 -0.24389647 0.017424522 -0.48703265
000230 b8 e8 bd be 7d 04 d3 be 77 c3 71 be 0a 30 67 bd
       -0.37091613 -0.41214362 -0.2360972 -0.056442298
000240 88 ea 25 3e a9 3c 89 be 51 18 ea bd 8e 91 9a bb
       0.16202748 -0.26804093 -0.11430419 -0.0047170585
000250 84 ff f9 3d 3a a8 c0 3e ce 1e 35 bd ce 9b 05 3e
       0.12206939 0.37628347 -0.04421883 0.13047716
000260 9a 92 3a 3e e1 8f 54 3e 0a b5 a7 be ee fa c3 3c
       0.18219987 0.2075801 -0.3275531 0.023923364
000270 13 58 0e 3e 2e b8 78 3e 23 e2 90 bd 9b ca 0a be
       0.13900785 0.24289009 -0.07074382 -0.1355385
000280 b3 61 b5 3e 1a 40 94 3e 94 d6 d7 bd bb 58 26 be
       0.354261 0.28955156 -0.105389744 -0.16244785
000290 c8 c9 de bd 5f 28 0c 3e 08 27 f1 bd f9 b0 1d bd
       -0.108783305 0.13687275 -0.11775023 -0.038498852
0002a0 a0 12 cd bc 9b ba 52 3d 87 4f 92 bd 0c 22 8a bc
       -0.025033295 0.051447492 -0.07144075 -0.016861938
0002b0 97 0f 7e 3d 0f a0 a5 3d b2 3e 02 3d 4e 79 a1 bc
       0.062026586 0.080871694 0.031798072 -0.019711163
0002c0 6e b6 c0 3d fa b5 11 3d 60 ca 41 3e d1 a4 a3 3d
       0.09409796 0.035573937 0.18924856 0.079904206
0002d0 a8 f1 84 3d f8 50 5c 3e c1 76 9c 3d 4a 39 5a 3e
       0.06491405 0.21515262 0.07639838 0.21310917
0002e0 a5 c5 e3 bb 28 28 85 3e 31 b3 9d 3d 92 3a fb bd
       -0.0069510513 0.260072 0.07700194 -0.12267031
0002f0 31 fb 83 be a6 30 04 be 0b 78 da 3d 80 b6 eb bd
       -0.2577758 -0.12909183 0.10667428 -0.115094185
000300 9c f6 d7 be 1f 04 ec be 59 3a 39 be 4f ab c9 3c
       -0.42180336 -0.46096894 -0.18088664 0.02461782
000310 9f 3d 18 be 6e 73 5b be 57 84 6b bd c8 ad c4 3d
       -0.14867257 -0.21430752 -0.057499256 0.09603459
000320 84 5f a5 be ba d9 df bd 78 a3 8a 3a 9c 4d 89 bd
       -0.32299435 -0.109302 0.0010577282 -0.06704256
000330 c2 17 7b bd 33 bd bb be 30 8f 16 bf ed 63 c2 be
       -0.061301954 -0.36667785 -0.58812237 -0.37966862
000340 0b 6a c0 3c a6 40 7d 3e f4 60 2e bf 3d 91 06 bf
       0.023488065 0.24731693 -0.6811669 -0.52565366
000350 66 ca 3c be 90 de 62 3e 2e b4 f7 3d eb 59 15 bf
       -0.18436584 0.22155213 0.120949134 -0.5834033
000360 e1 c4 9d be 37 85 34 3e be 80 59 3e 15 5c 98 bd
       -0.3081427 0.17628942 0.21240517 -0.07439438
000370 75 8e 38 be bd 77 bc 3d 5d ab 88 3e ef f7 b9 bd
       -0.18023093 0.09202526 0.2669324 -0.09080493
000380 ab 35 0b bd 0c 80 42 be 6d 64 87 3d f2 61 12 3e
       -0.03398673 -0.18994159 0.066109516 0.14295176
000390 61 f5 9d be e0 fd 08 be f0 e2 80 bc b5 f6 e7 3d
       -0.30851272 -0.13378096 -0.015733212 0.113263525
0003a0 5a 25 22 be 3c 3a 23 3c fe 0f 30 be 16 87 81 3e
       -0.15834561 0.009962615 -0.171936 0.25298375
0003b0 5d 25 7a be 49 a4 ee 3c 74 39 36 3e ab 14 e7 3b
       -0.24428315 0.029131072 0.17795354 0.0070520244
0003c0 66 18 23 be 5e 6a de bc a4 a1 5e 3e 72 20 8a 3e
       -0.15927276 -0.02715033 0.21741349 0.2697788
0003d0 49 c7 6a bd 1b 79 79 3e 98 3b 02 3e 9b ec b7 3d
       -0.05731896 0.24362604 0.12718046 0.08980676
0003e0 cc 9f 4a be ed a8 34 be cb 43 d9 bd 5c 94 fe bd
       -0.1978752 -0.17642565 -0.106086336 -0.12430641
0003f0 ed 75 b8 bd a7 0b b9 bd d4 f0 0c be 52 0d 67 bd
       -0.090068676 -0.09035426 -0.13763744 -0.056409188

conv2.bias f4 [16]
000000 a9 5b ad 3d a4 fe e1 bd ab c1 ca bd ec ea f0 bc
       0.084647484 -0.11034897 -0.099002205 -0.029408894
000010 a8 5a 34 bd 07 f4 50 bd 90 eb d7 3d 73 4a b0 bd
       -0.04403177 -0.051013973 0.10542977 -0.0860795
000020 2f 3f 9b bd ef a6 dd bc 71 92 04 be b1 a2 6e bd
       -0.07580411 -0.02705714 -0.12946488 -0.058260623
000030 07 30 90 3d bb 83 89 bd 9c 01 89 3b fb 7b f7 3c
       0.070404105 -0.06714579 0.0041811 0.030210486

fc1.weight f4 [120, 256]
000000 90 8e 4e 3c 75 1d 8d 3e 63 95 4b 3e 8b 6a 89 bd
       0.012607232 0.27561536 0.19881205 -0.067097746
000010 1b 67 17 3e ae 71 8d 3e 80 c1 a5 3b e6 7c 31 3e
       0.14785425 0.27625793 0.0050584674 0.17332801
000020 13 6f 85 be 2c 09 be 3d d6 54 1a bd 8d e0 60 be
       -0.26061305 0.09279093 -0.037678562 -0.2196066
000030 0d 0a 65 3d c2 1f 41 bf df e8 83 3c 7d 7a 1e ba
       0.05591779 -0.75439084 0.016102253 -0.0006045474
000040 c4 4f 20 3e 22 af 36 3e 23 2b 61 bd 32 08 b2 bc
       0.15655428 0.17840245 -0.05497278 -0.021732423
000050 58 d5 18 3d bf cc 0a 3e e3 7c 27 3d 2f 09 02 3d
       0.037312835 0.13554667 0.040890586 0.03174704
000060 1b 3c 0a be 25 9f ed 3d 45 b3 ee 3d 3a fa 91 bd
       -0.13499491 0.1160262 0.11655287 -0.07127805
000070 2e ba 62 bd 1a 22 96 bd 4c ce 0f be 63 86 e8 be
       -0.055353336 -0.07330723 -0.1404354 -0.4541503
000080 00 a8 f1 bc 81 6d 0b 3d 17 9e c3 bd ad c4 e3 be
       -0.029499054 0.034039978 -0.095516376 -0.4448599
000090 69 21 12 be dd 2a e1 bd 29 8c 3b 3e 89 ea 53 3e
       -0.14270557 -0.10994504 0.18315186 0.20694937
0000a0 90 c8 1a 3e 6e 3d 1c 3d 00 81 21 3d 14 d4 bd 3e
       0.15115571 0.03814452 0.039429665 0.37075865
0000b0 b0 e7 56 3d a8 f7 0f 3e e0 b6 3a 3c d0 da 35 3b
       0.05246705 0.14059317 0.01139614 0.002774883
0000c0 2d 06 cd 3c 88 8e a3 be 2a 16 2f be 2b a6 af bd
       0.025027359 -0.3194468 -0.17098299 -0.08576616
0000d0 d9 82 8a be 39 55 27 bd 3d c1 af 3e d5 a7 58 bb
       -0.27052954 -0.04085276 0.34327117 -0.003305902
0000e0 46 ef 19 bd f8 09 c2 ba 9d 90 55 3d c7 17 33 bd
       -0.037581705 -0.0014803996 0.052139867 -0.043723848
0000f0 cb fd 37 3e 1c 2b 47 3e 1f 03 4b 3a 20 70 23 be
       0.17967908 0.19450039 0.00077443005 -0.15960741
000100 53 0e 97 3e 07 e8 66 3d 31 64 97 3e fc 4e 91 3d
       0.29503116 0.056373622 0.29568627 0.07095143
000110 8b 3a 42 3d 25 fc 0b bd 90 1f 8b 3d 27 fe 2c bd
       0.047419112 -0.03417601 0.067931294 -0.042234566
000120 58 33 84 3d 1a 4c cd bd 47 d0 d9 3d 9f 53 af bd
       0.064551055 -0.10024281 0.10635429 -0.08560871
000130 19 cd 6c 3d 7a 15 3b 3d 5b 11 86 3d ca 83 92 be
       0.057812784 0.04567478 0.06546279 -0.28616172
000140 bc 4a 20 bc b0 d0 4f bd 4f 27 b5 be ed 79 a6 bd
       -0.009783443 -0.05073613 -0.35381553 -0.08128724
000150 e5 c1 51 be a9 33 6b be ca 19 50 3b be 05 44 3e
       -0.20484121 -0.22968926 0.0031753653 0.19142815
000160 ce 26 df bd 33 01 ff 3c f3 ba 54 be 96 14 4b 3d
       -0.10896073 0.031128502 -0.2077444 0.04958018
000170 63 19 2f be cf 9b 17 be 30 27 38 be 5b ea d4 3d
       -0.17099528 -0.1480553 -0.17983699 0.10396262
000180 1d 5f cb bd 5f 2f 1c be dd fa 9b be 96 a9 47 3e
       -0.09930251 -0.15252446 -0.3046483 0.19498286
000190 0e f5 55 3e 71 29 04 3f 13 1c a1 be 8b 3d 66 be
       0.20894262 0.51625735 -0.3146673 -0.22484414
0001a0 8a 8a 9a 3e 57 31 5d 3e 5d 42 e6 3b cf b8 b2 bc
       0.30183822 0.21600853 0.007026954 -0.02181664
0001b0 eb b6 04 3e 0b 6b a8 3b a3 81 74 3d f1 35 0f bd
       0.12960403 0.0051397136 0.059693944 -0.034963552
0001c0 52 be df 3d 41 f9 09 3e bc af 54 3d 47 4d 95 bd
       0.109249726 0.13473989 0.051925406 -0.0729013
0001d0 bf 4a e9 be c3 f6 fb bd 7e 81 40 3d 84 c1 47 3c
       -0.4556484 -0.123029254 0.046998493 0.012192134
0001e0 94 bf da bd a5 99 b9 be 20 fe 12 be 33 e7 0f 3e
       -0.10681072 -0.36250034 -0.14354753 0.14053039
0001f0 f3 21 f9 bd 2c 99 1f bc b4 91 90 3c c5 da 04 be
       -0.121646784 -0.009741109 0.017647602 -0.12974079
000200 86 e0 64 3d 1d 65 fa 3d fd 39 de 3d 06 10 8b 3e
       0.055878185 0.12226317 0.10850904 0.27160662
000210 58 bd 6e 3c 6c 88 99 3d ee 4d ca 3e 02 0e 8a 3d
       0.01457151 0.074967235 0.3951258 0.06740953
000220 5d 3a d4 3d df 52 1a bd 07 ce 0f 3e c7 5b 06 3e
       0.103626944 -0.03767669 0.14043437 0.13120948
000230 82 8f 82 be c8 cb f8 be fc 44 af be f3 b4 b0 3d
       -0.25500113 -0.48592973 -0.34232318 0.08628263
000240 05 3c a3 3d b3 40 bf 3e fc 93 06 3e 01 9c 65 3e
       0.07970432 0.3735405 0.13142389 0.22422792
000250 97 09 b4 3d 42 19 05 be 47 f5 af bd d4 3e b3 3d
       0.087908916 -0.12997916 -0.08591705 0.08752218
000260 d5 a9 c2 3c b3 22 bc be 90 41 e3 be 19 2a 31 3d
       0.023762623 -0.36745223 -0.44385958 0.043253038
000270 0d 8a 0b 3e 0a 9c 21 be 3d 9c 0c 3e 76 41 ea 3d
       0.13626881 -0.1578218 0.13731475 0.11438267
000280 ae fd cc bd c4 43 44 bc 79 78 93 3d 24 cd ae 3d
       -0.10009323 -0.011979047 0.07200713 0.08535221
000290 02 43 49 3e 84 b7 a9 3e 5b 3e 6f be 5d f9 61 be
       0.19654468 0.33147824 -0.2336363 -0.22067781
0002a0 7b b3 8a bc 26 1b e0 bd f4 ad f3 bd 68 29 37 bd
       -0.016931286 -0.10942678 -0.11898413 -0.044717222
0002b0 8f 6c fb bb dc 72 d4 bd 6e a1 89 bd 27 14 20 3e
       -0.0076728533 -0.1037347 -0.067202434 0.15632688
0002c0 17 cd 48 3e 70 5c 36 3e 18 08 d3 bd 61 bc ca bd
       0.19609486 0.178087 -0.10304278 -0.09899212
0002d0 a7 6f 12 3e 18 3b a2 3b 65 64 b0 bd 1e 7c 65 be
       0.14300404 0.004950892 -0.08612899 -0.22410628
0002e0 40 59 72 3e e8 e6 28 3e ac fb 98 39 24 27 a6 bb
       0.23666859 0.16494334 0.0002917921 -0.005070584
0002f0 ab ad cb 3d 97 14 ff 3d 66 1b ab bd b8 17 69 3e
       0.09945234 0.12455099 -0.08354835 0.22762954
000300 e0 52 21 3e 7e 84 89 3e 69 a1 16 3e 37 93 8b 3e
       0.1575427 0.26858896 0.1471001 0.27260754
000310 9a 30 ff bd 6c cc 62 3e e8 ba 4b 3d f8 28 c6 3d
       -0.12460442 0.22148293 0.049738795 0.09675783
000320 9d b0 ad be 3b 44 95 be f9 b1 1a 3e 63 2e 70 3e
       -0.33923808 -0.29153618 0.15106954 0.23455195
000330 40 4c 42 3e f3 37 16 3c 1a ae b3 bd de b6 94 bd
       0.189744 0.009168613 -0.087734416 -0.07261442
000340 36 cc 64 3d d4 fe ca 3d a4 2d 71 3e f2 d5 01 bd
       0.055858813 0.09911886 0.23552567 -0.031698175
000350 e4 98 34 be 40 f7 ee be 08 d3 2e be fb 9b cc 3e
       -0.17636448 -0.46673012 -0.1707269 0.39962754
000360 60 ed d4 bd ec 4d 15 be f8 5a 8d 3b 06 a6 49 bd
       -0.10396838 -0.14580506 0.004313823 -0.049230598
000370 8f 10 d4 be b3 fb 21 be 3d ae e1 3d 94 20 6b 3e
       -0.41418883 -0.15818672 0.110195614 0.22961646
000380 99 34 2d 3d b2 07 7c 3d d5 27 47 3d 5b e0 f9 bb
       0.04228649 0.061530776 0.04862197 -0.007625622
000390 24 87 1c 3e d3 b5 8c 3e a7 8d 36 3e f1 09 35 bd
       0.15285927 0.2748247 0.17827474 -0.044198934
0003a0 46 a6 af be 7b b4 e6 bd bc 59 0c bd 33 46 8d bd
       -0.34306544 -0.11264893 -0.034265265 -0.06898155
0003b0 24 b6 da 3e 13 67 41 3e c9 93 ef bd fe 10 db be
       0.42717087 0.18886976 -0.1169811 -0.42786402
0003c0 39 e8 50 3d 58 4c ad 3c 68 2e c8 be da 64 d9 3d
       0.051002715 0.021154568 -0.39097905 0.10614939
0003d0 38 5f 32 3e b0 74 68 3e dc a8 bf be 85 2f 35 3d
       0.17419136 0.22700763 -0.37433517 0.04423477
0003e0 40 32 d4 3d 1b 1e 2e be c5 3d 2b 3d 95 30 bb bc
       0.10361147 -0.17003672 0.041806955 -0.022850314
0003f0 f9 7c 26 bd 65 35 46 be d4 df 14 be 13 22 81 3d
       -0.040646527 -0.19356306 -0.14538509 0.06305327

fc1.bias f4 [120]
000000 d7 74 60 be d1 11 71 bd 92 27 3b bd dc 77 1e 3d
       -0.21919571 -0.05885488 -0.045692034 0.038688526
000010 ba b5 73 3b cf bb fb 3c 80 eb 26 bd 09 a2 37 bd
       0.0037187175 0.030729203 -0.040751934 -0.044832263
000020 9b 6f 2a 3e 3b fc 4d bd ba e9 b6 bd 5d 69 98 3d
       0.16644137 -0.050289374 -0.089312986 0.074419715
000030 9c 78 a5 bd 45 fb d8 bd d1 97 36 3d b4 bd 8f bc
       -0.08079645 -0.10594801 0.044578377 -0.017546512
000040 81 02 02 ba 64 0c df 3c 15 a7 ca bb 5e 72 44 bd
       -0.00049594796 0.027227588 -0.0061844685 -0.04796063
000050 f2 bb f5 bc 70 e6 03 bd f5 f6 6f bb 0e 19 b6 3d
       -0.029996846 -0.032202184 -0.0036615704 0.088914976
000060 f2 6c 9c bd c4 15 cc 3d 33 f2 d6 bc 80 4b d1 bd
       -0.07637967 0.09965089 -0.026238536 -0.102194786
000070 72 a4 8e bd 9f 9a a4 bc cf d1 93 bd ab ba 13 bd
       -0.06964959 -0.02009326 -0.07217752 -0.036066692
000080 1f ef a9 bd 96 db d0 bc b4 c8 fc 3c ca 76 6e bd
       -0.08297562 -0.025495332 0.030857421 -0.058218755
000090 74 8f b0 3c 97 53 c9 bc 6d 58 a5 3d e9 c4 aa bd
       0.021552779 -0.024575992 0.080735065 -0.08338339
0000a0 86 c1 6f bd de cf 92 bd fd 18 35 be af ed 4f bd
       -0.058534168 -0.07168554 -0.17685314 -0.050763782
0000b0 a3 07 fa 3d 18 00 59 3e 62 fb 33 bd 9c 41 19 be
       0.12208488 0.21191442 -0.04394091 -0.14966434
0000c0 3b f4 bc bd 03 58 f0 bd 07 46 a5 3b 7b 93 36 bc
       -0.09226271 -0.11735537 0.0050437483 -0.0111435605
0000d0 70 f1 0c bd 45 3e e4 bd 29 06 ba bd a9 d4 5e bd
       -0.03440994 -0.111446895 -0.09083206 -0.054402027
0000e0 6f 44 9c 3a 15 a9 a7 bd 52 52 de bd 56 4c f1 bd
       0.001192225 -0.08186547 -0.10855545 -0.11782138
0000f0 28 a4 14 be c1 cc 30 3d d1 cc 58 3d 89 95 88 bd
       -0.14515746 0.04316402 0.052929703 -0.066691466
000100 27 e3 3c bd c4 e4 8d bd 35 e8 a9 bd 1b 1c a0 3d
       -0.046115067 -0.06928399 -0.08296243 0.07817861
000110 9c 21 a5 3c 61 1e 32 bd 58 5b 03 3d 42 7e da bd
       0.020157628 -0.043486003 0.032069534 -0.10668613
000120 86 51 5b bd 24 49 2e bc 9a ff 98 3d b9 9d 1a 3e
       -0.053544544 -0.010637555 0.07470627 0.15099229
000130 da bf 18 bc 84 93 1c 3e df 23 d2 bc 37 50 2a 3c
       -0.009323085 0.15290648 -0.02565187 0.010395101
000140 9b a2 6e bd a8 de b0 3c dd 06 ef bc c1 b0 58 bd
       -0.05826054 0.021590546 -0.029178077 -0.05290294
000150 bd 5f 5c bd 28 a3 06 3d 49 77 88 3d d6 85 3a 3e
       -0.05380224 0.03287044 0.06663377 0.18215117
000160 d3 c9 b0 bc 30 66 1c 3e 1e 87 36 be 5f 99 14 bd
       -0.021580612 0.15273356 -0.1782498 -0.03627908
000170 8a 0c fc bc 1a e0 9c bd 44 a2 27 3d b7 35 e9 bd
       -0.030767698 -0.076599315 0.040926233 -0.113871984
000180 7f 8f 20 3d be a8 38 be 3d 0f e7 3d 4a 0d 73 3c
       0.03919935 -0.1803312 0.11282203 0.014834711
000190 35 ce 2a 3d 84 c2 b5 3d 3c f9 87 bd 16 14 72 bd
       0.04170056 0.088749915 -0.066393346 -0.059101187
0001a0 9d 8a b9 bd fd 10 4f 3e af 0e 12 bd 59 f9 50 bd
       -0.090596415 0.20221324 -0.035658535 -0.051019046
0001b0 06 c8 fd bb 1f 50 22 3d c3 78 db bb b5 c4 a1 bd
       -0.007744792 0.03962719 -0.0066977455 -0.07898847
0001c0 14 f2 b5 bd 99 96 82 bd dc e9 ff bd 0d d6 c6 3d
       -0.08884063 -0.063763805 -0.12495777 0.09708796
0001d0 bb 0a c7 3c 2f 5f dc 3c 28 59 32 bd 48 7a a9 bc
       0.024297109 0.026900856 -0.043542057 -0.020688191

fc2.weight f4 [84, 120]
000000 66 c1 29 3d df e0 39 3d c0 db c5 bd a9 bd 24 3d
       0.041444205 0.04538047 -0.096610546 0.040219937
000010 8f 42 2d be e8 2b c8 bd 59 9b 37 bd ec 5f a4 bd
       -0.16919921 -0.097739995 -0.044825885 -0.08026108
000020 70 39 25 3e a4 7b 02 3e cf a7 37 bf fc f4 5c 3d
       0.16135192 0.12742478 -0.7174043 0.053944573
000030 2d f1 94 be d5 2f 8b bd 58 b0 ae 3d 94 08 58 3e
       -0.29090253 -0.067962326 0.08529729 0.21097022
000040 10 68 2b 3e 08 5b 03 bd 8f 69 88 3d 45 5e 31 be
       0.16738915 -0.032069236 0.06660759 -0.17321117
000050 8f b9 37 3e ff e5 c7 bc 0f 9b d3 bd 10 50 e0 be
       0.17941879 -0.024401663 -0.103323095 -0.43811083
000060 d8 2d cc bc 45 d5 d8 bd 26 8d a5 3d 5e 03 77 3c
       -0.024924204 -0.10587553 0.080835626 0.015076486
000070 c5 57 2f 3e 02 3a 9f bd 35 9b 83 be db 08 24 3e
       0.17123325 -0.07774736 -0.2570435 0.16019003
000080 00 5c 35 3e e0 00 f5 bc 32 48 ba bd 12 7e 61 bc
       0.17710876 -0.029907644 -0.090958014 -0.013762968
000090 e6 70 28 bd db d6 15 3e 63 24 6e be 94 1d 02 be
       -0.041123293 0.14632742 -0.23256068 -0.12706596
0000a0 f3 9c ab bd e1 ea 01 bf 4d 71 97 3d 5b e8 a1 3e
       -0.08379545 -0.5074902 0.07394657 0.31622586
0000b0 2f b5 fc bd 8d a9 03 3e 88 91 4e 3c b8 31 1a 3c
       -0.123392455 0.12857647 0.01260794 0.009411268
0000c0 25 94 91 3d 44 bf 73 3d 45 17 8a 3d 41 aa 7b 3d
       0.071083345 0.059508577 0.067427196 0.061441664
0000d0 d5 3e 0e be da 73 d2 3d 1a dd 35 3e 76 0e a5 3d
       -0.13891156 0.10276003 0.17760125 0.08059399
0000e0 65 0a 66 3e 65 1e 7d 3d 08 fe e2 3d 70 38 10 3e
       0.22464903 0.061796565 0.11083609 0.14084029
0000f0 c6 8c 6b be 73 e1 76 bd fc e0 db 3d 29 80 5c be
       -0.2300292 -0.0602736 0.10736272 -0.21533264
000100 27 f2 88 bd f7 76 e4 bc 39 13 bf 3b 4e a3 ed 3c
       -0.06686812 -0.027888758 0.005831149 0.029008534
000110 83 4e b8 bc e0 59 15 3d 7d 9b f9 3d fd b5 ce 3d
       -0.022498375 0.036462665 0.1218786 0.10093305
000120 f3 7f 8b be 8a 86 ac 3d 8b cd aa 3d e0 27 18 be
       -0.27246055 0.08424099 0.083399855 -0.14858961
000130 24 a5 a2 bd 7c 6f 92 3d 7d d1 67 be 5d 73 55 be
       -0.07941654 0.0715017 -0.22638507 -0.20844789
000140 c8 d4 c5 be 44 eb 60 3d 10 51 ab 3d 68 82 48 3e
       -0.38638902 0.054911867 0.08365071 0.19580996
000150 f8 22 49 bd ee 22 db 3c fd 6e 19 be 9d a9 02 be
       -0.049105614 0.026750054 -0.14983745 -0.12760015
000160 3b c3 83 3d b4 40 ba bd 13 35 ae 3d 4b 7b 83 3c
       0.06433722 -0.090943724 0.08506217 0.016050002
000170 d0 cc 66 bd 9f 13 41 3d b2 27 22 bd fe 91 a7 3d
       -0.05634767 0.047137853 -0.039588638 0.08182143
000180 6a bc 09 be 04 5d d3 be 1a 89 08 3e df f4 d3 be
       -0.1345078 -0.41281903 0.1333355 -0.4139776
000190 f1 97 e0 bc 62 a7 2d 3d 5d c1 b1 bc 8e 3e 6a 3c
       -0.027416201 0.042395957 -0.021698648 0.014297141
0001a0 2d 27 03 3e d2 f1 1f 3d 70 98 8e 3c 87 67 a2 3d
       0.12807913 0.039048977 0.017406672 0.079299025
0001b0 b3 70 ef bd 4b cb 5f bc 2e 27 1a bd 90 02 73 3d
       -0.116914175 -0.013659309 -0.03763502 0.059328616
0001c0 f8 0a 84 3c 65 15 7a be d2 ce dd bd 31 d2 a4 be
       0.016118512 -0.24422224 -0.108304635 -0.32191613
0001d0 af 0c 55 3e 38 07 7a bd 1d 2c 06 be a6 73 27 bd
       0.2080562 -0.06104204 -0.13102765 -0.040881775
0001e0 3c 4f 12 3c 6e 60 4d 3d 0c 1b cd 3d b7 6e fc be
       0.008930024 0.05014079 0.100149244 -0.4930322
0001f0 68 70 00 3d cb b2 7b 3e a5 d8 e7 3b b6 d4 e3 bc
       0.0313572 0.24579923 0.0070753866 -0.02781139
000200 de 82 0c 3c f2 0d 5e 3d 58 01 e9 3b 73 1f 1d 3e
       0.008576123 0.054212518 0.007110756 0.15344028
000210 69 cf 08 bf 30 ca 72 3e fb d4 8b 3c 54 a2 57 3d
       -0.5344148 0.23709941 0.01706933 0.052645043
000220 b7 ce 15 bd 36 c9 f9 3b ad dd af bd c0 b1 64 bc
       -0.03657409 0.007622863 -0.08587203 -0.0139583945
000230 2c 3d 9d 3e 2a 97 c7 bc 1e a7 c1 bd 9c ef 34 bd
       0.30710733 -0.024364073 -0.09455703 -0.04417382
000240 75 58 9b bd 0c 3e b7 3d ee 8c ca bb 50 ce 56 3d
       -0.07585231 0.089473814 -0.006181351 0.05244285
000250 6e ee e4 3c 01 a8 93 bd 60 e2 30 3c c2 5a 84 bd
       0.027945723 -0.072097786 0.0107961595 -0.06462623
000260 bd 86 67 3d 90 2d b9 3d 3c b0 2f 3d 7f 15 17 be
       0.05652498 0.090418935 0.04289268 -0.14754294
000270 08 23 67 3c d8 bb bc 3c 09 e7 06 bc 87 0c 74 3e
       0.014107473 0.02303879 -0.008233794 0.23832904
000280 96 7d 9b bd 20 d1 6c be f8 ad d0 3e 80 0d 1a 3e
       -0.07592313 -0.2312665 0.40757728 0.15044212
000290 c3 c0 23 3e 5c 86 a1 be 4e 42 d7 3c cc 4f fb bc
       0.15991502 -0.3154782 0.026276734 -0.030677699
0002a0 21 98 ca 3d 8f ae b3 3d ef 30 95 bd de 62 30 bd
       0.098922975 0.08773529 -0.07284724 -0.043063037
0002b0 0a 7f 70 3e b0 63 57 3d f2 ee 74 be ae 85 68 ba
       0.23485962 0.052585304 -0.23919275 -0.00088700175
0002c0 8a 58 9c be 88 e8 82 bd e0 da f9 3d 34 0c 6c 3e
       -0.305363 -0.06392008 0.1219995 0.2305153
0002d0 79 b4 c6 bd 72 0c b7 3b 79 67 ca 3d d0 b2 1b 3e
       -0.09702391 0.0055862004 0.09883017 0.1520493
0002e0 06 ae d3 bc eb 21 6e bd e3 72 25 3d 93 00 85 3d
       -0.025839817 -0.058137815 0.040392768 0.0649425
0002f0 b1 6c c6 bd 6e 71 d1 3c e6 ba e7 bd cf e8 2d 3c
       -0.096887 0.025566783 -0.11314945 0.010614588
000300 e0 79 2e 3e 75 72 f4 bd 04 51 f3 3d 38 52 a6 bc
       0.17038679 -0.119358934 0.11880687 -0.020302877
000310 3e 66 b1 3d f7 4b 87 bd b4 39 22 3e 6a ca ea be
       0.08662079 -0.06606286 0.15842324 -0.45857555
000320 09 72 34 3d f7 62 27 3c 94 3a c1 3d 1c d7 2b be
       0.044054065 0.010216466 0.09435001 -0.16781276
000330 65 09 02 bd 50 21 b9 bd 6e 4e 72 be 35 bd 72 bd
       -0.03174724 -0.09039557 -0.23662731 -0.059262473
000340 f1 d9 06 ba 9f ca ba be 65 ce b9 3e fc cc 9e 3d
       -0.000514417 -0.36482713 0.3629028 0.077539414
000350 ab 2c fc 3d a1 97 78 3d 00 21 5f bc f7 5c 9b 3b
       0.12313207 0.06069148 -0.013618708 0.004741307
000360 c8 3e e4 be 65 2d 38 3e 3e 2f c4 be d8 63 fa be
       -0.44579148 0.17986067 -0.38317293 -0.489043
000370 9d 37 bf bd 75 78 87 3e 51 6f 35 3d ea 33 d1 3c
       -0.09336779 0.2645909 0.044295613 0.02553745
000380 d6 17 7c 3e a0 70 f2 3c 2a c6 26 3e 8e 9b 98 3e
       0.24618468 0.02959472 0.16286531 0.2980618
000390 30 fd f1 3e be 51 68 be bf 04 5a bd 6d b7 48 3e
       0.4726348 -0.22687432 -0.053227182 0.19601221
0003a0 c4 b2 33 bd 5c 99 59 3c 3c 75 b8 3e ad 1b 5d be
       -0.043871656 0.013281193 0.36026943 -0.21592589
0003b0 95 09 fd 3c d1 3d 4f 3d 4f 62 9f bc 38 a0 0b 3c
       0.030888358 0.050596062 -0.019456057 0.008522086
0003c0 fa a3 c8 be ce 80 aa bd 3f 61 42 be 14 1a af be
       -0.39187604 -0.08325349 -0.18982409 -0.34199584
0003d0 e9 92 80 3e fd ee 46 3c c7 96 e2 3c 06 5b 90 bc
       0.25112084 0.01214194 0.027659787 -0.017621528
0003e0 72 ad bd bd 11 e1 34 be 32 9d 51 3e f0 9e 63 be
       -0.09261598 -0.17663981 0.20470122 -0.22228599
0003f0 55 3b 47 bd 36 64 83 be d0 cb 95 3d 3a 87 b0 be
       -0.048640568 -0.25662392 0.07314265 -0.3447817

fc2.bias f4 [84]
000000 1b 9a 87 3d 4f 12 35 3c 50 85 3e 3e 78 ed 67 3d
       0.0662119 0.011051728 0.18605542 0.056622952
000010 28 7e ff bd 1f 9e 0d 3e cc 73 69 be 46 d8 18 bd
       -0.12475234 0.1382985 -0.22798079 -0.03731563
000020 d3 09 46 bc d6 22 b6 3d 06 c3 01 3e ea 9a 5a bd
       -0.012087303 0.08893363 0.12672052 -0.053370394
000030 6d 8e ee bd be fa 7d 3e 56 59 1f be 29 ed 40 bd
       -0.11648259 0.24802682 -0.15561423 -0.047101174
000040 0b d1 0f 3e fe 8e 11 be 34 82 c2 bd ce 9f 00 3e
       0.14044587 -0.14214703 -0.094974905 0.1256096
000050 02 87 42 bd 6d 41 f7 3b a8 a5 92 3d 5b fb cb bd
       -0.047492035 0.007545641 0.07160503 -0.099600516
000060 14 30 52 ba d3 79 2d 3e 42 c3 20 bc 9e ff 2f bc
       -0.00080180285 0.16941004 -0.009812178 -0.010742096
000070 67 34 b5 3d e6 41 b9 bd 48 12 08 be 58 d1 fe bd
       0.088478856 -0.09045772 -0.13288224 -0.12442273
000080 fb 18 08 be 3a 3b 04 3e 41 54 5d 3d f2 be f9 3d
       -0.1329078 0.12913218 0.05403543 0.12194623
000090 38 2e 32 3d 50 58 07 bb 05 5a b7 3d 8e 3f 00 bd
       0.04350111 -0.0020652004 0.08952717 -0.03131061
0000a0 06 6a 78 be 4a f2 18 be df c7 9e 3b 4a a5 cb bd
       -0.24259195 -0.14936176 0.004845604 -0.09943636
0000b0 ff 82 40 be ab 54 da bd 59 cc 63 3e 14 38 e0 bd
       -0.18799971 -0.106606804 0.22245921 -0.10948196
0000c0 b3 94 e4 bd 07 40 c0 3d d7 e3 a2 3c b2 1d 95 bd
       -0.111611746 0.09387212 0.019884033 -0.072810546
0000d0 32 be dc bd 51 7a 04 bd 97 9a ae 3b 40 e8 ad bd
       -0.107784644 -0.032343213 0.005328487 -0.08491564
0000e0 f8 ee bf 3d f3 ea 4d be a8 e3 50 bd f0 08 11 be
       0.093717515 -0.20109157 -0.05099836 -0.14163566
0000f0 c3 04 53 3d 57 c5 16 be d5 56 4a bd d7 37 90 bd
       0.051518213 -0.14723717 -0.049399216 -0.070419006
000100 8a 09 03 be 91 4c f1 bc 48 09 53 bc 9c f7 31 be
       -0.12796608 -0.029455455 -0.012880631 -0.17379612
000110 ce cc 52 bd cd 14 3f be 6a cb 58 be 6c 95 3a 3d
       -0.05146485 -0.18660279 -0.21171346 0.045552656
000120 c4 6a 28 be 0b cf 00 be 27 e0 7c be dd 18 80 bd
       -0.16446978 -0.1257898 -0.24694882 -0.06254742
000130 0d 69 4e bd 00 21 d6 3d 2f 96 c7 bd ee 45 3e be
       -0.050393153 0.10455513 -0.09745442 -0.18581364
000140 f1 c9 2d 3b b2 36 3c be 74 7b ad 3d 44 18 df 3a
       0.0026518072 -0.1838024 0.084708124 0.0017020782

fc3.weight f4 [10, 84]
000000 e5 32 bd be e0 44 1d be 8a b4 97 be 9d 3c b5 bc
       -0.36952892 -0.15358305 -0.29629928 -0.02212363
000010 0d 18 0f 3d 45 82 76 be 4f 73 da be 0a d3 d9 be
       0.034935046 -0.24073131 -0.42666098 -0.42543823
000020 8e d1 90 be b1 72 8c be ef 3c a3 3c 4d 26 d9 be
       -0.28284878 -0.27431253 0.019926516 -0.42412034
000030 38 51 21 be 12 7c 19 bd b7 dc 14 3e b5 42 73 be
       -0.15753639 -0.03747184 0.14537321 -0.23755915
000040 3b 6a b8 be 89 2a 3d 3d b9 e7 ad 3c e7 39 d1 bb
       -0.36018547 0.046183143 0.021228658 -0.0063850763
000050 db f3 3a be 7f 71 39 be 6d d0 6c 3d c9 31 85 bd
       -0.18257086 -0.18109702 0.057815958 -0.065036364
000060 47 26 e8 bc f2 c7 fa bc 8c 20 a4 be 78 0f 01 be
       -0.028338565 -0.03061292 -0.3205608 -0.12603557
000070 61 10 85 be f7 a4 95 3d c7 84 7b be 71 9f 43 be
       -0.2598906 0.07306855 -0.2456237 -0.19103791
000080 99 57 3e bd 14 49 c6 be 20 92 e1 bb ea 2e 75 be
       -0.04647026 -0.3872763 -0.0068838745 -0.23943678
000090 5b 45 f1 3d 83 63 8d 3d 31 20 55 3d 48 69 44 be
       0.11780807 0.06903746 0.052032653 -0.19180787
0000a0 09 c5 5d 3d 08 53 a3 be 57 da ca be fb 15 2f 3e
       0.054142985 -0.31899285 -0.39619705 0.17098229
0000b0 11 65 e8 bd 4b c8 b0 3d a8 3d 02 be 33 ac 98 bd
       -0.11347402 0.08631953 -0.12718832 -0.074547194
0000c0 a7 59 79 be 93 ec 26 be a1 11 09 bf a6 f0 87 3e
       -0.24350606 -0.16301183 -0.53542525 0.26550788
0000d0 c4 ae f9 3c 15 cb 87 3b 95 53 4d 3c ee 7a 02 bf
       0.030478843 0.0041440823 0.012532135 -0.50968826
0000e0 a4 7f d6 3d eb 1d d1 3d 48 29 2a be 66 a9 0a 3e
       0.10473564 0.102107845 -0.1661731 0.13541183
0000f0 a3 65 3f 3e e8 05 e0 3d fd 34 1e 3e 57 1a 86 be
       0.18691115 0.109386265 0.15449901 -0.2619197
000100 7d cd fd 3d af 34 1f be 81 0a 04 3c 3a 96 d6 3d
       0.123927094 -0.15547441 0.008059145 0.10477872
000110 33 05 0f bd db d4 99 bd d5 e5 58 be 86 97 b2 3d
       -0.034917068 -0.07511302 -0.21181424 0.08720307
000120 a5 b4 a4 bc 9a 9f 8e bd ed 6a bb bd 0c 47 cb 3d
       -0.02010567 -0.06964035 -0.09151254 0.099256605
000130 7a cc 35 3e a9 00 12 be 5d d3 68 be 1a 05 3c 3e
       0.17753783 -0.14258064 -0.22736879 0.18361321
000140 2d d6 2a 3e 3c e0 fd 3b 7c 60 49 3e 6d 79 26 3c
       0.16683264 0.007747678 0.19665712 0.010160786
000150 5f 21 b4 3a c4 a7 68 be 08 9a 2b 3e 8e bf bd bd
       0.0013742856 -0.22720248 0.16757977 -0.09265052
000160 60 bb 53 3e 33 58 84 be 42 74 33 3e ba f7 11 3e
       0.20676947 -0.2584854 0.17524818 0.14254656
000170 0e 37 a8 be 4b 52 81 be 39 cf d0 3d d4 5b e3 be
       -0.32854503 -0.25258097 0.101957746 -0.44405997
000180 16 56 b5 3d c9 6a c6 be c9 a7 02 bf 4e cd a6 be
       0.0885431 -0.38753346 -0.5103727 -0.3257851
000190 7d d2 83 3c 51 b8 65 be 36 27 8a bd 56 b4 91 bc
       0.01609158 -0.22433592 -0.0674576 -0.017786186
0001a0 f3 76 6d 3d 55 19 01 3e 20 17 bf be 15 86 83 bd
       0.057974767 0.1260732 -0.3732233 -0.064220585
0001b0 81 6b 1e be 99 3d 3e bd c0 7e 0e 3e 38 be 13 3e
       -0.15470697 -0.046445463 0.13915539 0.14428031
0001c0 06 01 4f be 5d 55 a8 bd 72 06 d1 bb d8 27 40 be
       -0.20215234 -0.08219407 -0.006378942 -0.18765199
0001d0 d1 2e 3a 3e 88 3c d3 be 08 2c fc 3d ff 09 0f be
       0.18181922 -0.4125712 0.12313086 -0.13968657
0001e0 b9 77 48 be e2 f2 ca bd 9d 11 9f 3d 01 d5 fb 3d
       -0.1957692 -0.099096075 0.07767031 0.12296487
0001f0 d1 fc 91 bc 83 a3 88 3d bb 8c f1 bd d7 f1 01 bf
       -0.017820748 0.066718124 -0.1179442 -0.50759643
000200 2b 9b 94 3e 6d fd 64 be bc 82 3d 3e f5 02 79 3d
       0.29024634 -0.223623 0.18506902 0.060793836
000210 d0 e0 a3 be 6d aa 2a 3d 7a 9e a0 3d 06 12 67 bf
       -0.32007456 0.041666437 0.07842727 -0.90261877
000220 fd a4 0f 3e fa 99 a3 be c3 7a 8f bd 9b c8 06 bf
       0.14027782 -0.31953412 -0.07005837 -0.5264985
000230 4c ae 93 3d 13 31 fc be c0 41 78 3d 81 d2 d5 bd
       0.07210979 -0.4925619 0.06060958 -0.10440541
000240 26 92 24 3e b1 50 2c be 8b fe 04 bf cd b2 c3 3d
       0.16071376 -0.16827656 -0.519509 0.09555588
000250 6c 5a e7 be ca c0 05 3c 58 90 f3 be 44 67 57 bd
       -0.45186174 0.00816364 -0.47571063 -0.052588716
000260 c2 18 2a bd 84 a3 f1 be d6 58 42 3d b2 7a fe 3c
       -0.041527517 -0.47195065 0.047448 0.031064365
000270 ef 8e 8c bd 7c 69 04 bf f6 f7 97 be 2e 1b 65 3c
       -0.068632 -0.51723456 -0.29681367 0.013983531
000280 b9 82 07 bd 1f 0d af 3d 7a b1 e7 3d 30 d7 2e 3e
       -0.03308365 0.085474245 0.11313148 0.17074275
000290 ec 73 16 3e a0 fc 1b 3e 09 fd 1b be ca 2a 3b be
       0.14692658 0.15233088 -0.15233244 -0.18278041
0002a0 bb b0 c1 3d 98 36 ff bc 16 9c d0 be d8 97 ce 3b
       0.09457537 -0.031153962 -0.40744084 0.0063047223
0002b0 51 4a 2a 3e c1 1f fd 3d 91 fe 04 3e ee 51 1a be
       0.16629912 0.12359572 0.12987734 -0.15070316
0002c0 42 ea 25 3d 3c ae ac be 7a ae 81 bd 55 c3 1d bf
       0.04050661 -0.3372668 -0.06332107 -0.6162618
0002d0 ad ab 24 bc 70 09 c9 bd 62 da 98 be 2d 11 ff bd
       -0.010050696 -0.09816253 -0.29854113 -0.12454448
0002e0 00 68 ef bd f7 3d 02 be fc db 9e bc 6b f0 fa 3d
       -0.11689758 -0.1271895 -0.019392006 0.12252887
0002f0 c8 82 e7 bd f7 68 95 be 1c 34 96 bb 6d 91 bf bd
       -0.113042414 -0.29181644 -0.0045838486 -0.0935391
000300 cf f6 99 be b9 56 80 3d 7a 3f 8f 3b ff c9 b2 bd
       -0.30071113 0.06266541 0.0043715807 -0.08729934
000310 53 b6 a0 3d 00 ef 59 3c 7e c2 22 be e6 c4 81 be
       0.078472756 0.013301611 -0.15894505 -0.25345534
000320 20 39 2b 3e 4e b6 46 3d be 26 3d 3d e6 12 95 be
       0.1672101 0.048513703 0.046179526 -0.2911598
000330 61 e9 1a 3d 2c 84 43 3d 65 9a 6d be bd 43 c5 3c
       0.037820224 0.04773347 -0.23203428 0.024080152
000340 38 50 08 3d 03 78 8e be bd 6d 91 be a7 78 87 3d
       0.033279628 -0.27825937 -0.28404036 0.066148095
000350 6d 2e b9 be 59 86 1e be 14 63 32 be 9e 1a 61 3d
       -0.36168233 -0.15480937 -0.17420608 0.054957025
000360 c2 ed 96 bc a2 05 d7 3d cc 60 b7 3d 46 b8 f5 3d
       -0.018423919 0.10499121 0.089540094 0.11998038
000370 95 21 45 be 28 e2 42 be c4 42 13 be c3 69 04 bd
       -0.19251092 -0.19031584 -0.14380938 -0.032327425
000380 92 d3 5e be 3e ad d3 3d 28 33 29 be fd 7a da be
       -0.21760395 0.10335778 -0.16523421 -0.42671958
000390 67 dc 04 be 9c ea d6 be 1d 13 6c bd 25 bb 54 3b
       -0.12974702 -0.41975868 -0.057635415 0.003246018
0003a0 96 5a ad bd d4 3f 15 3d a8 f4 12 be 52 72 0d 3e
       -0.084645435 0.036437824 -0.14351141 0.13813141
0003b0 07 c7 24 3e b2 60 5e 3d 15 b5 48 be f2 7e 3c 3e
       0.16091548 0.054291435 -0.19600327 0.18407801
0003c0 04 9c af 3d d9 02 c3 be 95 a2 03 3e c4 72 84 3b
       0.085746795 -0.3808811 0.12854989 0.0040420014
0003d0 ae 10 31 be 17 6a 4d bd 4b 3c 4a 3e 90 14 0f 3d
       -0.17291519 -0.050150003 0.19749562 0.03493172
0003e0 7d f7 b1 bd be 91 00 be 09 8f aa be 4a d2 7c 3e
       -0.08689783 -0.12555596 -0.33312252 0.24689594
0003f0 2c 1e 75 3e 04 54 56 3e 9a d9 0e be 4f de ea 3d
       0.23937291 0.20930487 -0.13950196 0.11468183

fc3.bias f4 [10]
000000 bc 8f 05 3e b4 15 49 3d 5b 6f d5 bc 4d b5 0f 3e
       0.13043112 0.049092963 -0.026054075 0.14034005
000010 17 46 f6 3c 3d 51 fc bd ce f7 57 be 50 fd a5 bd
       0.030062718 -0.123201825 -0.21090624 -0.08104956
000020 73 77 8a 3e 45 cc 6c 3c
       0.27044258 0.0144529985
