logs/2020-01-30T19:52:17.106300_train_mode_classification_model_ConvNetSimple_dataset_ISIC_subset_1.0_bs_64_name_Adam_lr_1e-05/epoch_0003-model-val_accuracy_66.76616915422886.pth (torch_old, 45920 bytes, 8 tensors)

conv1.weight f4 [8, 3, 3, 3]
00000000: 2324 1f3e a30a 2c3e 58c7 16bd 6281 3d3e
00000010: 5bcf 0abd 53f7 403d 9cee aebd b36d f83d
00000020: 1f34 363e b6f1 07be 82ef 333e ab0b 363d
00000030: c53d 1a3e 8460 0d3d 4c58 cf3d 4d98 99bc
00000040: 6093 203e c724 173d e3c4 a6bd 7e5b 6b3d
00000050: d864 a4bd 3ec1 67bc f2d4 8ebd 0858 0b3e
00000060: 7deb 12be 5b6a a4bd e10d 3cbd fc34 f1bd
00000070: d7ef 833c 9fc5 44be 8ddf 2f3e 3a85 29be
00000080: 2608 163e a27e f53c 0f31 84bd ee67 ef3d
00000090: 853e e23c d6cf 1c3e 089d 983c 8a2b 81bd
000000a0: 0205 4a3d bb8d 5fbd 5503 a13d 2488 2d3e
000000b0: 3f1b df3d 1c44 b1bd e09a de3d e106 033d
000000c0: f230 c33d 2247 f5bd ba99 45be 4147 9dbd
000000d0: cca7 19be 5a49 1f3e 0c77 483d b3eb 953d
000000e0: 0392 5e3d cf6a 21bc 1a8d 133e d0b4 12be
000000f0: bc00 b83b 7c2b 0dbe 4d6a 583d df81 8cbd
00000100: b1b0 663d 546b 2fbd 1fba 203e 49a3 efbd
00000110: 5b00 f1bd 04b5 efbd 1e5a 2e3e 2417 7c3d
00000120: 6233 383e d935 28be 561b 49be 7aa3 1fbe
00000130: 5d29 0abe 086b 943d 4c89 823d ef5f 1e3e
00000140: 4731 d6bd 39c3 fbbd 3108 e23d a064 8ebd
00000150: fb11 003e 4e43 19bd 2860 f23d 6ea7 10be
00000160: f2ff b5bd 1b15 893d e1cd 043d 7fd7 6abd
00000170: 7d00 da3d dc03 fb3d dd60 17be e75a e3bd
00000180: d4fc 2b3e 59ed 95bd e7a7 9cbd a91d 47be
00000190: d296 f2bd 2227 233d 24c6 09bd 687d 17be
000001a0: 7857 74bb 8f0b 0fbe a6a0 2fbe 64e6 e9bd
000001b0: f45a 32be d346 03be 06a8 3f3e 9d87 fa3c
000001c0: faaf 5b3d ce60 3dbe 6548 07be 74a5 8ebd
000001d0: 8e52 ca3c 02d1 30be 279c b0bd 9759 f2bd
000001e0: b11f 3cbb 2390 99bd 7383 87bc c3fc 08be
000001f0: 2fac 0abe 9679 ecbd dc71 8dbd 68c6 1ebe
00000200: d14e 223e 04de 29bd e850 263e a2a0 693d
00000210: 9036 2abe fd2c 053e c6ea 64bd c152 87bd
00000220: 0eb3 1bbe 660a 3cbe 798e 803d ac9b 0cbd
00000230: 9338 a93d 4bd4 19be f435 1a3e edc5 08be
00000240: baaf d2bc a974 433d ebd6 da3d 8ad4 263e
00000250: 8d41 3b3e 1891 14be c847 653d 6512 9abd
00000260: 6a71 5ebc acb1 0bbe 0852 3b3e 6ed6 08be
00000270: b551 e23d 3933 9a3d 53b7 8f3d 026c c5bd
00000280: baf7 3a3e 237d 4c3d 9a88 d23c 31b9 2cbe
00000290: 141e a73d abd0 e4bc ebe3 b2bd 83e7 293e
000002a0: df99 323d 2a93 d8bd 79f7 c5bd ecf8 9cbb
000002b0: 06ee e43d 6bb5 37bd dae6 d7bd 3e53 7cbd
000002c0: 7cdd 0ebe 774e 953d fde2 1c3e d124 35be
000002d0: 8bd5 3a3d 2d2f cd3d 5efd 113d 0063 8abd
000002e0: 5443 cf3d b670 d03d 47db 943d ef4b 07bd
000002f0: f607 4dbd 5308 ef3c 1827 d0bc 96b2 47bd
00000300: 1ec1 063e 4924 323e 6a77 2bbc d85d 0dbd
00000310: d76c 3a3c f5e2 3ebb e830 433d c9fd 633d
00000320: 2b59 32be 979e 8dbd 5ac9 283e 7939 9c3d
00000330: 0437 0abc 699a eabd fe1e eebd 6ec0 29be
00000340: f5fd 63bd 265b 923d 58d1 053e eaec c63d
00000350: 0e06 27be b52b debd 290a b9bc 3acc 463e
0.15541129 0.16800933 -0.036811203 0.18506387 -0.033889156 0.047110867 -0.08541605 0.121302985
0.1779332 -0.13275799 0.17571834 0.04444472 0.15062626 0.034515873 0.10124263 -0.01874938
0.15681219 0.036900308 -0.08143022 0.0574603 -0.08027047 -0.014145194 -0.0697421 0.136078
-0.14347644 -0.08028098 -0.045911673 -0.11777684 0.016105575 -0.19216011 0.17175122 -0.16554728
0.14651546 0.02996761 -0.0645467 0.11689745 0.027617702 0.15313658 0.018629566 -0.063071325
0.049321182 -0.054578524 0.07861964 0.16946465 0.10893869 -0.08655569 0.10869384 0.031988982
0.0953082 -0.11976458 -0.19296923 -0.07679606 -0.15005416 0.15555325 0.048941657 0.07320347
0.054338466 -0.009852125 0.14409295 -0.14326787 0.005615322 -0.13786119 0.05283575 -0.068607084
0.05632085 -0.042826965 0.15696 -0.11701066 -0.11767646 -0.11704448 0.17026564 0.061545506
0.17988351 -0.16426791 -0.19639334 -0.15589705 -0.13492341 0.07246977 0.063738436 0.15466283
-0.10458618 -0.12293095 0.11036719 -0.069527864 0.12506859 -0.037417702 0.118347466 -0.1412637
-0.08886708 0.06693479 0.032422904 -0.05733442 0.106446244 0.122565955 -0.14783044 -0.111013226
0.16795665 -0.07320661 -0.07649212 -0.19444908 -0.11845173 0.03983224 -0.033636227 -0.14793932
-0.003728358 -0.13969253 -0.17151126 -0.11420897 -0.17417508 -0.12819986 0.1871644 0.030582244
0.05363462 -0.1849396 -0.1321121 -0.069651514 0.024697568 -0.1726723 -0.08623534 -0.11833494
-0.0028705413 -0.07498195 -0.016542172 -0.13377671 -0.13542245 -0.11546628 -0.069064826 -0.15505373
0.15850379 -0.041471496 0.16241801 0.057037957 -0.16622376 0.13005443 -0.05588796 -0.06607581
-0.15205023 -0.18363342 0.062771745 -0.034328148 0.08262744 -0.1502239 0.15059644 -0.13356753
-0.025718559 0.047718678 0.106855236 0.16292015 0.18286724 -0.14508474 0.05597666 -0.0752304
-0.013576845 -0.13641995 0.18293011 -0.13363048 0.11050741 0.07529301 0.07017388 -0.096397415
0.18258563 0.049924027 0.025699902 -0.1686752 0.08160034 -0.027931532 -0.08734878 0.16592221
0.043603774 -0.10574944 -0.09666342 -0.004790416 0.11178212 -0.044850748 -0.10542078 -0.061602823
-0.13951677 0.072903566 0.15320964 -0.17689826 0.045613807 0.10018764 0.03564202 -0.06757164
0.10120264 0.10177748 0.07268386 -0.0330314 -0.05005642 0.029178774 -0.025409266 -0.048754297
0.13159606 0.17396654 -0.010465482 -0.034513324 0.0113784885 -0.0029126976 0.047654063 0.05566195
-0.17416827 -0.06915014 0.1648306 0.076281495 -0.008435968 -0.11455233 -0.11627005 -0.16577312
-0.055662114 0.071462914 0.1306814 0.097131565 -0.16310903 -0.1084818 -0.022587853 0.19413844

conv1.bias f4 [8]
00000000: de73 133d 1b9b 54bd f8e1 953d d01c 85bd
00000010: 8b97 fabd 72a7 173e a3ea bfbd 6356 f7bc
0.03599917 -0.051905733 0.07318491 -0.06499636 -0.12235936 0.14809969 -0.09370925 -0.03019256

conv2.weight f4 [16, 8, 3, 3]
00000000: c629 e0bd ea76 b13d 9bc9 c63d 56cc 4f3d
00000010: 765c 98bd 9948 debd 7316 b4bd 7de8 c33d
00000020: cfcc 833d 86d4 d53d e01c 893d a97e 0f3d
00000030: b939 853b a8eb acbd 6934 c4bd 612e d7bd
00000040: 3520 5b3d 18aa 57bd e470 81bc cd35 75bd
00000050: 6eb8 5dbc 709e 99bd de61 8dbd 53a9 403d
00000060: 72c7 ddbc 124b a53d e686 f4bc d730 9cbd
00000070: 7a40 2ebc ccae 40bd 899d d3bc 0df0 d0bd
00000080: 9aae 9b3d e02c 93bd 410c 8e3d fa2d 823d
00000090: 6b8c bf3d 45ff a5bd 1ca8 c03d 04d9 3dbd
000000a0: 117c 593d 3eca f53d 36f8 edbb 2e4b 0a3c
000000b0: eabd 91bc 0868 b9bd a9e8 833d 9076 dfbd
000000c0: 04da a53d f79c c43d 024e f43d f346 a3bc
000000d0: 9822 b6bd b0ae 0c3d 642f 923d d46f e3bd
000000e0: 5f20 a8bc 0fdf 83bd 27a2 84bb 8f06 54bd
000000f0: b4a7 2bbd e93c ffbc 6da8 d8bd 63f5 d83d
00000100: 4f48 dd3d 0127 17bc c949 88bb 2cf5 1ebd
00000110: a1e7 c6bd 61d4 d7bd de44 593d 0b0d 63bd
00000120: 2209 a0bd a2a0 3abc 1d9c 28bd 9abc 25bd
00000130: 49f0 d23a d78f dcbc efb7 2fbd a3de 6fbd
00000140: d861 c8bd 8b41 c83d a677 45bd 134c f73c
00000150: 2a4b 2abd 6533 0c3c 215f de3d d65a 5b3d
00000160: 7fbe d2bd f238 3b3d 362c e03d 39a2 e93c
00000170: 3b91 9c3d da01 e93d 5916 a8bc fa97 b33c
00000180: 64b9 acbd 8849 dbbc 7b85 ad3d 2e58 6e3d
00000190: 0be0 9dbd ea54 c7bd 658b a9bd 4886 f3bd
000001a0: e714 c0bd cc69 01bd 6a1a 9d3d d7fc 883c
000001b0: 2e24 bcbd ed96 c6bd 25a0 653d f417 b8bd
000001c0: 81d0 8abc a508 5d3d e3bc 68bd 307a 7bbc
000001d0: eed9 52bc 762d f8bc 4f7f 7ebd 07fd dbbd
000001e0: d91b c8bd 9118 86bd ef37 e43d 9b83 73bd
000001f0: 021d a7bd e861 d63c be9d fe3c cc0b 813d
00000200: 5ac9 b33d cdac 833d cf1a f2bd 6ed6 0f3c
00000210: 5e21 8f3d 8b98 4bbc d662 91bd d4b6 e03d
00000220: 2b4c 3fbd 85b8 8ebd 6410 dfbd c368 2e3b
00000230: 1c4f 4b3d 2505 c03c 345b a93c 2767 bcbd
00000240: 822d e1bd 9d92 0f3b 1052 dc3d fb69 8b3d
00000250: 1964 8cbd 8591 79bc 36e9 b1bd 35d4 68bd
00000260: 0316 af3c 0e1c 823d 149b c63d a9e8 debd
00000270: dd07 a03d e18d abbd ec1c 323d 21e7 ca3d
00000280: 2471 833a 583f da3d a559 c9bd bb62 2fbd
00000290: 0678 913d 3b0d c1bc ef44 b3bc 4296 3fbd
000002a0: afdd aa3d 510a 763d e351 243d 0433 76bd
000002b0: 5a57 b7bd 2c49 9a3c fbd4 243d 9fea 48bd
000002c0: f8e3 e0bc ceb9 ad3d 4a00 6f3c 37ef 303c
000002d0: 1f22 b7bc b728 cdbd 0162 d5bd b022 4abd
000002e0: ebe0 58bd ffcc 313d 8fb6 dfbc 7719 21bd
000002f0: 6247 f33d 471f 2d3d a5a9 ae3d d48f 64bd
00000300: 14ac 40bd 292e 363d bd9c 9ebd 0f92 9bbd
00000310: cebf 98bb a646 2cbd 1397 afbd a202 953d
00000320: 7ebf c73d 9094 b33c 2db3 8fbc 7c93 d9bd
00000330: 283b 24bd e688 063d 70f4 6e3d 28c4 34bc
00000340: 3d08 2fbd 7c49 8e3d 309e b8bd 8f1e a03d
00000350: c001 2cbd 3782 b33b b7fe 9fbc fc2d 943c
00000360: 41e7 e8bc 0c35 be3d efe9 863b 6c1c cb3d
00000370: 3ec4 f63d 44c3 4dbd e85d a1bd af58 d03d
00000380: 3fd5 cb3d 3dcb adbd 6630 82bb 7597 e3bd
00000390: a51a bbbd 7e96 e43c 5561 153d 009e f63c
000003a0: 89e0 dcbc df30 e93d 13c4 bf3c 21f9 80bd
000003b0: 223a d9b8 85d5 0e3d 05fc 433d 8c34 9dbd
000003c0: c9d9 4f3d 76b5 5bbd c91b bbbd b376 66bd
000003d0: d24f f93d 6fdc de3d c9b1 e83d 303e 9e3d
000003e0: cfe3 c63d 019d fbbb 5370 68bd 142a 893d
000003f0: 29b9 5abd 342f 93bd f47a f5bc dec9 043d
-0.10945468 0.08665259 0.09706422 0.05073198 -0.074395105 -0.10853691 -0.08793344 0.09565828
0.064355485 0.10440926 0.066949606 0.035032902 0.004065719 -0.08443385 -0.09580309 -0.10506893
0.053497512 -0.05265245 -0.0158009 -0.05986576 -0.013532741 -0.07500923 -0.06903432 0.04703648
-0.027072642 0.08070959 -0.02984948 -0.07626503 -0.01063549 -0.0470417 -0.025831955 -0.10202036
0.07601662 -0.071862936 0.06935931 0.063564256 0.093529545 -0.081053294 0.09407064 -0.04634954
0.053096835 0.12001465 -0.007262255 0.008440776 -0.017790753 -0.090530455 0.06440861 -0.10911286
0.08098224 0.09600251 0.11928941 -0.019931292 -0.08893317 0.034346282 0.07137945 -0.11105314
-0.020523248 -0.064390294 -0.0040476504 -0.051764067 -0.04190798 -0.031156974 -0.10579 0.10593679
0.108048074 -0.009225608 -0.0041591865 -0.038808033 -0.097121485 -0.10538555 0.053044192 -0.05543236
-0.07814242 -0.011390837 -0.041164506 -0.040463068 0.0016093339 -0.026924057 -0.042900022 -0.058561932
-0.09784287 0.09778126 -0.04820981 0.030187642 -0.04157559 0.008557175 0.10857988 0.053553425
-0.102902405 0.045708604 0.109459326 0.028519737 0.07644888 0.11377306 -0.020518469 0.021923054
-0.08433798 -0.02676846 0.08472725 0.058189563 -0.077087484 -0.09732993 -0.082785405 -0.118908465
-0.09378987 -0.031595036 0.07671054 0.016722126 -0.09186588 -0.096967556 0.05606093 -0.08988944
-0.016945126 0.053963322 -0.05682076 -0.015348956 -0.012869341 -0.030295115 -0.06213313 -0.107416205
-0.097709365 -0.065476544 0.11143481 -0.05945168 -0.0815983 0.026169732 0.031081077 0.06301078
0.08778639 0.064294435 -0.118215196 0.008779151 0.06988786 -0.012426506 -0.070989296 0.10972372
-0.0467035 -0.06968788 -0.10891798 0.0026612736 0.04963599 0.023439953 0.020673372 -0.09199362
-0.10995008 0.0021907457 0.1075784 0.068073235 -0.068550296 -0.0152324485 -0.086870596 -0.056843
0.0213728 0.06353007 0.096975476 -0.1088422 0.07814 -0.08376671 0.043484613 0.099073656
0.0010028225 0.10656613 -0.098315515 -0.042818766 0.07102971 -0.02356588 -0.021883456 -0.046774156
0.08343064 0.060068432 0.040117156 -0.060107246 -0.08952208 0.01883372 0.040242177 -0.049051877
-0.027452454 0.08482705 0.014587471 0.010799221 -0.022355137 -0.10017531 -0.104190834 -0.049349487
-0.052948873 0.04340839 -0.02730873 -0.039330926 0.118788496 0.042266157 0.08528451 -0.055801228
-0.047039106 0.044477616 -0.07744739 -0.07596218 -0.004661537 -0.042059563 -0.08573737 0.07275893
0.09753321 0.021921426 -0.017541492 -0.106238335 -0.04009548 0.0328454 0.058338583 -0.011033095
-0.042732466 0.0694761 -0.09014547 0.078183286 -0.041993856 0.0054781693 -0.019530637 0.018088333
-0.028430583 0.09287462 0.0041172425 0.099175304 0.12049149 -0.050235048 -0.07879239 0.10173165
0.09952783 -0.0848603 -0.0039730547 -0.111128725 -0.091359414 0.027903792 0.036469776 0.030104637
-0.026962535 0.113862745 0.023408925 -0.062975176 -0.000103581944 0.034871597 0.047847766 -0.07676038
0.050744805 -0.05363985 -0.09136159 -0.056265544 0.12173428 0.10881888 0.11362035 0.07726705
0.0971142 -0.0076786284 -0.056747746 0.06697479 -0.05339924 -0.07186738 -0.029965855 0.032419078

conv2.bias f4 [16]
00000000: 45ec fb3d ff91 1ebb f977 bb3d 8446 a23d
00000010: 67f1 ad3d 0e03 dcbd f6fa d73d f3fe bfbd
00000020: a7e5 d93d 46f8 27bb 90e6 c8bd 0823 293d
00000030: 9622 67bc f7a0 e1bd 53cb 11bd fb68 9d3c
0.12300924 -0.0024195907 0.09153742 0.07923606 0.084933095 -0.1074277 0.10545914 -0.093747996
0.10639506 -0.002563016 -0.09809601 0.041293174 -0.014107367 -0.1101703 -0.035594296 0.019215098

conv3.weight f4 [64, 16, 3, 3]
00000000: c5c3 6d3d 5b01 05bd 2aa8 2e3d fc8a 6a3b
00000010: b19c 84bb f5e5 143c 3016 7cbd 18e6 9bbd
00000020: 9456 07bd 29bc a2bd 0198 26bd 0722 013b
00000030: f344 68bd 8eff 14bd 68d5 89bc d74b 3bbc
00000040: 24ed 43bd 442c 0d3b 1231 77bc c58a a73c
00000050: 4628 c839 b757 38bd d36a 03bd 2f21 8fbb
00000060: 19e4 62bd 00f4 4c3b f328 18bc 0555 dc3c
00000070: 3512 6a3c d02e 693d 250c 06bc 583c 89bd
00000080: 6e51 023d 29f1 7cbd b858 8abc 24c8 04bd
00000090: b05d 16bd a516 13bd 626d 923d 0181 2e3d
000000a0: a779 933c 99d3 953d 901f a5bd 81ab 083c
000000b0: d29d 453d c2ff 3c3d 34b1 9abd 2c67 a73c
000000c0: 9331 68bd f148 4cbc 28fd d9bc 335f a1bd
000000d0: 21ab b5bd 6128 83bd 3e1a 023d 9e5f 033d
000000e0: a5cf a0bd 60fc 18bd 41b2 99bb 0bf0 9fbd
000000f0: 0c83 273d 1d2c 8e3d d64d 0e3c 410b 87bd
00000100: 4420 813c 5817 d93c ae46 7d3d 619c 45bd
00000110: ffd6 9fbd 87eb 043d 5564 8e3a f8e2 fcbc
00000120: 0f4b 23bd 6e44 44bd 6c02 803d bd4d 9ebc
00000130: 46ea 613d c935 8e3d 6edc b73b 37d3 513c
00000140: 9d06 2ebc 9664 563d d0cd a3bd f76d e73c
00000150: 3b4f 97bc d9d0 073d 7176 acbb 636d 12bd
00000160: a092 63bc a345 243d 53d0 83bd 5d4e 72bd
00000170: 16ea cdbc 106e 16bd 79e5 d63c d51b 4b3d
00000180: 94dd 7cbc 5a08 943d 8748 29bd 03f1 5dbd
00000190: 802b 37bd 55bf 84bd c7d3 86bd c33e a7bd
000001a0: 4e6c a6bd daa2 6a3c 0ac6 313d 5c0b 913d
000001b0: 8351 833d f6fb 3ebc e6b0 183c 9e58 68bd
000001c0: 5aa5 cf3c a5ad b1bd c6db 043d d6e2 093c
000001d0: 228f 993c d367 d43c 2f7c 2fbd 3d0f 893d
000001e0: 9224 103d d873 4d3d 2489 d23b 689d 433d
000001f0: 31f9 523d a8f4 073d a81e 6c3d 4396 abbc
00000200: 248b 483d 15fa 5a3c e67c 353d c547 9a3d
00000210: e895 553c 8a94 16bd 2268 67bc fb52 913c
00000220: e57a 083c 8859 e9bc 0c03 743d 08a6 353d
00000230: 7872 6bbd aff4 4cbc 4bc4 60bc 9e59 6dbd
00000240: eadc a03c a746 94bc fa90 11bd 5f37 9ebc
00000250: ad1b b6bc 8c96 b23d 9c92 213d 9d47 b73d
00000260: df7a f83c 52de ab3c 0c09 153d 4fef 863c
00000270: d696 81bd c017 41bd 9eac 93bc 4c93 5f3b
00000280: c15c 093d 2034 0c3d 3a80 8f3d 6167 ab3c
00000290: 7a86 c8bc f176 70bd e5c3 69bd c5a8 3bbd
000002a0: 035b ee3c afa4 483d 856e 9d3d 4d99 a5bc
000002b0: c8da e0b9 f961 98bc 035a bf3b 06bc 063d
000002c0: 365b 8d3b 76e1 233c f4d1 883c db49 183d
000002d0: a922 92bc 1b22 2dbd 8e65 dd3c 177f 1bbb
000002e0: 14f8 f7bc f2ba 2d3d c4f5 063c dfec 97bb
000002f0: e2c8 06bd 343f 96ba 5305 7abd 56bd eb3c
00000300: 3766 353c 235e 773d b608 793c 740f 873c
00000310: bb3a 053d bdfa 953d d2b5 ffbc d523 6d3d
00000320: f77a e93c 7f29 42bd 155a 183d c948 2bbd
00000330: 41e4 93bc e72f 01bd acc2 46bd 8645 913d
00000340: f2c1 8dbd 2c81 3f3d 13a0 8ebd 52d9 99bb
00000350: 4a06 273c 193e 843d f6ae cabc 8b79 f23c
00000360: d3f6 973c c5f1 5f3d 1aa3 2d3c 9ce9 163d
00000370: 1c18 37bd e816 56bd 31a2 a33d 7e9b 61bd
00000380: 08fd 0bbc cfa7 8fbb d58b b23d f3d6 49bc
00000390: 0a8e 6cbd 13de 7cbc 8860 473d 1790 1e3d
000003a0: 88d7 983d 604b 3abc 85f3 4c3d 0aa0 8abd
000003b0: 460a 2f3d bf40 493d 6336 843d d32d 17bd
000003c0: 9415 3ebc 171f fd3c 57e2 45bd b959 6fbd
000003d0: 7319 94bd 25f7 4c3c 251e 743d c4ae ef3c
000003e0: 19ed 533c 871b 173d 354e 36bd 0554 883c
000003f0: 8b63 34bc bd7b 01bd c0cd a63d c6fd 5fbd
0.05804803 -0.032471996 0.042640842 0.0035788408 -0.0040469994 0.009088029 -0.061544597 -0.07612246
-0.03304155 -0.07946045 -0.040672306 0.001970412 -0.05670638 -0.03637653 -0.016825393 -0.011431656
-0.047833577 0.0021541277 -0.015087383 0.020451913 0.0003817698 -0.045005526 -0.032084297 -0.0043679695
-0.055393312 0.0031273365 -0.009287107 0.02689601 0.014286567 0.05692941 -0.008181606 -0.06700963
0.03181594 -0.061753426 -0.016888008 -0.03241743 -0.03671044 -0.035910267 0.07149769 0.042603496
0.018002344 0.0731575 -0.08062661 0.008341671 0.048246212 0.046142347 -0.0755333 0.020434938
-0.056687903 -0.012468562 -0.026609972 -0.07879486 -0.08870531 -0.06404186 0.031763308 0.03207361
-0.07852105 -0.03735006 -0.004690439 -0.078094564 0.04089646 0.06942008 0.00868555 -0.065939434
0.015762456 0.026500389 0.061834984 -0.048244838 -0.07804679 0.03245118 0.0010863642 -0.030869946
-0.039866503 -0.047916822 0.06250462 -0.019324178 0.05515506 0.069438525 0.005610994 0.012806705
-0.010621694 0.05234202 -0.0799824 0.028250678 -0.018470397 0.033158157 -0.0052631428 -0.03574885
-0.013889939 0.040105473 -0.06436219 -0.059156764 -0.025136035 -0.036726058 0.026232468 0.04958709
-0.015433688 0.072281554 -0.041328933 -0.054184925 -0.04471922 -0.06481806 -0.06583362 -0.08166268
-0.08126126 0.014321053 0.043401755 0.07082245 0.064120315 -0.011656752 0.00931952 -0.056725137
0.0253474 -0.08675698 0.032436155 0.008415898 0.018745009 0.025928413 -0.04284304 0.066923596
0.035191126 0.050159305 0.00642504 0.047757536 0.05150718 0.033192307 0.057646424 -0.020945674
0.04896082 0.013365288 0.044308566 0.0753322 0.013036229 -0.03676275 -0.014123948 0.017739763
0.008330082 -0.028485075 0.05957322 0.044347793 -0.057482213 -0.012509509 -0.013718675 -0.057946794
0.01963659 -0.018100096 -0.03553865 -0.019313512 -0.022229994 0.08720121 0.03944646 0.08949206
0.030332027 0.020980034 0.03638558 0.016471533 -0.06327598 -0.04714179 -0.018026646 0.0034114895
0.033535723 0.034229398 0.07006879 0.020923318 -0.024478186 -0.05870718 -0.057071585 -0.045815248
0.029096132 0.04898518 0.076870956 -0.020214701 -0.00042887614 -0.018601405 0.0058395877 0.032894157
0.0043138517 0.010002485 0.016701676 0.03717981 -0.017838793 -0.042268854 0.027025964 -0.0023726874
-0.03026966 0.042414613 0.008237306 -0.0046363915 -0.03290642 -0.0011462928 -0.061040234 0.028776806
0.011071733 0.06039251 0.015199831 0.01648686 0.032526713 0.07323215 -0.031214628 0.0578955
0.028501017 -0.047402855 0.037195284 -0.04181746 -0.018053176 -0.031539824 -0.048525497 0.07093339
-0.06921758 0.046754047 -0.069641255 -0.004695096 0.0101943705 0.06457157 -0.024741631 0.029598972
0.018550312 0.05467393 0.0105979685 0.03684388 -0.044700727 -0.05226794 0.0798992 -0.05507993
-0.008544214 -0.004384018 0.08718077 -0.012319314 -0.057752647 -0.015433806 0.048676044 0.038711634
0.07462984 -0.01137051 0.050036926 -0.06768806 0.042734407 0.049134012 0.06455686 -0.036908936
-0.011601824 0.030898614 -0.048311558 -0.058435176 -0.072314166 0.012510096 0.05959906 0.02925814
0.012934946 0.036891486 -0.044508178 0.016641626 -0.011010061 -0.031612147 0.081447124 -0.054685377

conv3.bias f4 [64]
00000000: cbbb 3d3d 5db7 413d 0a4c 79bd 7611 4d3c
00000010: 62d4 86bd c7c7 42bd b3a4 063d 9cfa ca3a
00000020: 8fd6 31bd 755a 0a3d ebef 643d 650c 99bd
00000030: 88d6 973d 0207 2f3d e7a1 b8ba 42f8 90bd
00000040: 294d 24bd 6246 013d e165 21bd 2316 9ebc
00000050: 3f23 17bd 346c 8f3d cdbd 9b3d bf2a 71bd
00000060: 90b6 e6bc a899 913d 19ad 2d3a 67b0 04bd
00000070: 5f1c b93b 3174 7c3d e68e d2bb 3121 9ebd
00000080: f5d0 f8bc 2d9c 403d d88d 70bc 3282 833d
00000090: efc3 c23c c03d 2cbb 2dda 193d 86bf 45bc
000000a0: 7298 80bd c9cc 93bd 99a1 84bd d143 fbbb
000000b0: 4f8b 7dbd 670a 1d3c 0ff2 a33c ce70 8d3d
000000c0: a40a 223c e262 a13c cc6a 103d 5ae7 91bc
000000d0: 03e5 35bd 7ae8 8dbd d392 b0bd 364a 4f3c
000000e0: e1aa 2dbd 4a1e 983c 6974 d63c a474 903d
000000f0: e0d2 86bb 4a87 ed3b fbae 863d 124b b53c
0.04632167 0.04729401 -0.060863532 0.01251637 -0.065834776 -0.047553804 0.032871913 0.0015486064
-0.04341751 0.033777673 0.055892866 -0.07473067 0.074139655 0.042731293 -0.0014086337 -0.070786014
-0.04011265 0.031561263 -0.0394038 -0.019297665 -0.036898848 0.0700306 0.07604561 -0.058878656
-0.028163224 0.07109386 0.000662522 -0.032394793 0.005649134 0.061634246 -0.006425726 -0.077211745
-0.030373076 0.04702394 -0.014682256 0.06421317 0.023775069 -0.0026281923 0.037561584 -0.0120695885
-0.06279077 -0.07216794 -0.06476135 -0.0076679965 -0.061900433 0.009585 0.020012883 0.069062814
0.009890232 0.019700471 0.0352581 -0.017810512 -0.044407856 -0.06929107 -0.086217545 0.012651971
-0.04239929 0.01856913 0.026178556 0.070534974 -0.0041144937 0.0072487937 0.065763436 0.022130523

fc.weight f4 [7, 64]
00000000: 0952 5a3d 8fc6 97bd b26c c8bd 1e05 be3d
00000010: 16cb b13d 17cd 4cbd 1d5d 1c3c 7d67 f4bd
00000020: 31e9 beba f782 fbbd f8d1 8c3d 833c 07be
00000030: 20e5 07bd 2561 ea3d 9715 47bd bc49 a9bd
00000040: 1b6b de3d 2a05 93bd 6cad c33c 0945 763d
00000050: 1332 013d 484f b3bd aa8c db3d ba9b 533d
00000060: 826b a7bd 27a6 9cbd a52c 13bd 46e6 013d
00000070: 998d 343d 1052 453c 8c8e 993d 2d98 f83d
00000080: 8f3b be3c ef02 2f3d db91 8d3d 0d1a 973c
00000090: 43f3 643b 04f4 db3d a918 a13d 8f78 a43d
000000a0: 7019 73bd 1cd5 7abd 0da7 91bd 53f1 e3bd
000000b0: 96b3 66bc d57d 8c3d ecff c83b 7a95 50bd
000000c0: 0a71 c1bc c083 d2bd ec0f b1bd 019b 553b
000000d0: defd 98bd 0b36 a93b f74f c83d a8e2 be3c
000000e0: 74af bd3d ff6e abbd 504a 6abb e411 04be
000000f0: bf38 b7bb 4507 cebd 0778 dd3d d991 eabd
00000100: d38a 1f3d 484a a6bd a9bf df3c b2fd 46bb
00000110: b542 97bc 04d2 4fbd 095f 8e3d 29bb fabc
00000120: b267 fb39 6e7c 35bd 728e bebd 1ad8 76bd
00000130: 9e68 df3d 1c36 ef3d 79d5 7abd fc7b 163b
00000140: 4811 853c a0b1 d03d 422c 603c 1f46 72bb
00000150: d140 19bd 72b0 cd3c 07b8 05be 33ee 07be
00000160: 8c44 8dbc f5ce bbbd 1104 c0bd 0b2c f0bc
00000170: d79f 873d 83d9 6d3d 8440 4ebd c6b5 2bbc
00000180: d8a7 e83d 87c1 ab3c 28f5 aa3d 2386 6dbd
00000190: c18b edbd 6109 81bd b85d 663b 4457 f6bc
000001a0: 01e5 9fbd 9e33 f63d 2287 edbd d7cd 57bb
000001b0: 7a60 483d 4c57 11bd 0ad2 2d3d 080d c8bb
000001c0: a1ca a4bd cf50 99bd 247a 7ebd 093e 05be
000001d0: d306 9c3d 7a40 d63d f9f3 8dbd 209a 04bb
000001e0: 3962 1e3d 8107 fd3c c5ce 9bbd 0cc5 a7bd
000001f0: a073 ec3d 61de 853d 7aea dd3d 1b2d a43d
00000200: 455b 47bc aac9 a93d 2e56 2abc 2175 b33a
00000210: 1153 58bd cc86 cb3d 4aec 02bd facb 303c
00000220: a457 d7bd 2fbf 193d 071b 71bd 8013 05bd
00000230: 5ceb 51bc bb6b 363d 6ee9 1f3c 245b 7a3c
00000240: 597d aebd 9a45 d0bd f534 2b3d 4f1e 76bd
00000250: b5a4 dcbd 41f4 57bd 185d 02be 0d14 913c
00000260: d6dc 313c f566 e53d 9107 96bd a9ac 8abd
00000270: 2d4b dd3c 5ded 0bbd 5e3c bf3d 4d0c a33c
00000280: df1f 3fbb 835e 58bd 7ae7 993d 2314 82bd
00000290: 9368 433d 9af3 9c3d 7563 d6bd 8db0 e3bd
000002a0: 0453 a0bd 057f 753d 3245 89bd 4af5 c73b
000002b0: e725 9b3c 605e d23c c985 8cbd c603 1437
000002c0: 9f3d a63d 71e8 703d 45e3 a23c bd0e d9bd
000002d0: 6ed3 693d 2aaf 6cbd 3cb3 a93d 5c86 563d
000002e0: 46bb c3bc 4e08 3c3d d1a6 67bd 33c7 8d3c
000002f0: b315 3abc c0b5 033c b7df 473d 843a ee3d
00000300: 4d26 73bd ad88 eb3d fb67 fdbc 0928 ee3d
00000310: c257 c13c a949 e83b 67ac 5abd 5b90 98bd
00000320: 76dc 08be c364 9abd 1287 56bc bff6 c53d
00000330: 2206 843d 43f6 9f3c c9ab 02be 056d 9e3d
00000340: fb0b a73d 3c77 85bd 58dc 3f3d 561c eabd
00000350: 97a8 86bd 6a7e 1fbd 90ba f5bd 3e72 86bc
00000360: ce68 b53c 17cf fc3c e435 e03d df51 793d
00000370: 8413 f1bd 09c3 32bd bf53 803d 8c90 fdbd
00000380: 28b5 29bc f782 263d 1700 b1bd d7cd cd3d
00000390: 55ec b1bd 506e c6bd 78e3 d2bd e592 bebc
000003a0: 0ec3 f83c 438b 0c3d 5ad4 86bd 446f d13d
000003b0: 6949 8dbd c3ec c43d 204f ef3c db4f 42bd
000003c0: 9775 af3d d770 0b3d 6430 e7bd 95c3 603d
000003d0: a33d ed3d 53a3 d5bd 0852 03bd 3370 e1bd
000003e0: d224 a53d 301f 7c3d d8ed ab3d e66c e93c
000003f0: 926f e1bc 87bf abbc 1c50 d2bd 02d7 913d
0.05330089 -0.07410919 -0.09786357 0.0927832 0.08681314 -0.050000276 0.009543684 -0.11933801
-0.0014565346 -0.12280839 0.06875986 -0.13206677 -0.033177495 0.1144431 -0.048604574 -0.08266017
0.108602725 -0.07178719 0.023886405 0.06012443 0.031541895 -0.08755356 0.10720189 0.051662184
-0.08174802 -0.076488785 -0.03593125 0.031713746 0.04408035 0.012043491 0.07497892 0.121384
0.02322176 0.042727407 0.06912585 0.01844504 0.0034935034 0.10739902 0.07866032 0.08030807
-0.05935043 -0.061238393 -0.071119405 -0.11130013 -0.014080903 0.06859938 0.006134024 -0.050923802
-0.023613472 -0.102790356 -0.08645615 0.003259361 -0.07470296 0.005163913 0.09780877 0.023301437
0.09261981 -0.0837078 -0.003574986 -0.1289745 -0.0055914815 -0.1005998 0.10813909 -0.114535995
0.038950752 -0.08119637 0.02731307 -0.0030363617 -0.018464426 -0.050737396 0.0695172 -0.030606823
0.0004795171 -0.04430812 -0.09304513 -0.060264684 0.10908626 0.116802424 -0.06123874 0.0022962084
0.016243592 0.10190129 0.013682427 -0.0036968065 -0.03741533 0.02510855 -0.13058482 -0.1327446
-0.0172446 -0.09170333 -0.093757756 -0.029317876 0.06622284 0.058068763 -0.050354496 -0.01048035
0.11360139 0.020966304 0.08347541 -0.05798925 -0.115989216 -0.06300617 0.0035151076 -0.030070908
-0.07807351 0.12021564 -0.1159804 -0.0032929087 0.048920132 -0.035483643 0.042436637 -0.006105069
-0.08046461 -0.07486116 -0.0621282 -0.13011946 0.07618489 0.10461517 -0.069313 -0.0020233467
0.03866789 0.030887367 -0.076077975 -0.081918806 0.11545491 0.06536556 0.108357385 0.08016416
-0.012167756 0.082904175 -0.010396523 0.0013691523 -0.052813593 0.0993782 -0.031963624 0.010790819
-0.10514763 0.037535843 -0.058863666 -0.0324893 -0.012812462 0.044536334 0.009760244 0.015280519
-0.08520002 -0.101695254 0.04179855 -0.0600875 -0.10773603 -0.052723173 -0.12730825 0.017709756
0.010855874 0.11201278 -0.07325662 -0.067712136 0.027013386 -0.034161914 0.09337686 0.019903326
-0.0029163284 -0.05282451 0.07514854 -0.06351497 0.04770715 0.07663651 -0.10468189 -0.11117659
-0.07828334 0.05993559 -0.06702651 0.006102239 0.018938972 0.025679767 -0.06861455 8.822366e-06
0.08117222 0.058815423 0.019883761 -0.10598514 0.0570864 -0.057784237 0.08286139 0.05237423
-0.02389301 0.045906357 -0.056555573 0.0173069 -0.011357713 0.008038938 0.048797335 0.11632255
-0.0593627 0.11500678 -0.03093337 0.1162873 0.023601416 0.007088859 -0.053387072 -0.074494086
-0.13365349 -0.0753875 -0.013093727 0.09666204 0.06446482 0.019526606 -0.12760843 0.077356376
0.08156582 -0.06516883 0.046840996 -0.11431186 -0.06575125 -0.038938917 -0.119984746 -0.016411897
0.022144701 0.030860467 0.10947779 0.060869094 -0.117713004 -0.04364303 0.06265973 -0.12381086
-0.010358132 0.04065224 -0.08642595 0.100490265 -0.08687655 -0.09689009 -0.102972925 -0.023263404
0.030366447 0.034312498 -0.065834716 0.102263 -0.068987675 0.09615471 0.029212534 -0.047439437
0.0856735 0.03404316 -0.11288527 0.05487402 0.11584022 -0.10431542 -0.032060653 -0.110077284
0.080636635 0.06155318 0.083949745 0.02849431 -0.027519021 -0.02096535 -0.10269186 0.071210876

fc.bias f4 [7]
00000000: 6b33 70bd 0a4c 943d 0429 debc 5208 863d
00000010: 2215 31bc 4986 f0bd 2898 84bc
-0.058642786 0.07241066 -0.027119167 0.06544556 -0.010808261 -0.11744363 -0.016185835
